nesy_verification/neural/saved_models/icl/cnn_with_softmax.pt (torch, 50703 bytes, 8 tensors)

conv1.weight f8 [8, 1, 3, 3]
00000000: 6e27 57cc 69e7 d03f 7f07 00ae 4d26 d23f
00000010: 60bb efc7 9039 b4bf 8160 bcc4 c9fc c7bf
00000020: e2ef 47d9 381d df3f e1be 5e18 f6dd c2bf
00000030: de4c bfd8 0541 843f a0f6 1e66 f8fc d73f
00000040: c1e4 5b9d ce3e d1bf 56e9 7f50 f002 dcbf
00000050: e348 3271 e59e d3bf 9c5f 3907 01f6 b9bf
00000060: 1079 f1a9 75a4 dfbf 5eac 07ad c660 d83f
00000070: 1fbd 5f27 e7a0 d9bf 7fb7 8d29 1357 94bf
00000080: 0d4e 6406 95f2 d8bf 2b92 d0aa d3f2 d0bf
00000090: a280 db87 574d a4bf 5450 43af 8553 d7bf
000000a0: 8a2b ec75 7cea e6bf 51af cca8 c6c3 a5bf
000000b0: f6d4 aa8b b606 d23f cf30 9cb1 57a9 c4bf
000000c0: e98c 3157 775a d53f cc2e 2391 584a cd3f
000000d0: 613e e077 a8c7 c83f 694e ccae 1649 d13f
000000e0: 60c7 d9d7 d8f0 d43f 5102 455b 2054 943f
000000f0: 7d4e c8a0 64fc b93f 11b9 c47e 49ab cf3f
00000100: da81 b0b0 3092 e2bf 76b1 6398 be0b 583f
00000110: d8da 1845 31a6 d8bf c683 bd70 a042 e1bf
00000120: 750a bb16 ce5b babf 557d 3029 19dd b83f
00000130: 9529 2587 184d c33f 4e7d 09e9 5356 b0bf
00000140: 07ae 1ec9 c0ef c6bf ea63 1828 76e9 c43f
00000150: 77c3 c860 42b0 b1bf 6a6b e245 9ae9 a83f
00000160: fbca 420d 952e a73f 4f0a 83c3 b52f cfbf
00000170: fc2e 708f 2ad3 d5bf c209 a0d6 78e1 c9bf
00000180: 96a9 3c22 4700 bebf 2729 7d5d abc5 cbbf
00000190: 3cd5 9f18 fce5 d03f f574 8c06 0a9f c1bf
000001a0: a470 1a56 e42c d43f e45f 48a8 225f d63f
000001b0: a429 7694 39d8 e1bf dc2c f27a c63c c3bf
000001c0: a9f4 81b9 0a6b b93f efc8 8084 7ac7 d0bf
000001d0: d033 fcea 7130 c43f 1351 220e a449 e83f
000001e0: 17ae e500 f991 efbf 11bd 941a d5ad d8bf
000001f0: f732 0974 4923 aa3f 7e0f 7d45 9c7b b53f
00000200: e754 f86a 98d8 d1bf 00b2 4709 97a1 b73f
00000210: c6a8 ce37 f95b d23f 6f24 a5e3 3bde c5bf
00000220: dc8f 5400 775c d0bf 7695 d9b8 0e06 d73f
00000230: 87ab 500f 69e2 c33f fda8 ad00 5372 bb3f
0.26412434535142537 0.28358785621832533 -0.07900338059674317 -0.18740198236696773 0.4861585733303838 -0.14739872159906667 0.009889646222211498 0.3748150822901639
-0.269458440466746 -0.43767936574262956 -0.3065732579644999 -0.10140997339601515 -0.4944128188707433 0.38090674302538285 -0.40044573636164843 -0.01986341420290882
-0.38980603813362863 -0.2648209732163049 -0.039652571996840594 -0.3644727908661072 -0.7161238005804631 -0.042509277444280465 0.2816597331942171 -0.16141792461747292
0.3336466170787405 0.22883135878361427 0.19359308102910958 0.27008597440838017 0.32720013693971417 0.019852166720058687 0.10150746274330831 0.2474147671686713
-0.5803454829183992 0.0014676438600487985 -0.3851435827995551 -0.5393831445654704 -0.10296333365389805 0.09712369208908929 0.15079027747044607 -0.06381725730306195
-0.17919168300919372 0.16337468107010916 -0.06909575331589034 0.04865724661904987 0.04527726923824634 -0.24364349409559558 -0.34101356513632175 -0.20219336013549422
-0.11719173990119311 -0.21696989121330398 0.26403715519639426 -0.13766599006422778 0.31523998650096474 0.34955660280092915 -0.5576446437492462 -0.1502922153780223
0.09928957966799835 -0.26217520656349697 0.15772842382321395 0.7589893604331642 -0.9865689294360348 -0.38560988994409323 0.05105046788648864 0.08391739555832875
-0.2788449329976416 0.09230941750110588 0.28686361741950994 -0.17084454169733784 -0.25564360649354767 0.3597447209525265 0.15534699676331007 0.10721319929658431

conv1.bias f8 [8]
00000000: e99e 7294 3662 bf3f b60d 3188 ab54 c23f
00000010: 6707 19e5 a938 c53f 7bd5 4888 8667 b33f
00000020: e4e9 bec0 e927 e1bf 885c 1c3b 9b06 213f
00000030: a9bb c953 fc82 c03f d56a 446f 6d91 c33f
0.12259236454212509 0.14320892477017616 0.1657917374268962 0.07579842402704699 -0.5361222042623095 0.0001298965922209331 0.12899736491405392 0.1528755944535393

conv2.weight f8 [16, 8, 3, 3]
00000000: 1894 402e e00e d4bf 36df c2b8 545c b03f
00000010: 896a f156 97cc a23f 1b3c b322 0683 cfbf
00000020: 56a1 6257 6f10 babf 873c 27cb 44bd b4bf
00000030: 9632 26de 2d3f cf3f 6b10 e66b d487 b23f
00000040: c66e 55ed c152 abbf 72e2 052c 3bd9 893f
00000050: d6fb 5ded 5818 c7bf 72ab 1522 a54e c2bf
00000060: 5298 484f 47b3 c0bf 2c05 b917 68ed a9bf
00000070: ea25 63fa 1b87 b6bf 5315 ae37 1a30 bebf
00000080: 7af1 c181 323c c5bf 68b6 34e6 50d8 cabf
00000090: c661 2978 a43d bebf 9cc1 696a eb35 be3f
000000a0: 4446 0c77 5e23 e4bf a245 8f0a 8d38 d53f
000000b0: fc8a 08ec e105 b73f 154a be81 abb8 92bf
000000c0: 4c16 e885 4f94 a3bf f9a9 a10a 40f2 cd3f
000000d0: 19e9 69c9 c61e d03f 1f79 b155 6b4d dabf
000000e0: f240 3dfd 9298 a33f 32d7 7bc1 6c33 2bbf
000000f0: de0f aa64 eb31 cabf d425 e1d6 7289 c7bf
00000100: 094c dc9d ea69 c0bf 5748 d5da 0991 b93f
00000110: f2ca 1310 c285 c5bf 82f3 5c96 19fa e2bf
00000120: 03ef 7011 22ff 77bf d3eb 5c56 4c51 a73f
00000130: d665 fc35 6084 5d3f ea00 f881 d660 c8bf
00000140: b762 53e5 2f95 a9bf a8a7 43b0 3883 b0bf
00000150: 177b 5b6b 7fe3 9ebf 6b58 6779 2ac4 a33f
00000160: f4fc 180c dd21 c8bf 8c19 4bfd 5a49 a9bf
00000170: b5e4 84e3 6229 bdbf 6e58 810b 8c83 adbf
00000180: e766 d446 4bb9 b23f d836 5b4a 5f14 b6bf
00000190: 147a 6cb5 7b1c d9bf bb36 d12e c94a b43f
000001a0: be1f bdaf 6281 993f fd4b c45b 3dbe 9f3f
000001b0: 50f5 9a91 1f57 c33f 5c55 cb23 a45a bf3f
000001c0: bd0f 0dd1 0162 cc3f 0a96 bbcd f6c1 d7bf
000001d0: 54cd 7346 4047 c1bf 51aa c0f6 5966 d23f
000001e0: 5fc8 a9d2 13f8 d33f 9a2e e9f6 99e3 d33f
000001f0: cc36 ba46 cab8 c8bf 0e42 c3d7 16c9 e0bf
00000200: 7b1e 55b9 9f78 d3bf a2e7 f247 1201 bcbf
00000210: efcd 42a9 5307 cb3f 0919 d713 e492 c03f
00000220: b12d 1a23 ca08 cdbf 2f34 9e59 9955 a1bf
00000230: a2a0 63f9 d60b b83f d4d1 e764 f3b1 9b3f
00000240: b971 3a0d 9aed ba3f 75ff 00d7 3a1e b9bf
00000250: 6530 cbec 6368 e1bf fe06 f8f7 29eb a03f
00000260: 034d c50e 7d77 d6bf f0a7 14bf 38ab c23f
00000270: dd65 cf3f 3f8d acbf f9e0 34dd 522c c23f
00000280: f2ad 72f6 66a6 c23f f47e 281e 0844 483f
00000290: 5836 7c7c eb16 ac3f 53fd 1917 02c7 b7bf
000002a0: 7734 6a4b 47dc b13f 2c19 ebbc c432 8dbf
000002b0: efd8 1579 dce3 c2bf bf34 4d39 f2b9 a7bf
000002c0: e355 2992 8cab a43f c5ce e97f 1937 9b3f
000002d0: 269a 8197 66c7 94bf da89 9d6f 2238 c7bf
000002e0: 3051 b1f2 0471 d0bf a1f2 9656 fb10 c8bf
000002f0: e099 e816 7a7c c6bf 5960 2664 da91 c2bf
00000300: 2088 7a93 601f a1bf b88c 09ad a866 bebf
00000310: 813e d193 18ff a6bf d8be 9108 3774 9f3f
00000320: 0cd4 d0ca 811f c53f aa47 3a7f 68e1 d0bf
00000330: 4d17 0764 9fca d43f 275d 1854 7b29 983f
00000340: 1d24 a176 12b5 b83f 7d24 9d2f d61c c23f
00000350: 407a 19f0 3d92 a73f fe7c fd82 b5fd d13f
00000360: dc3d dbce 3870 c43f f346 7156 8c0f ddbf
00000370: e202 a03f 581f 823f b1d5 dd48 0afb ccbf
00000380: 8426 1540 cf39 9dbf 3b72 3c26 0468 a33f
00000390: 5bb1 1902 4571 a1bf 2113 56c3 fd57 c33f
000003a0: 61e4 0f90 4fdb 7c3f b4e0 1a7c 9d8c a8bf
000003b0: 25a8 148b 4816 ac3f e611 7cac 9ddd a83f
000003c0: 3119 c0a1 5d9c d1bf 612b e608 ee9f a83f
000003d0: 4693 34e6 1e28 c93f bb55 1b25 d500 b2bf
000003e0: 89cd e4bd 3768 d23f ede3 df76 88e5 c03f
000003f0: 5e92 adc2 2b5a d63f a819 2221 d883 c13f
00000400: b5ef 00ef be6d b2bf e722 2fac 2582 e3bf
00000410: feba 835e 5ffe a5bf ab0e 23fb 834f c0bf
00000420: 5e6d d257 7f90 d0bf 18ae 43c5 b3b6 b3bf
00000430: 31a0 2801 0296 abbf 83e9 b29f f703 a0bf
00000440: c3d6 cd3e c10f 7abf 70a1 07f1 4164 b5bf
00000450: aded 0e41 71a4 c03f 9c40 48d9 a976 9cbf
00000460: 9638 574f 6b2e c1bf fa37 f8cd 0e00 993f
00000470: dec1 5484 e4ab 75bf 719d 6c26 3168 ae3f
00000480: 05a9 bd63 451f aa3f 0e0c 6d69 44ba 853f
00000490: 7219 ec68 5305 b3bf cf5e 0b76 4f44 cabf
000004a0: 1f10 5840 937a adbf c835 bcf2 b782 89bf
000004b0: 3de8 8106 c413 893f 1fcc d22b 8530 9abf
000004c0: d7c5 5648 70ca c53f 2a0b c31a e00c d3bf
000004d0: 7549 2317 7d9b d5bf 6e5f 6b3a e0aa d8bf
000004e0: 4659 8162 7ef8 afbf d08b d1d8 cbdb c9bf
000004f0: 3f82 0f08 0570 d7bf e805 a8c6 3114 abbf
00000500: c3b4 c784 87f9 d3bf cc94 afa7 f3eb d3bf
00000510: 0836 4d01 2b3d c93f 6840 4b0f 54c6 bc3f
00000520: 05df e191 8d76 adbf 684c 5cf6 ee8f c5bf
00000530: bada 2ca3 fa85 a6bf 62cc 6b32 2975 d4bf
00000540: 70ab 4938 7fe4 aebf 34dc 9672 c894 c7bf
00000550: ee1c 2b6b e9a0 b4bf eca0 0376 d518 c13f
00000560: 02b9 e07c bd12 ac3f 3b7e 4985 c444 a23f
00000570: 42f7 99c8 77ac bebf f372 dfda febf bfbf
00000580: 0287 e105 c669 b8bf 18b8 6afd 2a11 c3bf
00000590: 30a5 c9a3 6194 d4bf 5705 b661 f4fd c9bf
000005a0: 7ce0 f642 7d5d a2bf 469b 84cf 9a99 a9bf
000005b0: 87e5 4389 89b4 c13f ea66 46ba 1023 92bf
000005c0: 9488 d913 0714 c03f 3c9d 817d 2957 94bf
000005d0: ea8f 6dd8 da60 b13f f374 ce7b baf6 c23f
000005e0: 12c3 7a32 3235 b2bf 2061 a6d3 21e7 b43f
000005f0: 0b5f 37cc 7e20 a83f eac5 2c0d 34c2 c03f
00000600: ba5c 3fb6 3fe5 b8bf b696 075b 1639 80bf
00000610: e265 4c0a c00d bb3f 1c27 4964 33c0 26bf
00000620: 867e c29c af1f 9a3f 038b 354c 33c6 cabf
00000630: f30b f384 e065 b23f 8ef2 68b5 8e9e 91bf
00000640: 80eb 1592 a6e4 d4bf e30f ee00 3acc a8bf
00000650: 9062 5ffc 0624 a9bf b9ae 71e9 6e6e b2bf
00000660: c22a 5458 8a84 ba3f 632e 8bd3 6d92 cf3f
00000670: a7f3 dd1a 2702 a53f 6f48 cdf3 7738 87bf
00000680: 4b84 c37d 471f 97bf fc0c 50b3 378a 903f
00000690: f156 4710 605f 643f 20f6 2ba4 b6e7 b9bf
000006a0: 0297 5e3b f659 9fbf c62a 2480 dbf2 c5bf
000006b0: 9765 752a 5c29 9dbf a3ec 1abe 67e5 ce3f
000006c0: c9d0 005a 302b b8bf 8b76 ff24 4c5f a23f
000006d0: ab8a e9e5 a3ca c83f 440e 1a34 b242 c6bf
000006e0: d04e 3acf 6a2e c8bf 0d9a 0c0b 2024 c03f
000006f0: 9366 8111 9eb4 b9bf fbe5 73b8 6f8f c5bf
00000700: 8e5a 12ec 36ea b1bf 531c 59ff 0e3a c7bf
00000710: da59 8efe 0ef8 cdbf 9865 ca09 0d34 e2bf
00000720: 7895 6a42 2066 ac3f 3ae5 72e3 5c02 cbbf
00000730: dd54 f558 2c85 cebf 3658 da01 41a0 c7bf
00000740: 8e46 d02b fb3b bdbf 4e2f 085e f684 b2bf
00000750: b39e 2cf2 5286 96bf 1bc6 3c90 f0d4 c3bf
00000760: 18bf a610 8ecc d63f e7f7 a9d7 c26e d33f
00000770: 1e2a 0150 3d3d a3bf b1b6 661e c053 b03f
00000780: 66b8 a6f7 a514 c13f 9d9d 5e16 04be b43f
00000790: 62bb ea77 2696 d3bf f7eb 6866 e1d7 bd3f
000007a0: 50b5 f041 58cd bdbf 14c9 6f6b e88a bfbf
000007b0: da9e f8ee be86 cfbf b2d0 755e 37e4 cabf
000007c0: 6122 9e14 19ed ddbf ddde 9912 44a8 bd3f
000007d0: 3977 f808 6b10 be3f 5d28 b553 bb99 bcbf
000007e0: 44da f3a3 f7ea 67bf 5a1b e7b6 22cb 723f
000007f0: a215 b3c8 e0ce a73f c012 d5de c890 babf
-0.31340794102499236 0.06390885840198454 0.036717156756556575 -0.24618603414862225 -0.10181327708653973 -0.08101301154896322 0.2441155752861916 0.07238509783025086
-0.053365764829064896 0.012621366768813067 -0.18043052282516098 -0.14302505649842662 -0.13047114726322434 -0.05063939370712442 -0.08799910414668202 -0.1179214845597774
-0.16589957557506435 -0.20972644081614367 -0.11812808927186955 0.11801024768806773 -0.6293175053744524 0.3315765956040996 0.0899335099461886 -0.018282584947494202
-0.038240895362872424 0.23395538825145915 0.2518784491472999 -0.4109752976272762 0.03827342358874998 -0.0002075262316265036 -0.2046484223866391 -0.18388209812319067
-0.12823231418641992 0.09986936180692517 -0.16814447197938126 -0.5930297791270365 -0.0058585482393558345 0.045542130987506056 0.0018015803870582345 -0.1904552588093858
-0.04996633219133655 -0.06450228026701998 -0.03016470997578854 0.03860600215891526 -0.18853343096450426 -0.049387782497023996 -0.11391275458017243 -0.05764424934811606
0.07313986281624417 -0.08624835553493015 -0.39236347882425204 0.0792661418247133 0.0249076289904051 0.03099914429283145 0.15109629258760515 0.12247682451137137
0.2217409392125073 -0.371213627730271 -0.1349869102483391 0.28749703499730567 0.31201644489840946 0.3107666884650172 -0.19313934758650075 -0.5245470251193767
-0.3042372999084148 -0.1093913484245648 0.21116109623618182 0.12948275536309264 -0.2268307372472527 -0.03385619372338799 0.09393066013911036 0.027046015771661505
0.105188015203061 -0.09811752080076792 -0.5439929604413122 0.0330441584774359 -0.35104299967242997 0.14585027055846878 -0.0557651296036956 0.14197765160657363
0.1457031920775616 0.0007405318868371744 0.05486236471743372 -0.09288037361146921 0.06976743308242016 -0.014256989493685333 -0.14757877266283212 -0.04634053182108166
0.04037131580541222 0.026577375824173872 -0.02029190349312606 -0.18140058946580845 -0.25689815235570546 -0.18801824310312035 -0.1756737338884724 -0.145076083089182
-0.03344251442219126 -0.118753950353084 -0.04491497806941159 0.030716762445478135 0.16502401736366357 -0.2637578241784647 0.3248671032746316 0.02359574032570069
0.09651294132449136 0.14150502514738497 0.04603761249449123 0.28111017028818697 0.15967474079523825 -0.4540739864506655 0.00884884781044221 -0.22641113813339822
-0.028540838514607106 0.037902955691809535 -0.034067303186790375 0.15112278020765138 0.007045088569605702 -0.04794780864671236 0.05485750863802278 0.04856579523587694
-0.2751688079446409 0.04809516771918854 0.1965368866014165 -0.0703252044289319 0.2876109461241972 0.13200479320928996 0.3492535973694312 0.1368360673697684
-0.07198708853769527 -0.6096371043177812 -0.04295633343450865 -0.12742662203355812 -0.25881942345013964 -0.07700656476998124 -0.05387884391922205 -0.03128026794861951
-0.006362681259693029 -0.08356105932728553 0.13001838375735755 -0.027796415221076218 -0.13422910093362778 0.02441428310526559 -0.0052908827249642226 0.05938867181822161
0.05101982920207785 0.010609182803483132 -0.07430001555994695 -0.20520966781508895 -0.05757579956483049 -0.012456357093038842 0.012244731377212154 -0.02557571487404797
0.1702404359071312 -0.2976608525606702 -0.33761527308993006 -0.38542943673154795 -0.06244273140389338 -0.20202015005915408 -0.3662121370998967 -0.052888446331063765
-0.3121050640755351 -0.31127635360310246 0.19717919887118307 0.11240125058543671 -0.057545112665080146 -0.1684550002033547 -0.04399092904934805 -0.3196509354012901
-0.06033704340082735 -0.18422799678020996 -0.08058031908432259 0.1335703684083066 0.05483047627818573 0.03568090559997158 -0.11981915137763813 -0.12402336925101647
-0.0953639759404972 -0.14896142362471276 -0.3215564822663337 -0.20306257983251427 -0.035869516777382565 -0.050000036079203045 0.138322059654268 -0.01771188866550847
0.12561119527078246 -0.019863746915146793 0.06788413795362627 0.14815455479848758 -0.07112420780573483 0.08165179650530208 0.04712291949152644 0.13092661517434517
-0.09724806022073809 -0.007921385434154753 0.10567856074739937 -0.0001735747083720312 0.02551149744306127 -0.2091735956301691 0.07186702009043681 -0.017206411192307196
-0.32645572916197096 -0.048433125127331576 -0.04910299139709651 -0.0719975776607339 0.1035849061628751 0.24665615872651178 0.041032049207365966 -0.011338173988097304
-0.02258025841809212 0.01615225822389464 0.0024868847124065387 -0.10119191654299486 -0.030616614698053553 -0.17147392041109394 -0.028478088466135167 0.24137589247206845
-0.0944090099081364 0.03588331176409295 0.1936840889566914 -0.17391040367157207 -0.18891654127639024 0.12610245265496225 -0.10041225364093469 -0.1684398317955099
-0.06998008025616739 -0.1814593073670233 -0.23413264684195562 -0.5688538733694939 0.055466659648383876 -0.21100960832499444 -0.2384391245238139 -0.18457806196664855
-0.11419648952166936 -0.07234134479238927 -0.02199678042521098 -0.15493590395776455 0.3562350428210137 0.30363532124454057 -0.03757659532182721 0.0637779306623212
0.13344263641687631 0.08102441354878072 -0.30603944502484215 0.11657532453766338 -0.11641456231946745 -0.12321331618276005 -0.2462996165133891 -0.21008960830989093
-0.46759631169746824 0.11584878400924077 0.11743802041061437 -0.11172076028484086 -0.00291965834878319 0.004588256457686091 0.04650022935815491 -0.10377173843614695

conv2.bias f8 [16]
00000000: 24fc 2f51 0131 bfbf 939d f510 49d2 b63f
00000010: 0f97 eb3b f49d d1bf d8e1 1d83 9a97 b9bf
00000020: 5ebe 9039 4ce4 bbbf ec73 50ec 05ec 973f
00000030: 0b4b 3176 a24f d2bf 5ae9 f675 acba bfbf
00000040: 5ba5 8e52 f2a7 c4bf fa35 1475 3b68 c0bf
00000050: 46fc 16e1 a612 c8bf 1b33 8f15 274c ac3f
00000060: 4902 dfc4 94e6 a1bf 44d5 9d85 cd31 8b3f
00000070: 1d22 6a56 525d b13f 8e4a 733d 0ffc b63f
-0.12184150917163145 0.08914620079086992 -0.2752657494696544 -0.09996953679172493 -0.10895229726224318 0.023361294315794298 -0.28611051122895564 -0.1239421642302764
-0.16137532263864326 -0.12818091599221743 -0.18806920996391535 0.05526849878478953 -0.034962319404716675 0.013278585090783175 0.06783022508364707 0.08978362322094766

conv3.weight f8 [32, 16, 3, 3]
00000000: 5db4 7394 eb16 ccbf 9512 8d2f 1f86 a33f
00000010: 8d85 19fb 7771 c53f 6ff3 5eba 7b2d 66bf
00000020: 33b4 5ee5 2d62 ca3f 8001 1934 a36b 913f
00000030: e4c4 b427 3090 d0bf c9a8 ea26 0839 cbbf
00000040: 4f6c dc06 8e75 babf 319f a4f7 69e0 c8bf
00000050: 94d5 4737 902c 9f3f 91fa 0df7 d8d8 b43f
00000060: 3819 94f2 80d7 a1bf c98d b081 a340 a9bf
00000070: f0aa 78cd a270 c13f e438 5d92 ba4c d3bf
00000080: 6d6f 5530 8710 b1bf 5d7b 5ef4 2a22 c1bf
00000090: 7a9c 4267 6609 d2bf c056 55f4 46a2 c03f
000000a0: 6d74 31d2 a227 893f b1f7 a150 c2e0 bfbf
000000b0: 89cd 0665 ff6d cbbf 07f1 223f 79c9 b5bf
000000c0: 31dd a401 759a a3bf 6945 152d 2ef9 73bf
000000d0: 670d b576 c43b a4bf 5058 5470 5323 c43f
000000e0: ae4b 1a84 2713 cdbf dad0 3b4b f5a2 d3bf
000000f0: fb50 d0b1 81c7 c7bf a039 70f5 d9d9 c13f
00000100: 0b73 82e0 57fb cb3f 8de1 e040 6cb6 893f
00000110: cf62 51a6 be67 b63f 2510 aaa7 c94b a03f
00000120: 8340 b5a2 00ec aa3f b0a6 feb7 4c8c b0bf
00000130: 3d62 60ed b9b7 b93f 5af2 9ba3 3f2e a3bf
00000140: 2da9 3e7c 9d23 a83f 7f03 ffce 4d52 733f
00000150: 7e3c 3548 86dc d9bf 6be0 61f4 1c6e bdbf
00000160: 218f f6f5 e150 9abf 4cd4 0cb2 6e1e 713f
00000170: 7596 1290 b013 c53f d1bd 6e73 80c5 c23f
00000180: b4d8 ae1d 4a7c c9bf d2b2 d169 3f85 b5bf
00000190: 59eb d3b2 4d43 b03f 38a9 2f08 c94c bfbf
000001a0: c7f2 6595 bfae d6bf 8f38 e361 79c4 a6bf
000001b0: a6f7 8b93 57da bbbf 97c7 fed9 4238 923f
000001c0: 37ec a1e8 feae a6bf 3171 9c05 a2d9 c03f
000001d0: 560a 5cf5 94a1 a3bf 87d4 a24b 525c c8bf
000001e0: f3fb c801 d4fb b7bf 044a 5809 5040 bdbf
000001f0: 33f4 3555 901d ae3f b145 53a9 ad5b 6dbf
00000200: cc2b 8a82 f2a6 c2bf 98a9 b153 6b32 473f
00000210: cc2c fc8c 74bd c3bf 389e 825d 8e7f d1bf
00000220: e664 4c53 af3b c9bf 9293 00dd f42d c4bf
00000230: 5960 b4bc 9728 afbf 86cc 1143 ab44 7d3f
00000240: d31d 14ff 870f bb3f d08a 51e4 db41 cbbf
00000250: e152 aa47 7681 b33f e965 7167 0b06 a1bf
00000260: 45a7 a627 b039 c0bf c008 b1a5 6172 bf3f
00000270: 65d8 0845 b6ab a7bf f5e6 55f6 6174 40bf
00000280: af3d b808 cfa2 a63f 7d7f 5ccf d0fa c1bf
00000290: 2be7 5c34 26a2 c9bf 670f 1573 8bc2 9f3f
000002a0: 7792 150e 3d0b cfbf 948a 5d94 aecb bbbf
000002b0: cf34 cd27 530d b03f f4cf dd79 7d71 d4bf
000002c0: f64b b619 3b72 aebf 05e5 0e2f a7f1 a7bf
000002d0: b0f7 9319 29ed b0bf 3ddf ac1d fce5 b5bf
000002e0: bca5 8dfe a7ec 9d3f 2b3d 1169 b1a2 c1bf
000002f0: 3f08 4633 05fb bbbf a1f8 8677 8503 a0bf
00000300: bbb2 cb03 b97e d0bf 1611 908e e096 c8bf
00000310: 0dee 0026 bdb0 9d3f b6f2 b28d 132e c9bf
00000320: b7ba 760d 09a7 9fbf 275c b16e 705a c93f
00000330: b836 fccc 6137 d6bf b355 80e3 37d2 9fbf
00000340: 3a7c d8a7 2d75 b0bf 9b60 2fb4 12e8 babf
00000350: 3e71 cca7 08a4 abbf e457 7b76 793d d1bf
00000360: 9f03 93ed 22cf 373f 9e1e fd56 184c c53f
00000370: 28e3 5d99 200c babf 31a3 7608 ecdf b03f
00000380: 035f 0591 0d9d 9bbf 907d 69a1 77aa abbf
00000390: 2f45 7398 e302 d2bf 23b3 2ce5 30ad a8bf
000003a0: 0db0 395d 0898 963f 7bc7 82e2 e71f d13f
000003b0: f539 0abe 5ade 70bf 0077 202f c01e c1bf
000003c0: ab98 a566 9ba2 c3bf 423c ab53 ed56 d0bf
000003d0: f77e 62e5 210a c2bf da9e 04cf 1235 88bf
000003e0: 5bc1 2caa d0c0 c53f 82ac df51 19a2 d43f
000003f0: f1c8 d425 caea b73f a430 ae44 2a44 d2bf
00000400: 1e83 7084 b6ff 9cbf 743c 1295 99e7 b1bf
00000410: f0e0 95a0 966d c93f 484a 4d8f b3b0 c03f
00000420: 1a93 8624 d5b1 a33f 0f3d 1c61 d180 92bf
00000430: e57d 2f60 3664 90bf 6d44 e5a9 5a96 bc3f
00000440: 3b07 c933 bdc7 b03f 0e58 7b57 8733 c63f
00000450: 83b4 a11c 738e a9bf caea b629 a922 c23f
00000460: a920 3059 49f9 d73f 15da d820 7482 b8bf
00000470: f17e d160 84f6 bf3f 862d 0983 fef5 d73f
00000480: b4b1 f2a1 fd67 c9bf 6099 8890 51b8 e1bf
00000490: 58f4 a4a7 a313 b7bf 16d2 962d 898b 95bf
000004a0: 8e85 08c5 1c1b c0bf 31bf 832b 3984 ccbf
000004b0: 8442 3247 661f adbf 3198 4147 f036 93bf
000004c0: b77f 0fd9 6bdb 9ebf 3817 2657 e19e 9c3f
000004d0: 5d31 c371 9429 b13f 08f3 9d05 0579 b13f
000004e0: 0800 cd76 879b d3bf 59cd ceb5 9405 b0bf
000004f0: 0e94 164d 4d0d 61bf 90e5 dbf6 ebec b23f
00000500: c52c 4966 f1db a5bf 3f4e 3e72 5dc2 c1bf
00000510: 5782 6700 e07f c33f 8a9b 7ce1 b7ca 8abf
00000520: c4d4 274d eb76 a3bf 281f f717 bc03 c4bf
00000530: 6774 d14f f2c9 a43f 7688 1d8e 3099 a63f
00000540: 95ac aa6b 10fb b4bf 87e8 4a35 28d8 c8bf
00000550: 3ced a303 f925 bdbf c57f 2e36 f419 d1bf
00000560: 507b c756 85f8 d8bf aaef d586 de50 c3bf
00000570: 66b9 998a f6ab 84bf 1ea2 52da 37aa a1bf
00000580: 9db5 526a e617 c73f 6266 8607 281d bcbf
00000590: 70fc 8979 03b9 c03f 5608 a5b8 ee4e afbf
000005a0: b6d8 bb78 0dd2 9cbf 2468 1530 e310 abbf
000005b0: 5574 8614 59f2 abbf 9ad1 7720 24af c8bf
000005c0: eb8c 7ae2 4aaa cabf f353 e3c2 2ca4 c6bf
000005d0: 321f db1f fbab c13f f31b 34f9 6727 cbbf
000005e0: 2d97 f4ac 3f39 91bf 5d02 aa9e da60 b6bf
000005f0: 9155 8c06 8f32 d0bf a0f0 af4b a256 d03f
00000600: 41da 5e34 6271 9abf d3f3 6156 cd7a d6bf
00000610: 6be4 598b 705e c5bf 0de7 c553 b0da a03f
00000620: 3e09 09d4 8060 933f fc9e 281d 8a91 d23f
00000630: 9fdc 4e5d 81b4 a7bf c1b1 ef93 641a c4bf
00000640: 2c3c d189 1069 bebf 49e8 37c1 b9b7 cbbf
00000650: 2b14 c986 a59b 98bf 9c50 9ca8 d150 c2bf
00000660: 372d fae8 7369 92bf 7dda d58d 176d c43f
00000670: ec9a d6ac 5bdd c3bf ba1a 6869 b28d b73f
00000680: fbd0 7af8 0fb1 a93f e1a8 64b4 3578 c3bf
00000690: 3a81 5e11 7373 a73f 4de4 46dd b1c1 7f3f
000006a0: d7ef 9d28 fd1a a9bf a232 d3e6 ec19 c3bf
000006b0: 87d1 aa93 5cf8 adbf 5a3e 49a3 2108 c1bf
000006c0: fce6 2851 b786 b9bf 38b4 4c66 299a b03f
000006d0: 0286 8d3a 27a0 ba3f dc01 a7ad f627 c2bf
000006e0: 9fb1 a534 29c0 bdbf bac7 ae4c 6c5d 9d3f
000006f0: 3d1a ffac bd4a a33f bc29 80a3 62f7 b23f
00000700: 359c cffa 34a8 89bf bf18 e14b 0b1d b1bf
00000710: 6658 4ba7 bad8 e0bf a1bd 78cc 04ad bdbf
00000720: be0f 1648 7f2e a5bf e7b6 36f9 360f acbf
00000730: 6755 86ae a952 b4bf aaa3 6507 b82b c8bf
00000740: 6b08 475e 34f2 9d3f 6257 550c 3d0e 9cbf
00000750: 475a 4adb 1c81 bfbf 16e5 a856 39a7 b4bf
00000760: 65c9 af75 b92a bf3f 166d 32b8 99f2 81bf
00000770: d53a 3e4a 66d1 c0bf 709a 931f 6a51 b6bf
00000780: e832 f6d7 f0ce aa3f be66 e0b7 404e a4bf
00000790: 176d 7898 1cda b4bf 6c68 5809 160a 953f
000007a0: 4eac 7d40 3110 c3bf 4bb5 7167 c7ac b63f
000007b0: 1193 571e 5fb3 97bf f890 d41d 22c9 c23f
000007c0: 6116 7d65 6798 b8bf 625f 1064 4ead 96bf
000007d0: c654 af95 2513 b4bf 5478 b54d 2357 8dbf
000007e0: 8a49 1177 b954 b23f 94dc 2775 3103 bf3f
000007f0: b9f8 9cba 4424 92bf bbc8 5fbc 5052 c3bf
-0.2194494700301303 0.03813264327485403 0.16752528916098833 -0.0027072350084992795 0.20612119388297998 0.017012167029180514 -0.25880054357101145 -0.21267797374941314
-0.10335624377732809 -0.19434856979318618 0.03044343316465399 0.08143383056265409 -0.03484728776133966 -0.049321279126413105 0.13624987633496444 -0.3015581540429493
-0.06665844850561849 -0.1338552182396268 -0.2818237312698738 0.12995230608310315 0.012282630958163144 -0.12452330082484654 -0.21429436142862482 -0.08510549346369
-0.03828778882091866 -0.004876308799184195 -0.03951848935187279 0.1573280619128945 -0.22714704466178887 -0.3068211779311817 -0.1857759588462001 0.13946079716010917
0.21860788786298033 0.012554975252087508 0.08752051887985178 0.03182821437533815 0.052581806051081 -0.06464080326136457 0.100459690526244 -0.037462223741361725
0.04714672223720338 0.004717163028488679 -0.4040847497134975 -0.11496144262662404 -0.025699167859456588 0.004179413227395189 0.16466338190837218 0.1466522754321731
-0.19910551499714801 -0.08406444867587062 0.06352697006142928 -0.12226540040834244 -0.35441579427405795 -0.044467728804748245 -0.10880038597312466 0.017792744212506397
-0.044303861520312564 0.13164162897090528 -0.03834214682685359 -0.1903174275700261 -0.09368634265500457 -0.11426258304735631 0.05881930389566783 -0.0035837547135108773
-0.14571982740412037 0.0007079147393487693 -0.15421921619449674 -0.27341040737016753 -0.19713393752389335 -0.15765248099446844 -0.060856572900036716 0.007145565979146734
0.10570573785309216 -0.2129473557316346 0.07619418382303024 -0.03324924123507939 -0.1267605012520169 0.12283907218173606 -0.04623193352419789 -0.0005021551448145244
0.04421088200990241 -0.14046678662361592 -0.20026090199262944 0.031015566729606727 -0.2425304716845351 -0.10857668993188901 0.06270332071035799 -0.31942688847561773
-0.05946526230686537 -0.046765541548163404 -0.06611878275359007 -0.08554053997511075 0.029223084365559635 -0.1377774966262931 -0.10929901601596813 -0.03127686580727241
-0.2577345406596511 -0.19210440598556805 0.028994517750318183 -0.19671863955399765 -0.03091062683750564 0.1980724850170372 -0.34713025110327633 -0.031075356731965886
-0.06428799960893708 -0.10510365389871128 -0.053985853656032465 -0.2693771035241055 0.0003632984422204336 0.1663847374677418 -0.10174754852586132 0.06591677862764979
-0.026966297127130733 -0.054034937337514966 -0.2814263333103381 -0.04819634244481665 0.02206433362009368 0.26757237549019636 -0.004118303739814246 -0.13375093747247746
-0.1533998728947997 -0.25530560656347145 -0.14093421650340307 -0.011819979613008003 0.1699467497760548 0.32239373202782684 0.09342635558713021 -0.2854104681689569
-0.028319217523065203 -0.06994018449243972 0.19865687218749128 0.13039249894298366 0.038466129978848865 -0.018069526245253317 -0.016007279988000795 0.11166922233430095
0.065547776358497 0.17344753047535771 -0.04991492962367607 0.1416827634510212 0.37459024152532067 -0.09574056436472518 0.12485530246476252 0.3743892936369878
-0.1984860459100567 -0.5537498305246054 -0.0901434215820286 -0.02104009953264282 -0.1258274042202569 -0.22278513550508586 -0.05688018435569567 -0.01876426157868866
-0.030133900760006074 0.027949830001964687 0.06704070832637883 0.06825286280759368 -0.3063677463687786 -0.06258515776317121 -0.0020815381801235827 0.07392763878660547
-0.042693656669678094 -0.1387440498188983 0.1523399354910164 -0.013081966942605456 -0.03801665608254148 -0.15636397524053192 0.040603229754858465 0.044137494419161635
-0.08195593479711001 -0.19409659006288768 -0.11386066759944397 -0.26720910350013255 -0.3901685092404721 -0.15090543350004043 -0.010093618492842803 -0.03450178661416124
0.1804168719440157 -0.10981989082065405 0.13064616617700464 -0.06114908222163311 -0.028145037168507435 -0.05286321603735214 -0.054583343272704234 -0.19284488282540907
-0.20832191523104568 -0.17688521877303706 0.1380609422251325 -0.2121400801481453 -0.016819949084626962 -0.08741537450442523 -0.25308585776778 0.2552877177365733
-0.025823149153177963 -0.35124524532130613 -0.1669445686746117 0.0329184629690201 0.018922818128211498 0.29013302657629914 -0.04629902137770014 -0.1570554468484158
-0.11879065861397525 -0.21654436048976525 -0.024031244613315444 -0.1430913995069475 -0.017980395407488827 0.15957922387652337 -0.15519281329508006 0.0920058734264825
0.05017900379371728 -0.1521060114694768 0.04580268466020461 0.007753081114452232 -0.049034033973810835 -0.1492286803317216 -0.05853547384814122 -0.13306065056757427
-0.09971185428085144 0.0648523211245483 0.10400624446403842 -0.14184459189529164 -0.11621339354832692 0.028676693134634702 0.03767960297368631 0.074087300221584
-0.0125278605500637 -0.06684942820092753 -0.526456190821375 -0.11592130653365597 -0.041370370435316314 -0.05480357925567408 -0.07938633452279974 -0.1888341938131622
0.029244249586334464 -0.02739806545044788 -0.12306385377665051 -0.08067663541523404 0.12174567340097082 -0.008763504918809544 -0.1313903677477898 -0.08717978735840304
0.052360082972063016 -0.03965952152812012 -0.08145312044546348 0.02054628784217309 -0.14893165253610835 0.08857389712803358 -0.02314518568700225 0.14676310020980288
-0.09607549884557322 -0.022145485742015032 -0.07841715721527284 -0.014326358613001279 0.07160529286310272 0.12114247427222075 -0.017716478242839815 -0.15094956586796635

conv3.bias f8 [32]
00000000: 85c9 ad7f a742 9abf 94f1 cbae 9e36 95bf
00000010: 9b8e e86d 03f7 b8bf 4f42 d3d0 ef93 bfbf
00000020: 1df1 1bec 8d8d 99bf cce0 edb5 5473 bcbf
00000030: e2c6 2594 3643 cc3f 2d44 c070 6d3a a4bf
00000040: 9b9f b8d9 568f b03f 83ec 6fad d560 aa3f
00000050: dd39 d4d6 d92a afbf b106 f01e c99d b9bf
00000060: b034 ad0a abdd bbbf 80aa 6e0f 1e4b cd3f
00000070: b5a9 2346 c1db bdbf d6b2 eea7 553d bfbf
00000080: 6b57 37ce 1115 abbf e476 7a21 f0e2 9c3f
00000090: 6a87 20aa 9a7b c63f 97a6 ee26 3662 493f
000000a0: 137a 12e2 0cd5 98bf afa9 83a8 a56a bebf
000000b0: 00d9 55da f447 bdbf b442 c3b5 4f43 a03f
000000c0: 697c b337 3ff6 a9bf fb6b 3c3c af81 a73f
000000d0: 568e cd42 b279 b33f 647f b1e4 285e afbf
000000e0: 647a 971b a963 b1bf 6c69 f3d5 8060 b1bf
000000f0: 3a3f db19 4a90 cf3f fffa 02db 7f44 b83f
-0.02564489094533819 -0.020716170710316797 -0.09751912530242139 -0.12335108612320166 -0.024954049621542674 -0.11113480989104402 0.22080118402259702 -0.0395082664619014
0.06468718352755191 0.05152003996041634 -0.060873801683658725 -0.10006386761963416 -0.1088511372629053 0.22885490182428114 -0.11663444483170944 -0.12202964162743099
-0.05289512293135953 0.028209449809415768 0.1756470995615545 0.000774647180027804 -0.024250222490644967 -0.11881480564230772 -0.114379218391921 0.03176354497702985
-0.0507068400854614 0.04591128931334506 0.0760756886571071 -0.06126525680224296 -0.06792694972635044 -0.0678787729588401 0.24659086477776687 0.09479521843875814

dense.weight f8 [5, 32]
00000000: 212a 397a 73ab c8bf 458c f2ff 7c6d acbf
00000010: 74ce a0e0 8fab ccbf 7769 fd09 5a88 cc3f
00000020: 480d 4f15 2724 96bf 4628 7a20 45ae c7bf
00000030: de22 a982 1598 babf d25c 7414 512f b3bf
00000040: 27e1 0b96 9d5a ccbf 50c1 025e 6ee8 c03f
00000050: 2d56 587c 3b9d b63f 090b 4b4d 8004 c3bf
00000060: 595b 2b64 fc73 c2bf ff27 384e aebf d4bf
00000070: 4b58 0cd1 d0c1 c53f d0a5 31fd 6e85 b0bf
00000080: 8334 e025 9704 d4bf 5b79 836e 369c c63f
00000090: 67f0 b856 fbd8 c63f 5886 634f e55d b23f
000000a0: eca3 aaa2 6142 bcbf aa1b ab8b aba1 cebf
000000b0: 6184 0277 1870 c03f fad4 621f 22a7 a7bf
000000c0: 59e2 2f82 4bb7 b23f 78c6 3efe bb6c c4bf
000000d0: 271c f327 3710 a2bf 3866 e3bb 8071 c93f
000000e0: d1a6 89d7 1a42 6bbf 945b 33be 35f1 be3f
000000f0: 44ff 9db8 f417 cdbf ac0f d6b6 80c1 d6bf
00000100: dbdd dcae db97 d63f 8252 d1cf e9f9 c2bf
00000110: eaa2 75c4 4ac5 dc3f 18b9 b6e5 b121 d0bf
00000120: a3f6 587e 257f a33f b1a5 d0ab 0b1c bc3f
00000130: 4562 60cf d479 c5bf fc50 5ced 8ad6 b7bf
00000140: 9a22 3c42 b9e3 953f c7b7 2f6a e8d5 8abf
00000150: 5ba5 ab69 2246 c73f 9a54 c8d6 75b4 c13f
00000160: 6c23 894c 9bce c53f a0e5 87b9 8905 d1bf
00000170: a773 1a8b e3ad d2bf 1abf f436 a48c c63f
00000180: 9279 928e 81ae b63f 686c d41c e441 c0bf
00000190: a074 7630 7618 cebf 305f ceb6 3fa2 aa3f
000001a0: 16ca 5bee e157 c2bf 9ace d290 d320 d13f
000001b0: 2f74 0509 1d50 abbf a5e4 3497 d7eb dbbf
000001c0: 8854 c35d 4fc5 d2bf 1f9e e81e 5cb4 d53f
000001d0: 7353 a83a 6893 d1bf 89e1 0978 9f85 cbbf
000001e0: 0aa8 407e 88bb 96bf 79ea 271a 908c cebf
000001f0: 41e0 d61e 9935 9abf 643b 0887 b228 ca3f
00000200: de63 619c 7c58 c73f 2a2e 6523 34b9 cc3f
00000210: 5419 7f1f 8b45 d1bf c2d8 e67c e611 d7bf
00000220: 3ac1 4118 7e52 bbbf ed5b 8f68 1094 94bf
00000230: c126 ae51 d0f1 d63f a697 909e bd50 d13f
00000240: fd62 156d 5e84 b63f 6128 07e1 8a41 cdbf
00000250: 68cf 90eb 8a0c d1bf c41d ebb3 717e 9fbf
00000260: 58ec 1d12 d679 c2bf 81ae 9f0a 1861 c43f
00000270: db9b acf9 4abd c63f e08b 1295 7417 c13f
00000280: cca2 d3c7 0740 d13f ba31 1d07 4bfa bdbf
00000290: 2741 7930 d3b3 c73f 0e5d 2ec1 ed4e c3bf
000002a0: 8e43 e7bc 4bbf aa3f e9a9 ae9b ee8a b3bf
000002b0: 7a8c 22d7 dd2f d0bf bb09 6f16 2f5b c53f
000002c0: ea2b d8f8 34a9 c63f ffd1 6163 dd66 d9bf
000002d0: 10c5 74c0 f4e5 c93f 0a42 1490 d26e 92bf
000002e0: da41 39cf 1c4f c9bf 37ed 22db 862d c7bf
000002f0: d892 99ca 6759 d53f f64f 5202 1d9f bebf
00000300: abe4 30f6 6816 c8bf f39f a655 f31d a0bf
00000310: 1bf4 7468 6226 d73f fcd5 7553 3b16 d2bf
00000320: aabf 011f e8d4 c5bf 5e5e 6e7a c917 adbf
00000330: 0b89 527e 5db1 d13f 7009 af1f f9fd aa3f
00000340: 96f8 40ea 68d8 ca3f 2c70 08eb 5a50 cdbf
00000350: 099e 5c6d 6795 a53f 1067 8b39 8dc8 b0bf
00000360: 6aa5 715f 075f cebf cb54 4dd4 c92a bc3f
00000370: 2832 42cb 834b bebf a2fe 6c8e 67ab b5bf
00000380: f9ae ab84 d164 adbf 7ada f2e1 833e be3f
00000390: f631 ea6a c218 c63f 6eab e70b 227f a5bf
000003a0: 66f5 5485 7b64 abbf 04bb 0633 8565 bdbf
000003b0: d12f 8765 ddaa cb3f 5e59 e2e6 b215 a93f
000003c0: c6e2 524c 6ef1 b5bf c41d 6673 671d cc3f
000003d0: 652c ace3 8e53 cbbf 3f87 87ae 1134 acbf
000003e0: a8b6 a31d 887a cc3f 77d1 11bb 9409 d23f
000003f0: 0cdc 792c 4315 c73f 831e 75af 9ddb c03f
00000400: b0c5 3092 b270 c43f 0db2 4c5b 579b 973f
00000410: 54f2 74c8 971d d6bf 76b7 eb50 0d5b c33f
00000420: fc41 038e e080 bc3f e8ba 9b7a da2f cd3f
00000430: fb92 d2b0 52e1 d7bf d7a4 d7ef 615b b8bf
00000440: 06fd 406a 3c60 c2bf 9074 08cb 0cd2 cf3f
00000450: 6fc5 515d ae08 b83f 69a4 c5ec e0ad c03f
00000460: 75a2 71d7 9909 c23f 00b7 2612 d777 cabf
00000470: eafb 5e1a 6eb7 c1bf 1adb d9bc 3f9f a83f
00000480: f4d8 ab84 624c ad3f b666 f9b0 40c7 c9bf
00000490: aa0c a9eb aef4 a2bf bf13 066d b324 cdbf
000004a0: d49c aaf8 2b2d d13f 41a3 c1b4 bfc9 d13f
000004b0: 2b39 878d 141f cebf adc1 8eac 8a50 b23f
000004c0: eab7 14db 822e d63f e80e b399 4431 ddbf
000004d0: b4c7 a738 09b2 b1bf e72d 5ef4 97c1 cfbf
000004e0: e882 471b 80b3 b1bf 71d5 aeb8 f3a0 333f
000004f0: d9f1 3c68 b98d d2bf 589d ba88 84c0 d2bf
-0.19273227184233213 -0.05552282928808742 -0.22398565738841436 0.22291112411296485 -0.021622286487184256 -0.18500579915809306 -0.10388311805685244 -0.07494074582460833
-0.22151536776051126 0.13209323492402314 0.08833667550819575 -0.14857486509398424 -0.14416460887033614 -0.3241992725239697 0.16997728545601584 -0.06453603440754496
-0.3127801771050331 0.17664223095102724 0.17849675878995017 0.07174523533060417 -0.11038789960242895 -0.23930877990480087 0.128420885191221 -0.04619700081949847
0.07310935905832973 -0.15956830896680052 -0.03527996409098249 0.19877633260948513 -0.003327419686958468 0.12086807149476747 -0.22729357733259736 -0.35556047301383376
0.3530186851162093 -0.14825174949023184 0.4495417517232868 -0.25205657418236305 0.03807942550018353 0.10980294174864615 -0.16778049588971747 -0.09311741156517778
0.02137650934949651 -0.013103309383918472 0.181827832791252 0.13831971156529194 0.17036763417334144 -0.2659630119156535 -0.2918633325987749 0.17616703685188712
0.08860025149122056 -0.12701083572105465 -0.2351215111383782 0.05201911074180854 -0.14330696238137425 0.2676285661975527 -0.05334559188006726 -0.43626966253538974
-0.2932928481726056 0.3391332914202127 -0.2746220181300522 -0.21501534806499148 -0.022199757295460677 -0.2386646392549954 -0.025595085627827755 0.20436698525778774
0.1823879016472167 0.22440196731837264 -0.2698695952971282 -0.36046755025325805 -0.10672748653610578 -0.02009606970008442 0.3585091397913907 0.270553021286441
0.08795728839085011 -0.2285626982468925 -0.2663905430265374 -0.03075578365931421 -0.14434314617742205 0.15921307104814633 0.1776517600166859 0.13352830199173038
0.26953310503317307 -0.11710041927034967 0.18517532221677266 -0.1508462136523367 0.05224072152089497 -0.07633868504368703 -0.25292154320977256 0.16684521289250917
0.17703878546339463 -0.3969033690002845 0.20233020207664554 -0.018000879329578758 -0.1977268230280192 -0.18107686710377788 0.33358187470575507 -0.11961537653615992
-0.18818389912647623 -0.031478504376821 0.3617177982412742 -0.2826069178621251 -0.17055989755635653 -0.05682210559387778 0.2764505132310126 0.052718911283153314
0.20972930372403614 -0.22901474453181103 0.042155487155749745 -0.06556017546554593 -0.2372750488314453 0.11002789910465365 -0.11833976471297858 -0.08464667536918083
-0.05740980858339912 0.1181414057381093 0.17263059826326782 -0.04198557277034963 -0.05350099566065118 -0.11483032699355183 0.21615188081193407 0.04899367397699693
-0.08571519244550094 0.2196473420592452 -0.21348749272178505 -0.055084755473002726 0.22248937079659936 0.2818347765781008 0.1803363768737828 0.1317021471715983
0.15968925607880413 0.023053517291531423 -0.3455562074266585 0.15121618701180822 0.111341509505344 0.22802287089094553 -0.37312762515857373 -0.09514438729788154
-0.14356188953568266 0.24859771646234607 0.09388246324831127 0.1303063541520573 0.14091799754830317 -0.20678223024645348 -0.13841034209869402 0.048089973261929056
0.05722339505693866 -0.20139320985145098 -0.037023035304195887 -0.22768252204346415 0.26838206561883493 0.2779387726973717 -0.2353234950118773 0.07154146874268603
0.3465888156378002 -0.45613207826339286 -0.06912286408603913 -0.24809550697351243 -0.06914520898818532 0.0002995104811661298 -0.28990016154764714 -0.2930003485912116

dense.bias f8 [5]
00000000: a50b af06 5fdd c4bf 540e ad26 d9d1 b5bf
00000010: db83 0a97 2288 c83f 6124 2632 a79b a9bf
00000020: 127b 7693 a8bc c8bf
-0.16300571276050593 -0.0852332801269367 0.1916545140748259 -0.05001566397829361 -0.19325740051586898
