nesy_verification/neural/saved_models/icl/cnn_no_softmax.pt (torch, 50703 bytes, 8 tensors)

conv1.weight f8 [8, 1, 3, 3]
000000 7d c6 74 e9 40 a1 b0 3f 3f 25 dd ef 40 f2 c2 3f
       0.06496053409207465 0.14801799499609022
000010 0e 96 d8 f6 63 13 d0 3f 9a 22 ae 6c b1 1a 77 3f
       0.25118350130137024 0.005640690865114673
000020 5c 49 e7 87 79 56 cd 3f 59 5d de 6d db 43 ba bf
       0.22920149932776723 -0.10259791786517293
000030 ff da a2 05 79 10 cf 3f 7b 5a c8 0b 07 29 7c 3f
       0.24269020819857443 0.0068750643954645875
000040 3c c5 50 b2 76 d8 d6 bf 21 00 62 1a 15 87 dc bf
       -0.35696189321159344 -0.44574477745482183
000050 41 83 7d 92 82 eb ad bf 27 38 e7 d7 b6 1a d7 bf
       -0.05843742407046771 -0.3610055073194211
000060 39 a9 73 e5 f2 47 a9 bf 53 8c bd e5 72 8e 87 bf
       -0.049377050885441816 -0.011502168308373728
000070 10 6d 80 1c f8 dd c2 3f fc c5 7a 0e b0 25 e0 3f
       0.14739896194155522 0.5046005518726697
000080 e4 af 15 88 f6 34 b9 3f c4 ea c8 9f e2 14 ba 3f
       0.09846440145855656 0.10188118363377457
000090 40 4e 16 fd 45 67 c3 3f 2d bf eb 1c 3a 66 9f bf
       0.15158915384073346 -0.03066340257186011
0000a0 9d be 26 2f 50 a6 b1 bf 06 29 39 67 6c 1f a5 bf
       -0.06894398833423528 -0.04125536689805824
0000b0 21 f1 e4 b7 95 4d da 3f f3 ff 8b 2e 8a 64 cf 3f
       0.4109854026644531 0.24525573036953538
0000c0 0b b0 5f ad 15 f9 c7 bf 75 d7 36 8f 17 b9 da bf
       -0.18728896108166312 -0.4175471209122102
0000d0 b1 66 64 39 4a ea b1 bf 61 ca ac d8 bb ea d1 bf
       -0.06998123074699937 -0.27995201263107644
0000e0 60 ad 01 06 0f bd b1 3f c4 44 a2 c9 71 e7 a2 3f
       0.06929105660099344 0.03692203127241947
0000f0 10 81 4b ef 13 98 c3 3f e2 26 bc e8 bc da cf 3f
       0.15307854828189038 0.2488628517533505
000100 fe 3e 4e ab d8 c4 d6 bf 3d 32 66 68 85 d3 be 3f
       -0.3557645485789037 0.12041505621727651
000110 ec 5a 40 27 a6 bc c3 3f 7a 5d ec 7d db 8d ad bf
       0.154194611707417 -0.057722910996910806
000120 60 91 e2 40 5d 48 d0 bf 4e 97 54 92 6a 2c d3 3f
       -0.25441676460675033 0.29958595552522105
000130 99 07 6a 7c 0a cc 9b bf cb 7f b7 fb 50 0e cd bf
       -0.02714554199565775 -0.22699940005168026
000140 32 03 6e c7 70 1f cf 3f d6 12 95 3a e1 d7 b1 3f
       0.2431469892290124 0.06970031433327092
000150 a3 70 8f db a5 eb ab bf 77 ce 94 e4 17 a2 bd 3f
       -0.054532225658222154 0.11575459795568031
000160 a7 d8 3a 22 4d 2f d0 3f 23 ef 07 20 f0 4f cb bf
       0.25288704245338994 -0.21337701381696048
000170 6b c4 37 63 d8 f0 a7 3f 67 0a 3f c4 3b 5f b7 3f
       0.046759378539612616 0.09129689732712053
000180 aa a1 dc 50 ca 32 b7 3f f2 08 67 f4 5d 58 be bf
       0.0906187484184843 -0.1185358735738509
000190 9c 22 09 da 38 11 d8 3f 43 5b 9f 9c 3c 14 a7 bf
       0.3760511521582346 -0.04507626926322541
0001a0 a6 11 d9 ba 79 ea 9e 3f a1 8c 7c 40 e3 92 9a bf
       0.030191328076641398 -0.02595095711798179
0001b0 47 eb dc 0f 26 36 be 3f ed 47 9b dc 55 db d9 3f
       0.11801374327926083 0.4040121702538489
0001c0 0a f0 af 00 bc 4a d6 3f 37 1c 70 e7 07 f5 d0 bf
       0.34831142489542855 -0.26495549775467303
0001d0 6a 1f 94 cd ab 44 c0 bf cc 5b bd 61 02 4c cb bf
       -0.12709567583101072 -0.21325711986966522
0001e0 4a 63 70 8f 81 60 d4 bf a5 9c 4e e9 09 d8 cc bf
       -0.3183902645846969 -0.2253429784006801
0001f0 46 be cf 2b da 39 d1 bf 15 2b 9f a9 45 dd e0 3f
       -0.2691560199591304 0.527010756771548
000200 df bb fb c7 9d c6 ac bf 25 f1 93 34 d7 60 db bf
       -0.05620282236292672 -0.42778568396149047
000210 18 e4 f0 bb 66 5c c5 3f 45 19 1d 5d 67 4d cc bf
       0.16688236405187307 -0.2211121754318787
000220 42 32 6f 16 d5 17 c3 bf 4f da bc 67 0b 89 aa bf
       -0.14916480632236256 -0.05182681695298596
000230 2d 0a 9d 8b de 1e e5 bf 8f f9 0b 60 dd 45 cd 3f
       -0.6600182272744114 0.2286946028688814

conv1.bias f8 [8]
000000 3a fc 6d 3d 6c ad dc 3f 7a 0b 72 c7 f4 c1 a4 3f
       0.44808488844859407 0.040542268129704476
000010 9f f9 0e e0 aa 49 c6 bf a0 c4 19 29 65 a4 b6 bf
       -0.1741231531177165 -0.08844597104486462
000020 ec f3 ac 66 b7 3f be bf c0 e0 1f 83 e6 fd e0 bf
       -0.11815973526695672 -0.5309937058473437
000030 bc b5 f6 d4 7f 7c b4 3f 4e dc 3a ee 1b 7b a7 bf
       0.08002470921811428 -0.0458611229236615

conv2.weight f8 [16, 8, 3, 3]
000000 b5 b3 cf 0f b8 69 91 3f a2 20 c5 d7 3c b4 b4 3f
       0.01700484844689117 0.0808752085478113
000010 ca e1 ec dc 26 da b0 3f f6 16 f0 50 dc 78 90 bf
       0.06582873243031098 -0.016086046638540595
000020 44 10 ed c1 c0 c8 be bf cf 02 0b 9f b5 20 ac bf
       -0.12025074705621913 -0.05493705336039555
000030 da 0c 11 8d 6e 21 82 3f d6 db f2 e2 4c b4 60 bf
       0.008852828674326952 -0.0020390989007767852
000040 17 e9 76 96 9a 09 c0 bf dc 47 30 5e d2 dc ac 3f
       -0.12529308649920587 0.05637223624957219
000050 47 40 63 65 09 d6 bc 3f 3a 6c 65 2d 7d 54 93 bf
       0.11264094090734132 -0.018876987357867338
000060 9c 66 e5 1c 13 3a 95 bf f2 15 6b 4a 80 d8 ab bf
       -0.020729349745443146 -0.05438614757944639
000070 aa 21 87 c2 09 66 8f 3f f3 e6 b8 d6 1c 44 83 3f
       0.015331341027278029 0.009407258322528622
000080 d8 c3 61 fe 34 c1 b2 3f 37 3a b3 08 2d 63 c3 bf
       0.07326060495849107 -0.15146410870370783
000090 ee e1 4a 03 5b 30 a8 3f 87 4b bb 16 fc 3b c3 3f
       0.04724392333213588 0.1502680884355778
0000a0 1d c0 e2 d8 5c 33 b4 bf 5e 03 05 c1 9e 31 b2 3f
       -0.07890873236715419 0.07106964313881067
0000b0 8c 2c d9 a2 19 1b 98 3f db e8 23 c8 be ee 9a bf
       0.023540878834222442 -0.02630136581954266
0000c0 ad fc f0 a9 0b d6 91 3f 37 88 d4 ab 27 7e b3 bf
       0.01741808151950568 -0.07614372201035811
0000d0 a7 64 9f 29 13 d7 b0 3f 8e 9a d5 87 de 75 b2 bf
       0.06578178182771187 -0.07211104217786099
0000e0 1a 60 cc fd 52 b2 b1 3f 51 4a f4 69 bb 88 62 3f
       0.06912726112602777 0.0022624645640772286
0000f0 54 f2 7e a3 6a cc 43 bf 45 2b 01 b7 99 58 63 bf
       -0.0006042023369370966 -0.0023615839236631763
000100 4d 66 46 f4 41 8b 9a bf 91 12 f6 bd 2a 47 ab bf
       -0.025921850714075757 -0.05327733582365569
000110 a1 0a 46 4b 9d da c0 3f d8 6a 1a 73 55 82 b8 3f
       0.1316715829417108 0.09573873577248138
000120 42 34 e5 41 75 b5 b7 bf 07 b3 97 1a 6e 72 c2 3f
       -0.092612579906203 0.14411712931123352
000130 9d 89 53 ba 34 dd c6 bf 81 64 4f ca 06 bd cb bf
       -0.178625670413635 -0.21670613172935663
000140 bb a2 1c 21 d6 8a c2 3f 9e 0e af 82 45 30 be bf
       0.14486195198812432 -0.11792406502268668
000150 45 e5 c3 58 80 38 a1 bf 37 23 f8 d1 b6 35 c1 3f
       -0.033634196124646944 0.13445172550589188
000160 59 9d e6 e0 0f 17 a4 3f af 14 da 6f c3 a3 35 3f
       0.03923844929095805 0.0003301956311150917
000170 a1 50 97 43 aa fb bd 3f b0 85 22 ff a5 e4 cc bf
       0.11712135458157259 -0.2257277961516997
000180 90 dc f7 ea a0 07 c2 bf 97 cd 1c 68 35 76 b8 3f
       -0.14085780594880193 0.09555372039613129
000190 43 5b 27 ec 28 85 b8 bf 57 43 83 c8 09 92 c2 bf
       -0.09578185811492994 -0.1450817326608795
0001a0 dc 38 a6 13 67 b8 93 3f 1b 1f 18 be 24 10 ae 3f
       0.019258127760218055 0.058716915325986295
0001b0 75 6a 2c d4 e5 ad a6 bf 31 6b 44 af 9e cb b5 bf
       -0.04429548468597925 -0.08513824252115111
0001c0 38 66 22 9f 1e e4 aa 3f 1e ff 68 df aa 8a bc 3f
       0.05252166454847579 0.11149089769696416
0001d0 fb c2 22 47 94 b5 88 3f ab 6e d5 12 18 67 c4 bf
       0.01206508485879131 -0.15939618033995848
0001e0 63 1c 85 b7 95 20 a2 bf c8 8f 51 d3 ef 5c d3 bf
       -0.035404852535571484 -0.30254741322118806
0001f0 7c d5 bd 5c a8 bb d6 bf 42 9f 1f 9b 74 64 ba bf
       -0.3552037149123277 -0.10309532916255384
000200 3a 86 86 f6 1c 45 c7 bf b5 ec fd 8c 03 c8 cf 3f
       -0.18179666554810742 0.2482914389073351
000210 6f 87 a3 48 da b5 b8 bf 7d a0 1e f4 36 e3 a9 bf
       -0.09652485154540867 -0.050561635303268716
000220 bf bc 39 37 73 48 c2 3f a4 6b 70 e5 f7 2d c0 3f
       0.14283600040969266 0.12640284255107048
000230 b2 ae d7 63 62 81 ae bf 2d 08 85 36 cd f3 c3 3f
       -0.05958087414532311 0.1558777347764261
000240 59 36 46 73 82 45 a0 bf 21 4d 48 b8 c5 f1 be bf
       -0.031780315944257516 -0.12087665318567932
000250 96 90 e8 8f 89 35 c8 bf be bf e4 7c 12 3b c4 3f
       -0.18913383032589043 0.15805274103467853
000260 72 a8 a3 42 8b cb b6 3f e2 d3 fd df 95 c3 c2 bf
       0.08904333474097983 -0.14659379422269497
000270 bf 93 ed 6d b7 c8 bd 3f d8 3e ba b5 e1 ef c1 3f
       0.1163439410571092 0.1401331078854955
000280 36 e3 6c c6 94 a6 b5 bf a3 53 bf 15 67 55 b3 bf
       -0.08457307667130184 -0.07552189141217851
000290 44 4f 28 50 aa 13 c2 3f cc 39 d2 91 1b cb c0 bf
       0.1412251368898244 -0.13119835491347798
0002a0 a8 9e a4 0f b2 bc b4 bf 6a 22 e9 6f 90 78 b5 3f
       -0.08100426561270047 0.08387091381258363
0002b0 0c 2e de ec 49 03 ce bf 27 09 cf 0e 7d 36 a5 3f
       -0.23447536531271884 0.04143133931894943
0002c0 ee 45 5a 71 2e d3 c4 3f 16 76 3a 2b aa ab d2 bf
       0.16269474539562573 -0.29172758313674885
0002d0 b8 6b 09 8a 25 c7 b7 bf 80 6b 96 9d fe fd d8 bf
       -0.09288248653449116 -0.3905025996152105
0002e0 3d ee 13 e9 bb 69 d2 bf 8a 08 8b 99 e7 1f cc bf
       -0.28770349275120904 -0.2197236537668384
0002f0 a7 fa 1e 25 9f 88 93 3f 21 b6 10 71 ad 48 d1 bf
       0.01907585777348211 -0.27006088296443137
000300 ac ee e7 67 79 b4 9e 3f 8d 30 50 13 39 ef cf bf
       0.029985329596441332 -0.24948800509480798
000310 82 c9 b1 cc 62 e4 da bf 6c 03 42 24 84 c0 c2 3f
       -0.420189571282343 0.14650012751010466
000320 a6 0c 1a 4f bf 6e a3 bf 9d 70 28 19 9a 65 af bf
       -0.03795430985066987 -0.061322036334076936
000330 de 76 b5 81 14 ac c1 3f 19 7a bf ca aa 81 c1 3f
       0.13806396802367876 0.1367696275692232
000340 0c b7 51 38 4e 07 c3 bf bf 71 2c b4 ad 0e c3 3f
       -0.14866044759713082 0.14888545320071775
000350 0b 4e 3d 81 cf 06 c4 3f 86 7a 95 ae 3c 77 d0 bf
       0.15645784197350596 -0.2572776513024241
000360 f4 a0 3d 08 e9 28 a9 3f d7 e0 50 5d 45 e4 b7 bf
       0.049140245681714406 -0.09332688835354773
000370 fc 97 17 3a 46 9b c1 bf 35 2a e5 1b 3f 93 cc 3f
       -0.1375510963109149 0.22324360715931993
000380 4a 36 34 f5 86 26 90 bf 62 20 4d 95 7b 74 b8 bf
       -0.0157719695244423 -0.09552738566446942
000390 a2 2b 6d bb 42 c7 b7 3f bd 4a 02 13 3f 72 b7 bf
       0.09288422656861298 -0.09158701147161259
0003a0 82 95 c9 79 4c 35 ba bf fc a6 2b d1 af 95 83 3f
       -0.1023757741291629 0.00956284863555678
0003b0 df 51 44 36 6d ab c1 bf 22 f5 75 0f ab 2f d1 bf
       -0.13804402494191856 -0.26853443631974205
0003c0 25 4f f0 fd 79 5d 97 3f ba bb 64 c9 62 ca b2 bf
       0.022817522167385768 -0.07340066353638877
0003d0 dc 45 66 3c fc 2e bb 3f 23 54 7a 5c 68 c0 c9 3f
       0.10618568873021367 0.20118431582946625
0003e0 e6 c4 00 62 76 8d b4 bf 73 31 4b f7 34 69 84 bf
       -0.0802835454239986 -0.009966291233830948
0003f0 a3 a4 54 3a 32 6c af bf 16 fa 8e d0 04 0b ca 3f
       -0.06137234651607428 0.20346126731415443
000400 f9 94 0f 3d f4 a8 d2 bf 2b 96 53 cf ed d2 c1 bf
       -0.29156213725066454 -0.13924954055180314
000410 7b cf 78 a2 6b 68 84 bf 37 ad 4e 2f fc e1 d5 bf
       -0.009964791198491465 -0.3419180356965685
000420 cf 27 aa 4a f4 52 90 bf 8f 6d 8c af 99 44 d7 bf
       -0.01594144540516834 -0.36356203215992705
000430 4e 1f 0f 0c 7b 7a dc bf be e9 3a 7f 85 c7 d4 3f
       -0.44497562577861494 0.32467782425706193
000440 16 12 15 eb 74 38 cf bf 1c 86 5b 56 29 35 b9 3f
       -0.2439104221213177 0.09846742971742412
000450 7f 65 cf 6d 96 96 6c bf 83 1c 04 86 4f 53 cb bf
       -0.0034897745194767955 -0.21347993892434056
000460 4a f0 02 0f 9c b5 c2 3f 05 f0 5e 0b a8 b0 c3 3f
       0.14616728528005957 0.15382862620560914
000470 87 7a a3 b9 36 a9 c7 3f 7c 99 3f 3c ef 91 d1 3f
       0.18485149444946478 0.27453213580738356
000480 37 4a cd 92 dc 4f be 3f ca d1 60 df 8d 7c 6d bf
       0.11840609153777214 -0.0035994311283735524
000490 2b 81 fa f7 73 45 c0 3f aa ca 2f 78 60 7c af 3f
       0.12711953743292645 0.06149579493639597
0004a0 57 69 d3 03 12 e8 86 3f f2 c3 ad 7a e9 cb 8c 3f
       0.011184826604609439 0.014060806328162177
0004b0 74 9c d2 1b ec 9c b9 3f 80 b2 c3 da 37 87 b9 3f
       0.10005069426789409 0.09971951571396609
0004c0 af 8c e3 b9 1b 0e ca bf 24 cb 01 57 4c 97 b1 bf
       -0.20355555130581623 -0.06871487735933762
0004d0 0c ca 52 c4 10 51 b3 bf 8f 7e 7e ab 80 57 cc bf
       -0.07545571129848144 -0.22142036794410955
0004e0 14 b8 84 88 97 37 b3 3f f9 e0 b2 3a 93 be 6d bf
       0.0750670154854734 -0.0036309123584851136
0004f0 a5 c1 20 01 00 71 d7 bf bb f0 88 0e 1d 41 ae 3f
       -0.36627197370673975 0.05909052660396826
000500 4e ff 32 fc 28 66 e4 bf 15 93 50 e6 f9 25 db bf
       -0.6374707151189598 -0.4241928815047669
000510 90 04 06 07 91 08 b4 bf 79 65 89 56 e0 6f 89 bf
       -0.07825571462128011 -0.012420418396845477
000520 84 7d 19 b8 19 6a c2 bf 91 3a b8 44 f1 4c c0 bf
       -0.1438629292415322 -0.12734809737635946
000530 e3 f1 ac ec a5 b9 86 bf 0f 7e ec ae 8d 82 b3 3f
       -0.011096283231034348 0.07621083756065893
000540 9f b7 71 54 79 75 a3 bf ff c1 e7 da df 2e c3 3f
       -0.03800563007176482 0.14986799420104543
000550 9d 6c f9 78 9d 1e 9e bf 6f c2 36 96 10 ab b4 bf
       -0.029413662441908007 -0.08073524157840394
000560 77 d0 2a 33 9a 96 88 bf 5a 93 9f 99 6a da ab bf
       -0.012006001173496579 -0.05440075993809641
000570 f9 2f c9 fe 8b cc ab 3f 7d 94 ce bc e1 9c 76 3f
       0.05429494366816807 0.005520707881179307
000580 85 2f 2f fb 72 24 b7 bf df f3 1a 5a 2d 71 ba 3f
       -0.09039991981916103 0.10328944635234859
000590 59 f9 20 f1 e4 c5 c5 bf 18 d3 06 7f 0b 40 cc bf
       -0.1701017548929922 -0.2207044954535824
0005a0 92 a8 6f d5 20 17 b3 3f 32 c5 72 6e da 38 20 3f
       0.0745716591915502 0.0001237646713199508
0005b0 35 a0 73 22 0e bc b1 3f fc d0 76 51 c9 74 b2 bf
       0.0692757448301798 -0.07209451903219483
0005c0 85 eb 88 a9 5e 33 ba 3f 88 7b 91 6a d7 f8 9d 3f
       0.10234634055170318 0.029269567374622635
0005d0 1b 20 e6 dc a6 b5 b2 bf 49 b5 61 a0 61 85 d1 bf
       -0.07308428662338466 -0.27376595175049495
0005e0 70 99 67 dc 8e 84 c1 bf de 6a 4e 93 d7 0f a9 bf
       -0.13685785066554557 -0.04894899056599454
0005f0 cb 9c 2f 3f d3 d2 ad 3f 60 1d 53 ea 8b 76 96 bf
       0.058249093497403225 -0.021936594178240454
000600 80 b3 2d 7d df 28 7f bf be 44 7c a5 dd 01 7a bf
       -0.007607338908980021 -0.006349435621602227
000610 a8 f5 ff 6a 54 3b be bf f4 fa 12 cf 99 18 b8 3f
       -0.11809280025769076 0.09412537866135634
000620 81 17 24 25 cd 65 b7 bf 9e 31 e6 20 64 b8 6d bf
       -0.09139711529505058 -0.0036279636034974435
000630 01 f0 dc d0 4f 21 cb bf 0f b9 ca 66 5a 42 bc bf
       -0.21195409487143027 -0.11038746842925583
000640 3c d9 cc 99 77 83 c9 bf d8 d3 db 5c 21 17 b9 3f
       -0.19932456025862588 0.09800919072206626
000650 2a 20 02 f0 48 02 b4 bf cb 93 d7 ef 7a c4 c9 bf
       -0.07815986499383656 -0.20130860053100572
000660 2d c4 38 1d fa 36 c2 3f 0e 23 f5 c3 ae b4 bd 3f
       0.14230276514857235 0.11603824886436717
000670 55 32 97 72 b2 60 a4 bf c3 8c 89 51 85 ad af bf
       -0.039800240028487956 -0.06187073345497531
000680 08 54 fd 86 bd 9f b4 3f ed 66 19 1f 11 66 ce 3f
       0.080562444168507 0.23748983400837834
000690 82 63 b7 42 d5 35 b5 3f d8 e6 2a cf 37 11 a4 bf
       0.08285267714326319 -0.03919386295224364
0006a0 87 9d 8a 56 c1 a4 d2 3f 08 38 ad 84 0f de b5 bf
       0.2913058610087877 -0.08541962613273324
0006b0 d2 10 7a 5f d6 85 6c bf 05 af 4b 76 e9 61 ce 3f
       -0.0034817873927882404 0.23736303592829003
0006c0 cf 80 b6 5a 43 ae ba 3f 25 e2 fe b5 df c7 bb 3f
       0.10422154392881854 0.108518583233384
0006d0 e9 eb ad c8 ad 7d 74 3f 6b 7c ff 80 82 c9 c2 3f
       0.005002669185041755 0.14677459048013772
0006e0 3c d9 49 fc f8 19 a5 3f 36 fc 96 08 61 c6 c3 bf
       0.04121378020947694 -0.1544915477697672
0006f0 60 c7 8a ef ca 1a ca bf ad 83 68 6b 51 ce c4 bf
       -0.2039426488532241 -0.16254632706207187
000700 a1 70 09 8c d7 bc b3 3f 79 3f 7f 6f 7c 46 c4 bf
       0.07710024994725241 -0.15840106434051984
000710 75 99 1b 21 ea 3d 97 bf a5 25 7d 76 83 82 a2 bf
       -0.022697122832050682 -0.03615198918721355
000720 44 06 27 cc 8e 0f c1 bf 58 45 95 a7 c7 2a d0 bf
       -0.13328728645687893 -0.25261107793365545
000730 33 b2 94 69 5f f8 e0 bf 56 50 1a 97 2f 18 c3 3f
       -0.5303189336896764 0.14917559507432782
000740 78 29 6d e3 7a 72 c2 3f 54 c7 2a 3f 80 61 c0 bf
       0.1441186533432519 -0.12797549328166247
000750 01 ba dd 16 51 1d db 3f e0 f8 ea 51 67 ef 51 3f
       0.42366435273189046 0.0010946759208958975
000760 14 36 c9 e7 64 eb aa 3f 1f d7 a2 2d db 05 b8 3f
       0.05257716493052214 0.09383935798799968
000770 82 50 de 54 e7 58 c7 3f 84 37 91 c4 d4 84 cf bf
       0.18240062374082205 -0.246241184215645
000780 db 1e 69 b2 b6 db c2 3f ca 6a a5 c7 4b c8 b0 3f
       0.1473301287789955 0.06555627464460226
000790 36 e5 74 ff c6 fc e0 bf e7 f2 b4 f2 9b db bd 3f
       -0.5308566083323629 0.11663222003421546
0007a0 92 f5 21 bb 55 aa c2 3f 3a 44 5f 9e 15 5b a6 bf
       0.14582320821129408 -0.04366366918805693
0007b0 36 e2 ba 24 71 b9 aa 3f 77 5e 5a bd a8 ca bc bf
       0.052196059926647484 -0.11246733305812905
0007c0 ff 4b b1 c4 6e f7 df bf 0d 14 80 e4 37 f5 b0 bf
       -0.499477092821678 -0.06624173477764846
0007d0 d2 98 c0 85 67 41 a8 bf be 14 94 c5 48 8a ba bf
       -0.04737399585455794 -0.10367255042736453
0007e0 c3 e8 fc 5e 66 2c 92 3f 02 20 65 14 c9 a4 af bf
       0.0177474971271543 -0.0618040883442177
0007f0 e7 6e d1 85 23 d7 a2 3f 39 8c 98 2e 54 aa b1 bf
       0.03679762848397932 -0.0690052617797371

conv2.bias f8 [16]
000000 e3 9d 76 95 9f 65 bc bf 18 30 cd 9b b1 be b6 3f
       -0.11092564963347899 0.08884725621936729
000010 4a 04 7f a3 f4 68 a0 3f d3 b4 64 73 63 a1 b3 bf
       0.03205074783137059 -0.07668134276601117
000020 92 56 af da bf cb b2 bf 7c 16 87 55 3d 48 b5 bf
       -0.07342146958338905 -0.08313353860929767
000030 e9 64 f3 5a 6d 02 a8 bf f6 c4 c0 49 81 5f 8c bf
       -0.04689351783026458 -0.013854036391509155
000040 7e 50 66 02 30 e3 af 3f b1 2b 60 b6 5c bf a1 bf
       0.062280178349426216 -0.03466310240045035
000050 81 99 02 c5 9e 0b b8 bf 11 84 f1 c4 17 0f 99 bf
       -0.09392731008356316 -0.024471637149307727
000060 5b fd 2e 39 fd 70 b0 bf cb 7a c7 8c d5 0d c8 bf
       -0.06422407766421172 -0.18792218564973093
000070 96 e8 96 70 7a 89 ae bf f3 b0 4c 7b e4 6a c9 3f
       -0.05964262604125385 0.1985746004151064

conv3.weight f8 [32, 16, 3, 3]
000000 a2 f4 e2 62 e7 31 c1 3f ca 8b 06 b1 fe 92 a3 bf
       0.1343354447216472 -0.03823085699993774
000010 0b 96 4c 07 45 81 b4 3f 61 3e 96 bc 85 b2 71 bf
       0.08009749820902116 -0.004320642861230435
000020 6a d9 ce 5d c2 28 bd 3f 8d 51 51 76 23 ac c6 3f
       0.1139031867049646 0.17712825085858377
000030 18 ae 00 14 cb 3c be bf 7c 5b e5 fb fd e8 b4 bf
       -0.11811513174387078 -0.08168017768671904
000040 21 c4 a7 58 67 8d 82 bf d9 db 24 8d 05 b8 db 3f
       -0.009058768647237926 0.43310679229347
000050 c0 ed af 36 42 f0 d0 3f 19 67 8c 70 75 a1 c2 3f
       0.26466422405766465 0.1455523299744577
000060 5f 22 b4 7b c4 0a c7 3f 90 e2 12 87 de f2 c3 3f
       0.1800160984060026 0.1558492812671557
000070 b0 45 b7 e8 5c fd af 3f fd 30 42 e7 3c 77 c1 3f
       0.06247988072176314 0.1364513520424068
000080 a9 b5 49 f0 74 c6 d1 bf f8 23 d2 74 11 9f c7 bf
       -0.2777378412782477 -0.18454187587875004
000090 75 c9 8c 00 8d d6 ac bf b7 47 70 e1 2c 97 b2 3f
       -0.056324392621166654 0.07261925224182063
0000a0 35 cf 26 3b 1d e6 af 3f 46 da fe 9b 15 da c0 3f
       0.062302506895689204 0.13165540806740433
0000b0 f7 69 5d 34 ae fb b5 bf ae 8b 5a 76 a1 2c b1 3f
       -0.08587158945503136 0.06708726062292555
0000c0 1f 4e ec d7 2e 0e 83 bf 99 6c ed 59 d3 de c2 bf
       -0.009304395641755168 -0.1474250973795719
0000d0 17 f5 ad e4 78 49 bd bf b0 50 1f 76 b1 8d b3 bf
       -0.11440234740253562 -0.07638081678243469
0000e0 3d 82 00 9f 10 9a b6 3f 19 b9 00 bf b4 c1 ba 3f
       0.08828834421047645 0.10451821959643261
0000f0 b1 91 c3 94 bb c8 cf bf ff 20 f4 1d a4 5e 63 3f
       -0.24831337703575465 0.002364464322116899
000100 74 ae 18 1a b6 d1 cf bf ba e4 66 3f 50 c5 b6 bf
       -0.24858738207091202 -0.08894826457880614
000110 41 50 e8 18 d5 48 b0 bf 0f c3 f5 d8 ce aa 98 bf
       -0.0636113344010605 -0.024089080803096737
000120 62 94 95 e8 d9 18 bb bf c1 ba 13 f4 78 7f 9d bf
       -0.10584794929816746 -0.02880658139923287
000130 dd 0c d8 f1 66 34 ba 3f 9c d6 ef 5e 96 6f b5 3f
       0.10236209301369877 0.08373393838686599
000140 e2 86 db fd 19 6b 82 3f 9e 48 dc ac d7 11 9a 3f
       0.008993342456452284 0.025458688664976685
000150 75 7a 43 41 55 6c 9c 3f 74 2a 63 c8 a7 b3 71 bf
       0.027757007702229736 -0.0043217233671365325
000160 3e 74 8c 41 51 1d 10 bf 9b 5a 50 d8 34 7e bb 3f
       -6.147201964919275e-05 0.10739450722790382
000170 c0 67 cf 23 c9 6f c1 bf ce e0 2e a2 ce 1d b5 bf
       -0.13622392891448776 -0.08248607120083593
000180 87 b5 e1 d3 37 60 a6 bf 20 de 19 3f f7 3f a3 bf
       -0.04370283566900484 -0.03759739537502704
000190 c5 e2 20 c7 91 52 c3 3f 2c 88 14 de 24 57 c5 bf
       0.15095731947965 -0.16672192424545196
0001a0 14 34 1d f7 89 3a 94 bf eb 86 69 35 d9 4a 99 bf
       -0.019754558284422144 -0.02469958675863541
0001b0 43 4f 56 27 7e 5c c5 3f 51 f6 b0 c7 63 49 92 3f
       0.16688515587576988 0.017858084738909877
0001c0 af 69 c8 32 58 4a a1 3f 77 df 0d 8e 5c b3 b2 bf
       0.03377032871158591 -0.07304933994407557
0001d0 42 42 b5 cd ba c8 89 3f 81 3b e7 67 52 e1 c3 3f
       0.012589892771445513 0.1553137786235901
0001e0 fa a3 0e d3 15 d1 c2 bf c9 65 b6 77 33 26 b3 bf
       -0.14700577550436816 -0.07480165169399479
0001f0 a7 9b a9 53 92 29 bd bf 88 22 a6 07 7d cc b5 bf
       -0.11391558210890072 -0.08515149533026023
000200 a8 46 60 c1 cd 6f c9 bf 9c 4c c1 99 16 08 b1 bf
       -0.1987244791239864 -0.06652966741357819
000210 d1 72 a9 c3 c7 4b b1 bf bd a6 72 f0 89 02 64 bf
       -0.06756256606008583 -0.002442616856190265
000220 1f c4 f1 b0 7d 99 b3 bf 65 5d d1 39 db 0b c4 3f
       -0.07656083650523769 0.1566118271173124
000230 52 87 a1 61 aa b3 ac bf 7e 84 53 2f 54 57 a3 bf
       -0.056058239381640576 -0.037775641228798826
000240 e1 1c 02 a6 08 fa ac 3f 03 21 5d df cf e0 c4 3f
       0.05659510637729582 0.16311071783480466
000250 1c 89 42 10 87 f4 b9 bf 1a ea c1 76 24 c7 96 bf
       -0.10138744494409874 -0.022244043110257385
000260 af 56 62 d6 e6 b5 a6 3f 23 e0 44 78 b5 6d af bf
       0.04435654990190351 -0.06138388722541801
000270 38 d9 cd 4c d7 b8 c2 3f 2c a6 67 17 d5 83 c0 bf
       0.1462659001369475 -0.12902320521179556
000280 1b 07 16 e4 44 09 96 3f d2 8d 29 af 6f 36 db bf
       0.021519733830707027 -0.42519752603240335
000290 84 3a e7 f1 4c 8e c5 bf a5 10 a5 8d 7f fa e0 bf
       -0.16840516864472843 -0.5305784002780639
0002a0 cf 24 a9 58 52 69 99 3f 53 49 08 6d be 3c d3 bf
       0.024815832768841525 -0.30058251044933576
0002b0 7a 7d ba ef b8 f3 b0 bf 51 3b ce cf cb fb c5 3f
       -0.0662189088129618 0.17174670836217357
0002c0 20 0f 36 6b 12 a2 b2 bf a9 41 0b ba ca 57 c3 bf
       -0.07278552167377628 -0.15111669620683912
0002d0 40 70 1c 42 1f 5a 7c 3f 3b 38 e2 90 ef 65 c6 bf
       0.00692188463451876 -0.17498583387754416
0002e0 20 f7 bc 36 fc 6c c4 bf 2c ba ba c1 eb 07 93 3f
       -0.15957596466790225 0.018584903430275343
0002f0 30 25 e9 9b 4b 64 b8 bf 64 e0 52 15 0c c7 bb bf
       -0.0952803855554023 -0.10850596924399408
000300 d4 a6 6a 3e 07 c7 ab 3f 0d ab 02 a5 50 8d bc 3f
       0.05425284039422498 0.11153129604887742
000310 b0 49 05 a1 23 e8 ca bf 71 c5 43 c1 68 03 b4 bf
       -0.21020932543122006 -0.07817702024819596
000320 cd 79 44 3b 2f fd c1 3f ab 91 7e 78 9e a5 be 3f
       0.14053907770080656 0.1197146457839781
000330 10 75 7c 9b c9 90 b0 3f c1 02 6f 60 b3 6c c0 3f
       0.06470928236054285 0.12831728180574056
000340 8a 1d e7 a3 2c 3c b0 3f d4 b3 f9 c8 54 4f a1 bf
       0.06341818810971325 -0.03380837395966521
000350 d5 2d e0 a0 51 c6 ab bf 23 92 c2 84 91 cd b7 bf
       -0.054247427833697216 -0.09298047534191105
000360 e4 9c d6 8b ad 5e b0 bf 97 2f 03 3e 81 00 a6 bf
       -0.06394467033406986 -0.042972601718786745
000370 b0 6c d8 b9 35 39 a1 bf 79 35 12 0a 4c 7e be 3f
       -0.03363960164662083 0.11911463971974524
000380 b3 a3 eb cd 36 38 aa 3f 18 7d e0 de 5f 0f c3 bf
       0.051210129391456326 -0.14890669233953058
000390 de 04 3b e7 63 52 b4 3f 1f b3 8a b5 1d c6 a4 3f
       0.07938217540051393 0.04057400551878331
0003a0 64 30 4f 33 2f 8d b7 3f 99 62 c3 c8 6f 64 a7 3f
       0.09199805262250177 0.04568814588282528
0003b0 76 60 8d dd 3d 71 b1 bf 70 47 1a 60 83 f8 bc bf
       -0.0681341806315475 -0.11316701027160803
0003c0 8a cf 56 b9 de cc c2 bf c1 4f a7 33 6c 7f a0 3f
       -0.14687713670502617 0.03222215776955251
0003d0 94 88 d0 7a 10 60 b4 3f 06 a1 3f b8 f5 95 b8 3f
       0.07959082601931505 0.09603820560699114
0003e0 10 00 bf bc fa bc c2 bf 29 cc b3 54 7f 87 af bf
       -0.14639219490163713 -0.06158063801731146
0003f0 7c 2e d0 d9 a6 ec bd bf 7d 30 16 22 04 75 aa bf
       -0.11689226930337243 -0.05167401233765732
000400 4b 42 b3 23 ea 56 b0 bf 62 07 b9 39 1c 93 c4 3f
       -0.06382621165836004 0.1607394487237413
000410 2b 70 d8 b4 f8 a4 93 bf 1e 38 e7 43 cb 33 8b 3f
       -0.019184003866129878 0.013282382974377834
000420 a0 92 6e cb 18 e9 9c bf dc bd 21 85 88 54 b8 3f
       -0.028232943932055776 0.0950398755101029
000430 f9 20 a0 4d 7f e4 a9 bf 3a ca c3 d8 02 21 b2 3f
       -0.050571420884866165 0.070816209717841
000440 99 2b be 67 99 1f 94 bf 92 7e 2f f2 8d 68 97 bf
       -0.01965179153152583 -0.022859781176406253
000450 c4 89 a8 6d 5c 7d b5 3f 4d 40 1f f8 da 13 c1 3f
       0.08394410779195655 0.13341843715034188
000460 c2 36 83 83 68 14 dc bf 6c bf b8 d0 d8 cf d0 bf
       -0.4387456211378372 -0.2626859701440398
000470 a6 a9 f1 a9 88 93 c2 3f 7f aa c3 e6 fa 3f d7 bf
       0.14512737558409333 -0.3632800344045463
000480 9f c6 69 1a e1 ed c3 3f 9a c1 6b fe 15 98 ab bf
       0.15569700040537257 -0.05389469843601376
000490 7b bc e8 7e e3 ef ca bf 02 a7 bf 1b 56 b5 a7 bf
       -0.21044582077727 -0.04630536164024869
0004a0 5f de 1e 19 b3 06 b7 bf 56 9d b6 3f 61 76 bc 3f
       -0.08994597781463075 0.11118133359433577
0004b0 65 60 f8 bd c3 46 b6 3f ff 36 6c 82 95 5c 9b 3f
       0.087017282370995 0.026720367513056505
0004c0 78 47 63 fe 21 87 96 3f dc 17 0f 81 62 70 d0 3f
       0.021999865676498115 0.2568594227162728
0004d0 18 30 1f c4 8b e7 ca 3f c2 27 59 98 9a bb 91 bf
       0.21019122196446527 -0.017317214535331756
0004e0 44 26 a6 9f 3a 1b 87 bf 64 27 a4 de 81 5c ae bf
       -0.01128240394315861 -0.059299524715312996
0004f0 4a 06 97 3e f5 3e b9 3f 5a 85 a0 97 df 2e 9e bf
       0.09861691263270092 -0.029475682859020004
000500 81 6a 1c 0e c4 5d b6 3f 6a 6c cb c3 bd 84 ce bf
       0.08736825317866172 -0.2384259420422013
000510 59 9c 6b e8 5d 23 c1 bf 3f 01 e0 0b 1b e4 ab bf
       -0.13389180992746466 -0.05447468299826363
000520 95 91 41 8c c7 b9 bc bf e3 78 88 82 4f 80 b1 3f
       -0.11220976995679728 0.06836411415904169
000530 67 89 ad bc a5 99 b0 3f 71 f6 3f e2 0d 95 98 bf
       0.06484447342294218 -0.024006096777148437
000540 0b a1 b3 ab 4d 6d a5 bf 6e b4 99 3d d2 3c b7 bf
       -0.04184954377143598 -0.0907718086616158
000550 c9 d5 b2 03 2f 9a b6 bf 08 3e b5 4b ba 80 c8 3f
       -0.08829015579507095 0.19142845818213083
000560 d7 46 9c ed f7 f2 a5 bf 23 5c d8 b4 fa 1d df bf
       -0.04286932731168996 -0.4862047926012016
000570 04 e1 ac 22 bf 9b 97 3f 78 a1 14 34 98 ae b3 bf
       0.023055063716328497 -0.07688285132883788
000580 b6 26 06 20 65 22 a2 3f 0b cd cb e3 42 f8 90 bf
       0.035418663176711204 -0.016572041657991792
000590 f8 ce 5f 2e a3 7e a6 bf 4c 2b a3 47 85 33 c3 bf
       -0.04393491688816015 -0.15000978467863957
0005a0 ab 2e 3d 7b 3e c2 47 bf 8e 8f b4 28 5d 31 ac 3f
       -0.0007250599942180876 0.055064116686735706
0005b0 76 69 af a5 00 4d b8 bf 3c 7c 8a fe ba fb 5a 3f
       -0.09492496533440495 0.001646931277867982
0005c0 5c f7 94 88 49 7d 83 3f 13 3b 5d eb a9 2b ba 3f
       0.009516310196541582 0.10222875591464868
0005d0 a8 c8 99 4f e7 e1 c5 3f 9b 2b c8 6e 53 ff b8 3f
       0.17095652949098405 0.09764596418987852
0005e0 67 4b ca 4d 3b e2 b6 bf 79 dc 8e 6f cc d8 b6 3f
       -0.08938952111411212 0.08924558375916715
0005f0 3b a5 57 8d 08 f0 a1 bf f6 36 d5 f6 99 d2 c3 bf
       -0.03503443456049601 -0.1548645453680632
000600 1f b5 8b 36 8e 17 b1 bf 76 70 6c b7 d9 8a ab 3f
       -0.0667656787079136 0.05379371990258701
000610 7d 51 82 c6 89 3f b6 3f ad 73 2c a7 91 8e 85 3f
       0.08690701576626299 0.010525834955439206
000620 61 5c 4d 35 84 1e a2 bf e2 9f 36 b5 d6 22 cf 3f
       -0.035389071947684377 0.24325069282826833
000630 f3 f4 e5 5b f1 f4 b0 bf da 29 7a 0a 0e 55 a5 bf
       -0.06623753064737396 -0.041664541987376416
000640 86 52 4f 02 2d 41 b5 3f 1b e9 be ba ba d7 a9 3f
       0.08302575403588194 0.050474009796248796
000650 5e 96 29 e7 71 58 a2 3f 72 6c b7 6c ae b9 b2 3f
       0.0358310312920309 0.07314577249728574
000660 dd a7 69 d4 4f 79 ba 3f dc 9f ce ab fd 9c c5 bf
       0.10341357169968952 -0.16885348214168416
000670 99 cc 65 13 06 da a7 bf 22 36 be 10 08 da 94 bf
       -0.04658526407993086 -0.020362974187767453
000680 6b 7f 42 fd 30 ec 8c 3f 81 93 b1 f8 ec 9c aa 3f
       0.014122374276041424 0.05197849784671061
000690 11 a5 a8 da 94 3e a5 3f d8 75 fb 08 f2 cc a5 bf
       0.04149308365988181 -0.042579234692066315
0006a0 ea b6 ba 08 b4 80 b4 3f 4a cc ec 7a 47 c9 90 3f
       0.08008885586852058 0.016392819288011652
0006b0 b4 08 7a d1 ef db 93 bf 01 2d 63 01 36 44 ba bf
       -0.019393679771845654 -0.10260331663009838
0006c0 18 b5 1e 6f bd 03 a6 3f 16 23 fe 52 b5 08 b3 bf
       0.042997283758589855 -0.07435162807645343
0006d0 f6 43 fc 37 eb 50 b6 bf dd 49 f8 b4 63 ad 8d bf
       -0.08717222325164173 -0.014490870437872278
0006e0 fb 83 7f f1 38 fa b2 bf 86 8e dd ed 47 bc c3 bf
       -0.07413059135389226 -0.15418337931179255
0006f0 e4 12 e2 5c 42 1f ba 3f 9c 92 1e 17 bd 49 ad 3f
       0.10203947799352481 0.05720320613116778
000700 af 30 75 72 b7 29 ad 3f 5b 25 0e 71 f9 66 b4 bf
       0.056958897325416806 -0.07969626436365244
000710 7d f1 56 05 0f 8b cd 3f 8d 15 06 b5 13 9f a0 3f
       0.23080623398517366 0.03246366104853413
000720 23 43 df 5f 07 a5 99 3f a2 12 43 21 9b a0 b2 3f
       0.025043597437448228 0.07276315271435377
000730 1d 66 95 3c 31 19 b6 3f 64 51 01 c9 1d af a7 bf
       0.0863219044598726 -0.046257906710397007
000740 f2 ae 3a 33 50 c6 d4 bf 64 48 fc 15 e0 4d c3 3f
       -0.3246040821347683 0.1508140666342711
000750 c0 12 59 26 45 e1 b1 3f b1 22 14 75 fe 69 c1 3f
       0.0698435991881281 0.1360471793816678
000760 7e 79 35 b2 bc 49 b8 bf b4 aa f7 8a 1f 69 b2 3f
       -0.09487513876726969 0.07191655295143101
000770 29 26 8a b2 94 72 7e bf 0d c7 3f c3 dc 3c a0 3f
       -0.007433491563128261 0.03171434291279072
000780 b2 22 e1 33 90 c2 9f 3f 04 d2 f7 44 41 66 c6 bf
       0.031015637556523763 -0.17499557368832097
000790 f1 31 91 d3 b9 48 88 3f fd 7a d3 f8 43 dc c2 3f
       0.011857463616387927 0.1473469700785798
0007a0 9c f4 22 4b 6b 67 72 bf 48 c2 5a fd 8a 43 ab 3f
       -0.004493159404032412 0.05324968664843205
0007b0 e6 1f 08 11 e2 78 b0 3f dd 56 4d d3 f9 f6 59 bf
       0.06434452930272946 -0.0015847625447426496
0007c0 d4 31 e4 3f ab 1d c1 bf 93 c6 47 45 68 61 b6 3f
       -0.13371792430588292 0.08742381755271315
0007d0 c9 76 28 b4 db ea c4 bf f3 88 6f 83 7c bd a0 3f
       -0.16341730400829693 0.03269566635550971
0007e0 1f 07 74 07 92 6e b3 3f a2 05 65 48 12 35 6e 3f
       0.0759059208103534 0.003687415798737618
0007f0 66 1a b8 09 27 58 a4 bf 3a e2 65 a8 46 eb 84 bf
       -0.03973505014078142 -0.010214378370379074

conv3.bias f8 [32]
000000 f0 f5 37 57 d2 fc a2 3f 31 23 37 5c cb 86 b0 bf
       0.03708512606315739 -0.06455679894783085
000010 ae 99 e5 ea f0 d3 b6 bf 4f 02 80 9e 16 3d b3 bf
       -0.08917146429812448 -0.07515088433866278
000020 d3 3c b2 90 e1 e8 ba bf 0a 63 9a 60 5a 4d c1 3f
       -0.1051159837972933 0.13517312733599623
000030 49 3b be 00 88 27 99 bf ff 25 1f ce f4 fa a0 3f
       -0.024564862294535392 0.033164644395196057
000040 c5 44 e5 96 c6 26 b8 3f c3 49 90 07 db 31 ca 3f
       0.09434167083715568 0.20464647168462421
000050 32 be b0 f8 8e e8 bc bf 1b 09 20 11 53 f6 6d bf
       -0.11292356082480451 -0.00365749572756714
000060 dc 35 fb 26 03 7e 90 bf 91 42 3e 94 a5 14 84 bf
       -0.016105698827962076 -0.009805005632899795
000070 b3 68 66 bf 3b 9f 7a 3f a3 89 0b ae 0f f2 c4 bf
       0.006499513043673288 -0.1636371230916441
000080 87 64 01 1d bf 69 a5 3f 73 f0 a2 bb 88 c2 9b bf
       0.04182240704603495 -0.0271092762493343
000090 55 e4 55 e8 02 a2 b8 3f 55 48 ff e2 51 f7 ab bf
       0.09622209713224213 -0.05462127586328395
0000a0 8f c6 7e bb f2 a1 a6 bf b0 e2 f5 8d 9d 27 b3 bf
       -0.04420431650886513 -0.07482323375541955
0000b0 b1 19 6c f6 2b 42 d1 3f 18 61 a5 c7 65 e3 a8 3f
       0.26966380181002153 0.04860990583500974
0000c0 db 6b 02 6c bb 7b 91 bf ed e3 99 6d 5d 93 50 bf
       -0.017073563067793045 -0.001011697042853972
0000d0 e3 fb f9 22 5f 76 c7 bf ae 68 2f 88 eb 5f 96 3f
       -0.18329991538845922 0.02185028094013635
0000e0 b1 f3 ec ff 5d a4 c4 3f 3d dc 00 54 64 c1 c2 bf
       0.16126608845106952 -0.1465268526241931
0000f0 cd de 6e 22 0e 0e 70 bf 7f 62 ae df b0 ad 9c 3f
       -0.0039196540955612315 0.028006328251282128

dense.weight f8 [5, 32]
000000 2a 8e 8d 73 e7 55 cb bf e4 cb d6 9b 1a f2 a1 3f
       -0.2135590852950469 0.03505023147899758
000010 85 79 2a 30 27 2c c6 bf 34 49 bc c7 59 7b b8 bf
       -0.17322244502879527 -0.09563218237261567
000020 b4 9e 40 00 1d 1a d3 3f 36 02 07 0d a0 f4 7f bf
       0.2984688284363799 -0.007801652144224172
000030 02 d9 1e 3d 3b 1e c2 3f c0 33 c8 c6 0f 8b a1 3f
       0.14154758915328364 0.034264081015954684
000040 30 00 1d 1e a3 47 c5 3f 21 4a d1 4d 44 37 d3 bf
       0.16624869318366242 -0.30024821853035816
000050 f9 8b 17 a9 c9 1c c3 3f b1 34 bf 87 ee 4e d2 3f
       0.14931603199428858 0.2860676122334765
000060 a5 0e 5b c4 67 4a d1 3f 57 89 ae a3 19 a3 97 bf
       0.27016634154663627 -0.023083115210860452
000070 2f 52 05 fe bc 4b 46 3f 69 55 20 93 25 07 d1 bf
       0.0006804154218494391 -0.2660612046032243
000080 85 a7 ec 1c 8c 4b 9d bf 3c 3e 80 ab 05 6e c9 bf
       -0.028608502641112494 -0.19867010950155073
000090 66 43 11 36 ac 1b 7b bf ac 13 45 5a 0f 77 c2 bf
       -0.00661818761825903 -0.14425842197138417
0000a0 75 63 24 a1 8c 1c d7 bf c6 dc db 19 33 98 99 3f
       -0.36111751305138934 0.02499465794877833
0000b0 e4 2c 34 5f 0c 5b d6 bf 12 11 0c c5 9b 78 6c 3f
       -0.34930714890715664 0.0034754793526891115
0000c0 d3 0b c0 a2 fc 2f c6 bf d3 b6 65 de 2e 36 7f bf
       -0.17333944269930032 -0.007620032387746628
0000d0 93 aa 6b 49 3f dd b3 3f 7c c2 dd d6 ef 62 ad 3f
       0.07759471456999227 0.05739545343283667
0000e0 d6 fb 15 9a 1d cb b2 3f 79 21 5d 14 6c dc d2 bf
       0.0734117985902992 -0.29470350254680217
0000f0 0e 3e ef 4c 0a 1b ae bf 82 76 ac 70 b2 91 a1 3f
       -0.058800050631926934 0.03431470513735936
000100 f2 a2 32 a1 1c 07 c9 3f 21 7e 34 16 8c 53 92 bf
       0.19552953597055694 -0.01789683232811801
000110 04 77 58 79 a1 15 cd 3f b6 0f b1 e3 fb 00 b4 bf
       0.22722261834217516 -0.07814001377943111
000120 02 ba 4e 08 bc 20 9b bf 63 33 53 32 5a fa c0 bf
       -0.026492059714366085 -0.13264014680171518
000130 d6 d1 5b a4 1a c9 cd 3f 39 32 c5 57 a0 25 c4 bf
       0.23269970918012345 -0.1573982647481829
000140 bb c5 7d 7e 51 6f cf bf 76 d9 21 81 09 94 b4 3f
       -0.24558466602642945 0.08038386728899191
000150 bc 48 dd 17 0f 68 c8 3f c3 47 fe f0 f1 20 c9 bf
       0.19067562737706634 -0.1963179041600239
000160 41 79 74 44 87 cc ad 3f e5 5d fc 45 da e6 cb bf
       0.058201052767105306 -0.21798256318355339
000170 20 48 81 ac 3c 6d d5 bf 80 60 b5 39 36 40 b3 3f
       -0.33479229780380315 0.07519854458712594
000180 f6 6f 10 99 dc f1 d5 3f 0f c5 d5 50 f0 ff d0 3f
       0.342887067295805 0.2656212605862302
000190 c8 fe fa af 1b 1a a0 bf 2f 25 2b b7 c2 70 b6 3f
       -0.03144918940733771 0.08765809032333459
0001a0 4e c2 3e 12 6d 01 af 3f e7 e9 34 c1 29 ef d1 bf
       0.06055775497168679 -0.2802223574432489
0001b0 7d 47 ab f3 d1 e3 d3 bf 6e 5e 9f 6e 46 c6 c1 bf
       -0.31078003688627814 -0.13886337663165044
0001c0 8b 9c 6c b0 d3 69 bb 3f ef 61 d7 0e 94 21 d7 bf
       0.10708354050858497 -0.36142445992803024
0001d0 49 a9 36 90 20 64 bb 3f 10 97 da c5 40 5b be 3f
       0.10699656983220963 0.11857991056839645
0001e0 a2 db 57 0c cc 8c c7 bf ab 9d a0 4c a5 aa bf bf
       -0.18398428538031647 -0.12369759674822116
0001f0 94 40 a2 72 81 02 cd 3f eb 0a ee 2e 2f 30 81 bf
       0.22663896653512394 -0.008392685527501572
000200 ac c4 a9 48 81 fc 7e 3f f8 c1 58 96 c6 ca ce bf
       0.007565026297570981 -0.24056322423122345
000210 4c c7 e4 ca 6a cd bc bf d2 ee 92 1d c6 68 a9 3f
       -0.11250941709002155 0.04962748633394444
000220 53 6b d2 06 0e a7 c1 bf fc 7b 6d e5 d6 60 ca bf
       -0.1379106076536468 -0.20608030512354947
000230 33 f0 8c d6 e6 81 c5 bf 74 d5 6b 20 f4 00 a4 bf
       -0.1680267856226024 -0.03906977554099003
000240 89 89 5a 62 01 b4 b1 3f f9 15 34 02 ac 46 c9 3f
       0.069152914535641 0.19746923549261888
000250 a4 7a ec ca 47 0d d0 bf 69 23 05 3c 1a 70 7a 3f
       -0.2508105737378321 0.0064545655043922534
000260 89 15 d8 97 73 13 a3 bf e9 77 76 de 6d 47 9e 3f
       -0.03725777844014561 0.029569355681466822
000270 59 6e 48 7e c8 95 c9 3f 6d a2 30 05 af 23 87 bf
       0.19988351980360866 -0.011298529954801151
000280 2a 4e 72 a5 eb 94 d1 bf 30 8d 85 b8 b1 6c a5 bf
       -0.27471438557515404 -0.041844896101589035
000290 21 64 53 a3 89 0e cd bf 73 31 d9 89 ca 6a cd 3f
       -0.22700615382089587 0.22982150774840768
0002a0 4a 97 d6 ac df c4 cf 3f b8 af 1c 12 34 61 a6 3f
       0.24819560946814995 0.04371035309881627
0002b0 a9 fe 78 59 20 4d d9 3f aa d1 08 78 b3 e3 c7 3f
       0.3953324197536668 0.18663638459260073
0002c0 a4 22 aa 78 cd 16 bc bf 89 7a 77 4b f0 82 d0 3f
       -0.10972294040596836 0.2579918610553383
0002d0 61 4a 28 6d bb 77 bf bf 4d 6e 2c 5f 17 51 c6 3f
       -0.12292071738219469 0.17434970996042623
0002e0 6e 0a 93 e4 b2 95 b7 3f ca 69 08 85 b1 ef 9e bf
       0.09212797241620205 -0.030211232895547536
0002f0 5b 54 44 a3 00 2c af 3f a0 a2 96 a2 38 a2 c2 bf
       0.06088258736614512 -0.14557559908759732
000300 ad b0 d8 dc 29 b4 c7 3f 6e 8e 4c a0 7c 1b a6 3f
       0.18518565448301186 0.04317845780158512
000310 20 eb cc 9e 33 c4 c1 bf 71 24 82 f7 8b cd c2 bf
       -0.138800098933495 -0.14689778886193808
000320 51 6c 50 a0 16 c3 d0 bf 93 f3 e3 08 28 b7 cc 3f
       -0.26190724998167975 0.22433948930838862
000330 36 8c 07 c7 d6 da ba bf ce 1a 28 1b ce c5 9c bf
       -0.10490171774976961 -0.028098316581259657
000340 99 f5 8a b7 69 03 b1 3f 77 ca 85 19 aa 24 a1 3f
       0.06645832758927951 0.033482852569155
000350 4f 75 9c 75 18 21 86 3f c8 82 2c 2f b7 84 c0 3f
       0.010805312241752544 0.1290501575795331
000360 3d 6a de 34 5f 01 b1 3f 5c 8c bf 27 de 02 b5 3f
       0.06642718353979489 0.08207500906387238
000370 0f f1 e0 11 e2 7f da bf 14 74 e3 cd ff 26 bf bf
       -0.4140553640934436 -0.12168883110594236
000380 ce 3b 68 0e a6 e7 cb 3f 74 56 74 4d cd bf 95 bf
       0.2180068559977983 -0.021239478924221136
000390 53 64 08 71 2d 6f c1 3f 17 99 96 ce d1 8b 5f 3f
       0.136205368224895 0.0019254254242269725
0003a0 2d 20 4f 40 42 0e c5 bf 91 92 0c aa 58 1b c4 bf
       -0.16449764385311152 -0.1570845442121436
0003b0 2e 88 c7 28 ef 4e da 3f d0 34 ce 56 72 56 bc bf
       0.41106776220670127 -0.11069407099985829
0003c0 0d b2 22 de fc 00 86 bf f2 c9 8a 39 93 4e b1 bf
       -0.010744071511305209 -0.0676052108272314
0003d0 7b 63 e0 0f ca 32 b2 bf 4e 57 11 55 8c 20 c8 3f
       -0.07108748328790952 0.1884932914132897
0003e0 0a 63 6b 61 2b b7 8d bf a6 d6 da 71 43 f2 98 bf
       -0.014509524260050383 -0.02436166174330503
0003f0 4f 35 ea 31 66 67 c9 bf 65 6a f9 3c a3 29 be 3f
       -0.19846799313783456 0.11782284010534168
000400 ba b0 d8 dc 7f c9 c3 bf 5c 47 26 10 14 a9 b1 bf
       -0.15458677562253859 -0.06898618120456262
000410 e5 ea cc 9e 97 0e cd 3f f9 b6 dd 87 52 b7 89 bf
       0.22700782064369843 -0.012556690951636794
000420 cd d8 a0 e0 9a a1 cb 3f 00 f4 e3 88 a6 0c c1 bf
       0.21586929290942294 -0.13319856342414482
000430 c8 18 0f 8e c2 eb a5 3f c9 fc 9a ac 06 8a c0 bf
       0.04281433090322789 -0.12921222141264924
000440 ac f5 8a 77 32 cf ba bf d9 72 61 b6 2e b0 ca bf
       -0.10472407740140594 -0.20850166230493164
000450 e6 8e b3 ce cf 08 b8 bf 19 83 2c 2f 17 b8 cd bf
       -0.09388445660038833 -0.2321804981557072
000460 a2 95 21 4b 1b 34 bc 3f 94 c6 df 93 88 20 c5 bf
       0.11017008384950214 -0.16505534382263376
000470 03 c4 83 47 e6 d9 b8 3f 8d d0 8d b7 d9 ca 9c 3f
       0.09707488294567672 0.02811756308388218
000480 60 e7 0e 9a 7b 75 69 bf f3 8a ae a9 ac 10 cc 3f
       -0.0031077779862841853 0.21925886426205174
000490 62 64 08 b1 85 40 cb bf d7 d2 62 dc f8 a9 c9 3f
       -0.21290656227282329 0.20049963723217587
0004a0 5b 20 4f c0 d0 d8 cd 3f ee d8 36 5f 3a 86 87 bf
       0.2331791819581238 -0.011486488371570815
0004b0 8b 26 8f 91 4d bb c5 bf 8d 2c c7 a4 fb 02 91 bf
       -0.16977853400594642 -0.016612941677334226
0004c0 64 ac 88 37 8d c9 a0 3f 80 60 53 67 dc 4e 74 bf
       0.03278771689323248 -0.004958020164132049
0004d0 67 63 e0 af 86 90 b8 3f 53 57 11 b5 1c 5a c8 bf
       0.0959552935968425 -0.19025000420759372
0004e0 cb 49 e9 69 45 f0 c5 bf d8 5a 3b ee 82 80 cb 3f
       -0.17139499350976303 0.21485935814299384
0004f0 a8 6a d4 83 63 0d b1 3f 32 b5 7c 9e f5 f0 c7 bf
       0.06661054581165138 -0.1870409988272655

dense.bias f8 [5]
000000 ad ad 4c 8a a3 1c b8 bf cd ba fb c1 05 40 a7 3f
       -0.09418699385121583 0.04541032784424246
000010 91 aa 7c dd 05 34 d2 3f 95 99 e4 9d 2f b3 c9 3f
       0.28442522649371776 0.20078082284562684
000020 87 98 6d 88 d0 59 ad 3f
       0.05732585587866006
