nesy_verification/saved_models/cnn_with_softmax.pt (torch, 27500 bytes, 8 tensors)

conv1.weight f4 [8, 1, 3, 3]
00000000: 3a85 a33e 9b34 15bc 6e3f 9d3d 9969 47be
00000010: dff7 db3e 11c2 fc3e db17 27bf 0552 9dbe
00000020: 0c7e 3ebe a85f 1a3f 9ea7 cbbd ac5e df3e
00000030: 0415 533e 2414 cfbd 5ed3 b9be d6dd 43be
00000040: 98ad 1dbf 85a9 40bd fc55 603d f842 08be
00000050: 8eb6 253e d610 8b3d e79b 8dbe 7521 9dbd
00000060: 4a32 883e 1eab a23e 8739 b5be 3d65 c83d
00000070: f2b5 6dbe 7fff 04bf de1f eebd 412f 6dbe
00000080: 983c 473e 63e7 e33e 9374 c73e 91fa 183e
00000090: 8973 f93d 1c42 b73d 4e9c ff3d 60c3 9f3e
000000a0: 545b ae3e 1ebc 8bbe 8dd5 d2bd 2be0 debd
000000b0: da69 25bd 629b 843d e5c4 7ebc baac 763e
000000c0: d2d9 11be c20a 733e 1786 ce3e 788b 5bbe
000000d0: 1986 e53d 25f4 2a3e 1e8a 1abe d03a 4f3e
000000e0: 4c3c 4c3e 3bc3 adbd 80bb 263e c237 cc3d
000000f0: 7b96 09be e904 b43d 23ff dd3d 0da1 10bf
00000100: f46c afbc 8ae1 c2bd 620a 1ebf 69c4 58be
00000110: 5ba7 013f 1475 6bbe 029b ee3e b6fd 023f
0.3193758 -0.00910678 0.07678114 -0.19473876 0.42962548 0.4936681 -0.65270776 -0.30726638
-0.1860277 0.6030221 -0.0994408 0.43626916 0.20613486 -0.101112634 -0.36294073 -0.19127592
-0.6159301 -0.047036666 0.0547695 -0.13306797 0.1618292 0.067903206 -0.27658007 -0.07672397
0.26600868 0.31771177 -0.35395452 0.09784935 -0.23213938 -0.51952356 -0.11627172 -0.23162557
0.19456708 0.44512472 0.38956127 0.14939333 0.1218024 0.08948156 0.12480985 0.31203747
0.34054053 -0.2729196 -0.10294638 -0.108826004 -0.04038415 0.064749494 -0.015549873 0.24089327
-0.14243248 0.23734573 0.40336677 -0.21439922 0.11207218 0.16694696 -0.1509175 0.20237279
0.19944876 -0.08484503 0.16282463 0.099715725 -0.1343631 0.08789999 0.10839679 -0.56495744
-0.021414258 -0.095156744 -0.6173459 -0.21168675 0.5064599 -0.2299388 0.46602637 0.5116838

conv1.bias f4 [8]
00000000: 693c b9bc 1575 0cbc b169 47bd 840e 603d
00000010: c4dc a8be 0d14 70bd 4baa bcbe 66f0 5e3d
-0.022611814 -0.008572836 -0.04868478 0.054701343 -0.3298093 -0.058612872 -0.36848673 0.05442848

conv2.weight f4 [16, 8, 3, 3]
00000000: 1ff1 003d c0fe c2bc 7b6a 47be a150 5dbe
00000010: 7c1b 44ba a6b3 5bbe 684c 81be 52da 95be
00000020: a677 dcbe 71ce 443d 4579 edbc 0d46 e7be
00000030: c9e9 013d 350f e7bc 7185 2bbf 904f e33d
00000040: 3b34 f53d b2ad debe 1764 1e3d 0e91 743d
00000050: e4a6 3ebd bbf0 8bbd 5bd5 8fbd 7980 7f3d
00000060: 472b 15be 2c0d 42bc 16c6 a33d 3103 5c3c
00000070: de9d 1b3d 5bfe d4bd a86f ab3b d2a8 e93c
00000080: 591d 243c 243d 9bbd dc1c 21bd 1728 08bc
00000090: bc69 c6bd 786f b1bd eff5 9cbe e58d 973d
000000a0: 9ec4 d1bd a35c cebd e2de 1b3d dc05 81bd
000000b0: 291b 8e3d 5f40 86bb 7ff5 fdbc 1247 073e
000000c0: 4153 d13b d986 9bbd 3805 b13d d306 42bd
000000d0: 4a0d 0dbd 0fbb 1a3e 7431 86bd 09c5 5fbe
000000e0: d189 a63d b668 953d 04df 21be 2613 03bd
000000f0: 7649 073d 706a 533d 5f54 a73d 8b86 45bd
00000100: 6988 893d beac 183e 7072 71bd e7e3 883c
00000110: 6ab5 a73d 9458 1ebb 96be b23d ede0 183e
00000120: 773d 7abe 4c31 8dbd b0f2 aebe f2f6 13be
00000130: 918e f1bd 9b70 5fbe 096a a4bc 3f4c 8ebe
00000140: 5603 adbe 6807 d8bd f4af 8fbd 24bb e2bc
00000150: bf51 e03e 9bc3 8b3d f701 4d3e a351 9c3e
00000160: f07c 533e 30db 063d dcb4 0abd da9e d03d
00000170: 7c49 ac3c c788 2d3d 030e 8c3d 84ab 47be
00000180: 2f49 773e a5f9 5fbe d0c3 19bf 87c1 9ebb
00000190: b153 373d 9963 d8bd f3fd 953c ccac a0bd
000001a0: 99a1 24be 0d98 d43c 241b 01bf 3abf 95be
000001b0: cc59 4e3e 6ef9 753d 6cf9 49bd 9aa6 30bc
000001c0: 793b 663e ee26 46bd 0c9e df3d 01df db3c
000001d0: 57ea 83be 9fb5 4b3d a42d 4d3e d9f5 e1be
000001e0: 7d50 213e 2699 003e 18ea 0abf 019b 293d
000001f0: 5d0e 93be 574f abbd e08b 5f3e c747 053e
00000200: 2539 a8be a138 6d3d d8e2 d13d b214 0fbf
00000210: 5f97 b03d 9879 d7bd 72cd 3ebe 6727 a8bd
00000220: 639f f9bd 0c84 1fbf 8eed 943e d6bb 6c3e
00000230: bddd f0bd 222f 703e 7511 e4be bb39 cb3d
00000240: bd16 04be cb5c 69be 0487 9d3c 394e bbbd
00000250: eee9 28be 711a 56bc 7e2b b23d 7c65 5d3e
00000260: a0ba ecbd 0f46 e2bd 5b57 603e a89e 563e
00000270: c539 4f3e 8b4d 5f3d ff92 113d 7fe6 043e
00000280: 3086 99bd 2de5 a43d 216b 283e ac6e c03c
00000290: 7c64 aabd f358 a83d 15a1 f0bd c15a 713d
000002a0: 07dd 013e bea1 aebd 8ba9 d8bc af76 ef3d
000002b0: 4769 50bd 01b9 69bc 7fae a43d f669 4ebe
000002c0: 445b 76be 3824 1ebe 30cf 1ebe 110b 0abe
000002d0: 361f 0b3e 0f77 803d e351 1f3d 5b15 1c3c
000002e0: e577 a0bd b228 0c3e dced cc3c fa97 723d
000002f0: 34b3 25be 21b5 3b3d e26c cf3d 4154 1c3e
00000300: 05db 093e 3358 d33c ba1c 5c3d fb2e e1bd
00000310: 459c 97bb 9c9d 9fbe d4ad b1bc aefd bd3d
00000320: 6aa3 1a3e f268 443d 8b30 d03c 5df3 bbbd
00000330: bc6c c33d 34ca 67bd 5a30 6abe 9f11 9ebc
00000340: ee41 05be b74a 10be 2c6f 7f3d ba53 1e3d
00000350: f9e1 e5bd 8404 283d bb53 2f3e 3787 77bd
00000360: ffd5 4a3e 5b0c ba3d 3f20 98be a3c5 e9bd
00000370: 07e4 ddbe 9f9b 56be 7b01 b8be 65a3 e8be
00000380: ac27 03be 1065 bc3d 7dab a5bd 9dcc 19bf
00000390: 231d 383e 1a48 c13c 79b1 62be e5e2 cabd
000003a0: 31c4 06be 5a22 df3d 7645 133d 5424 52bd
000003b0: bcf4 c23c 1fa5 d8bd c797 b9bc a936 28bc
000003c0: 4084 203b 256d 953c f866 bdbd 931a b83d
000003d0: 775f ab3d c612 633d ca8f b13c 1f1b c83d
000003e0: b14b a5bd 72cd 47be 02f8 41be a4fc e8bd
000003f0: 1a14 983d 3502 db3d 6934 9d3c 659e 3cbd
0.03147995 -0.023803115 -0.19474213 -0.21612789 -0.0007480902 -0.21455249 -0.25253606 -0.29268128
-0.43060035 0.04804844 -0.02898849 -0.45170632 0.031717096 -0.028205493 -0.6700049 0.1109916
0.11972853 -0.43491894 0.038669672 0.059708647 -0.046545878 -0.06833025 -0.07023116 0.06237838
-0.1456729 -0.011843961 0.07996766 0.013428495 0.03799235 -0.10400077 0.0052318163 0.028522883
0.010016763 -0.07580021 -0.039334163 -0.008310339 -0.09688136 -0.08663839 -0.30656382 0.07400111
-0.1024258 -0.10076263 0.038054354 -0.06299946 0.06938774 -0.004097029 -0.03100085 0.13210705
0.0063880985 -0.075940795 0.086435735 -0.04736979 -0.0344365 0.1511042 -0.06552401 -0.21852507
0.08131755 0.07295363 -0.1580773 -0.032000683 0.033029042 0.05161518 0.081703894 -0.048224013
0.06715471 0.14909646 -0.058947027 0.016710235 0.08188899 -0.0024161683 0.08727758 0.14929552
-0.2443751 -0.06894168 -0.3416953 -0.14449671 -0.117947705 -0.218203 -0.020070093 -0.27792546
-0.33791608 -0.10548288 -0.07015982 -0.027677126 0.43812367 0.06824418 0.20020281 0.30531034
0.20653129 0.032923877 -0.033863887 0.101865485 0.021031134 0.04236677 0.0683861 -0.19499022
0.24149011 -0.21872576 -0.6006441 -0.0048448476 0.04475755 -0.10565872 0.018309569 -0.078454584
-0.1607727 0.02595141 -0.5043204 -0.29247457 0.20151442 0.060052328 -0.049310133 -0.010781908
0.22483625 -0.04837697 0.10918817 0.026839735 -0.25764725 0.049733754 0.20036942 -0.4413288
0.1575336 0.12558421 -0.5426345 0.04140759 -0.28721896 -0.08364742 0.21830702 0.13015662
-0.32856098 0.057915334 0.10248345 -0.55890954 0.08622622 -0.10521239 -0.18633059 -0.082106404
-0.12188604 -0.6231086 0.2908749 0.23118529 -0.11761043 0.2345548 -0.4454457 0.099231206
-0.12899299 -0.22789304 0.01922942 -0.09145779 -0.16495487 -0.013067828 0.08699702 0.21620744
-0.115590334 -0.11048519 0.21908323 0.2095896 0.20236881 0.05451731 0.035540577 0.12978552
-0.07496297 0.08051524 0.16447116 0.023490272 -0.08319947 0.08220091 -0.11749474 0.05892444
0.12681971 -0.085269436 -0.026448032 0.11692559 -0.05088165 -0.0142653 0.08041095 -0.20157608
-0.24058253 -0.15443504 -0.15508723 -0.13480784 0.13586125 0.062727086 0.038896453 0.009526576
-0.07835368 0.13687399 0.025015764 0.059226967 -0.16181642 0.045827035 0.101281896 0.15266515
0.13462456 0.025798893 0.053738333 -0.10995289 -0.004626783 -0.31174934 -0.021689333 0.09276901
0.151014 0.047951646 0.025413772 -0.09177277 0.09542224 -0.05658932 -0.22870007 -0.019295512
-0.13013431 -0.14091001 0.06236188 0.038654067 -0.112247415 0.04101993 0.17121784 -0.060431685
0.19808196 0.09084388 -0.29712102 -0.11414649 -0.43338034 -0.20957802 -0.3593863 -0.4543716
-0.12808102 0.09198964 -0.080893494 -0.6007784 0.17979865 0.023593951 -0.22138013 -0.09906558
-0.13160779 0.10895224 0.035954915 -0.051304176 0.02379834 -0.10578369 -0.02265538 -0.010266938
0.002449289 0.01824052 -0.09248155 0.08989444 0.08367818 0.055437826 0.02167501 0.09770798
-0.080710776 -0.19511965 -0.18942264 -0.113763124 0.07425709 0.1069378 0.01919003 -0.046049494

conv2.bias f4 [16]
00000000: 24ae d5bd 715b fc3d 3535 8fbe 6219 a8be
00000010: f31a 5dbe dad0 0dbe 7a35 f63d d7bd 9d3e
00000020: bcec babd 85c8 8fbe d084 0c3e 8b11 afbd
00000030: d2ca b3bd 43c1 d4be 6d4c 87bb 4287 79bc
-0.10433605 0.123221286 -0.2797028 -0.32831866 -0.21592312 -0.13849202 0.120219186 0.308089
-0.09127185 -0.28082672 0.13722539 -0.08548268 -0.08778919 -0.41553697 -0.0041289837 -0.015230002

conv3.weight f4 [32, 16, 3, 3]
00000000: a5df 263c 420f 25bd 97f1 4abd ca0f 1f3e
00000010: 674a 383d 58a6 f9bc f257 fa3a 14ed 0a3e
00000020: 4f89 9dbd 8215 5b3e bedf 963e 1403 ad3e
00000030: 7a6e c33d c9b1 f03d 6777 d83d a0e4 1fbe
00000040: d030 74be 9b6d 6bbe dbb1 e4bc 869a 493e
00000050: ff86 b63d 61ca c5bd b90a bfbd 89da 57bd
00000060: 1981 493d 5499 cb3b 3cb3 4cbe ba03 0abe
00000070: 1403 47bc 9998 723d 4bb4 613d 6e30 8a3d
00000080: 8c40 5cbe 2ac7 d23d 279b 353d 1c35 dfbd
00000090: 056f f5be a6c9 353e 2014 2d3e b233 4f3e
000000a0: 4e58 6fbe 3ebd 2c3e be7c 8dbe 0f54 4cbe
000000b0: 850a b7be 579b dcbd e6e7 1bbc 0b39 8e3e
000000c0: 8af2 213e d2ca f33d c92e 85bd cc2d 803c
000000d0: 21cf 01bd b4a5 96be 61df 25bf fafc eebd
000000e0: c043 04be 0a1c f4be f6be 71be b904 6b3d
000000f0: 5520 f8bd f0a3 edbc 5860 abbc 2d02 d2bc
00000100: 3d9f 033e 7409 e83c a785 323e b622 b13d
00000110: 9936 773d 0ab0 b0bd 7123 67be dadb aa3c
00000120: 521c 14be e633 4bbd 3895 e9bd 1b16 8c3e
00000130: 2afa a9bd c703 1a3c d6af 1d3e c07a b6bd
00000140: f1d3 923d ec4e bfbd 8aa6 85ba 6a9e 6c3e
00000150: 7364 62be d99f bfbd 8baf ac3a 26fa 42bd
00000160: ad22 7abb 088c 39be bd62 08bf 3ed5 cabe
00000170: 81e0 01be 7bc2 e0be 9966 6cbe 3fdc 7ebe
00000180: c797 a1be 6833 0ebf 6560 28be 9680 4fbe
00000190: 94cc cbbd ecf3 43bd bfe0 483d eb41 97bd
000001a0: 70a0 8ebe 870a 9abd 3448 a43d 4a64 a2bd
000001b0: adbc 5abd 8637 98be 05d3 aebe 1290 e9bc
000001c0: ee50 36be 9d45 55be 2847 fdbc 8015 bf3c
000001d0: 6dd0 103d e590 01be cfb9 9fbd b714 48be
000001e0: f644 623c 7ee1 1e3e 17f0 393d 4b48 7bbc
000001f0: aae9 86bd 9318 5b3d 86a5 f3bd f397 de3d
00000200: e305 9ebd ebf0 583e aeb9 6b3d bd60 2e3e
00000210: 2dcc 53bd 724f 483e 5443 ab3d e06d 89be
00000220: c166 2b3d 74a8 01be dbb9 12be 6b30 87be
00000230: 3d4c c43d 5dd2 bf3d 8524 1e3e 1ff3 a4bb
00000240: 4dd7 53bc 2995 85be 7e8f 21be 223c 18bc
00000250: ffb5 0dbd 68fa e53d 44b8 dcbd 150e 27be
00000260: 41b8 babd 0560 33be 19de 4dbd 9d29 403e
00000270: 42fb b63d 22b1 8fbc 94a5 e4bd 145c fc3d
00000280: f4b5 113e 37d7 1b3e 5053 7fbd 7c9f dabd
00000290: 0bde 91be 5c05 5bbc c830 17be 3c97 7dbe
000002a0: 08bb 7b3d e055 80bc 66f9 8d3d 4cd3 b93d
000002b0: 5fd6 22be 345e 99bd 2799 063e ee57 f1bb
000002c0: 9e03 31be 180f 50bd 6af2 a53c 2af4 053e
000002d0: dc3e babd b822 9b3e 6dde 66bd 675e 11be
000002e0: 4c7a c73c 00dc 90be 5914 74be b11f ecbd
000002f0: c2bc 58be afa0 103d 6da4 b2bd 42df 90be
00000300: 83ce 04bd 71b4 34be d866 25be e080 53bd
00000310: fdca efbb 5058 9abc e1dd 8c3c e092 c1bd
00000320: b9d6 57be 30ad debd 8af6 c6bd 99fb 82be
00000330: 9c5c 06bd 5edc b8bd 46d6 ad3c f5f8 2cbe
00000340: f870 1a3d c94d f6bc 3488 0dbe f9d9 133e
00000350: 4728 4c3a 98f6 dcbd dd2c 2e3d ff3f 6abe
00000360: ce6e 203e 1c3f 0ebe 4ed3 81be 4c93 343e
00000370: d0e8 403d 6f10 8c3c b41c 4c3d 6360 9dbd
00000380: c537 cb3d cad0 f4bc bdf0 93bd f942 0bbe
00000390: 1c21 45bd 3fb3 78be 0f80 19be 0560 863e
000003a0: 6a38 5fbc cac3 1e3d d175 173e 074b ed3d
000003b0: f776 b3bd 8065 6abd 310f e13d 129a c63d
000003c0: 8c1c 47be 997f 9cbc 7e32 12be dbaf 21be
000003d0: ff0e e7bc 473c 82be c531 823c 2cbc 01be
000003e0: 7933 60be 5710 29bc 5256 e6bd 0a97 86bc
000003f0: 8741 29be 3947 bc3c 4cf5 cabd cd8b 2fbe
0.010185157 -0.040297754 -0.049546804 0.15533367 0.04499283 -0.030474827 0.0019099696 0.13567
-0.07692205 0.21394923 0.29467577 0.3379141 0.09542556 0.1175266 0.10569649 -0.15614557
-0.23846745 -0.2299103 -0.02791684 0.19687852 0.08912467 -0.09657741 -0.09328217 -0.052698646
0.049195383 0.0062133465 -0.19990247 -0.13477984 -0.01214673 0.05922756 0.05510358 0.067475185
-0.21508998 0.10291894 0.044337418 -0.10898802 -0.47936264 0.17752704 0.16902208 0.20234564
-0.2337353 0.16869065 -0.27634233 -0.19953941 -0.35750213 -0.10771816 -0.009515738 0.27777895
0.15815178 0.11903919 -0.06503064 0.015646838 -0.031691674 -0.29423296 -0.64793974 -0.11669345
-0.1291647 -0.47677642 -0.23608002 0.05737755 -0.12115542 -0.029008836 -0.020919964 -0.025635803
0.12853713 0.02832482 0.17433797 0.08649199 0.060354803 -0.08627327 -0.22572114 0.020856787
-0.14463928 -0.04961004 -0.11405414 0.27360615 -0.08299668 0.009400315 0.15399107 -0.089101315
0.07169331 -0.09341225 -0.0010196727 0.23107305 -0.22108631 -0.093566604 0.0013174874 -0.04760184
-0.003816764 -0.18119824 -0.5327566 -0.39615816 -0.12683298 -0.43898377 -0.23086013 -0.24888705
-0.3156111 -0.5554719 -0.16443022 -0.20263895 -0.099511296 -0.047840044 0.04904246 -0.0738562
-0.2785678 -0.07521539 0.08021584 -0.07929285 -0.05340259 -0.2972986 -0.3414537 -0.02851108
-0.1780431 -0.20827337 -0.030917719 0.023325682 0.03535502 -0.12652929 -0.07799112 -0.19539152
0.013810387 0.15515706 0.045394983 -0.01533706 -0.06587537 0.053490233 -0.118968055 0.10868826
-0.077159666 0.21185653 0.057550125 0.1702909 -0.05170839 0.19561556 0.08362451 -0.2684164
0.04184604 -0.12661916 -0.1432871 -0.26404127 0.09584854 0.093662955 0.15443619 -0.005033865
-0.01292975 -0.26090363 -0.15777394 -0.0092916805 -0.034597393 0.11229402 -0.107773334 -0.16313966
-0.09117175 -0.17517097 -0.050260637 0.18765874 0.089346424 -0.017540518 -0.11164394 0.1232225
0.14229566 0.15218817 -0.062335312 -0.106749505 -0.28489718 -0.013367977 -0.14764702 -0.24764723
0.061457664 -0.015665948 0.069323346 0.09073505 -0.15902089 -0.07488671 0.1314436 -0.0073652184
-0.17286536 -0.050795645 0.020257194 0.13081422 -0.09094021 0.30299926 -0.056364466 -0.14196168
0.024350308 -0.28292847 -0.23835887 -0.11529482 -0.21165755 0.03530949 -0.08722768 -0.28295332
-0.032423507 -0.17646958 -0.16152513 -0.051636577 -0.0073178993 -0.018840939 0.017195644 -0.09451842
-0.21078004 -0.10872877 -0.09714992 -0.2558258 -0.032803163 -0.09026407 0.021220338 -0.16891845
0.03770539 -0.030066388 -0.13821489 0.14438619 0.0007787984 -0.107892215 0.042523254 -0.22875975
0.15667269 -0.13891262 -0.25356525 0.17634314 0.047097027 0.01709768 0.04983206 -0.076844
0.099227466 -0.029884715 -0.072236516 -0.13599767 -0.04812728 -0.24287127 -0.14990257 0.26245132
-0.01362429 0.038760938 0.14791037 0.11586576 -0.08762925 -0.057225704 0.10989226 0.09697355
-0.19444484 -0.019103812 -0.14277074 -0.1578974 -0.028205393 -0.25436613 0.015892873 -0.12669438
-0.21894635 -0.010318837 -0.11246933 -0.016429443 -0.16528903 0.02298318 -0.09910068 -0.17143174

conv3.bias f4 [32]
00000000: 3e01 d7bc f74d 19be fb0e e1bd e038 30bd
00000010: 13e5 f6bd ce4d 823d 7ba3 163e a9de 39bd
00000020: 0b6d 40be 631e 863d 481f 983d 2f69 cfbd
00000030: e683 0b3e fdf4 0b3c 784b b9bd 416b a9bd
00000040: a606 443c 4d67 b73d 4e8f ae3d e034 1abe
00000050: 49af b9bb 2608 59be dd07 2c3e 1fc2 0f3b
00000060: 3249 17bd df22 4abe ca57 4b3e 23c6 903c
00000070: 7cc3 bfb9 ca97 dabc 508a e7bd f50d f93c
-0.02624571 -0.14971147 -0.109891854 -0.04302299 -0.12055411 0.06362496 0.147108 -0.04537836
-0.18791597 0.065487646 0.074278414 -0.10127484 0.13624534 0.0085422965 -0.09047598 -0.0827241
0.011964476 0.0895525 0.08523427 -0.15059233 -0.0056666476 -0.21194515 0.16799875 0.0021935774
-0.03693504 -0.19739865 0.19857708 0.017672604 -0.00036576006 -0.026683707 -0.11305678 0.030402163

dense.weight f4 [5, 32]
00000000: 3f9d d1be b8b4 b43c e1b4 963e 281b 423e
00000010: 2a64 61be 77fd af3e 7985 4cbe 6b21 b2bd
00000020: 5825 af3d 3a8e 693d 3a21 ecbd 2b8a 993e
00000030: cc8a 21be b1a7 babb 943e 4c3e e2dc 96bd
00000040: 70ca 3bbd 27ca e1be e3c6 953d 0aa2 4ebb
00000050: a545 1dbd 7852 5c3e 1e3a 6b3e 3d21 9d3e
00000060: 0e12 e73d 3058 993d 2ed3 e53b ffad 163e
00000070: d548 393b 9898 26be 34c6 0b3d 3a9a 973e
00000080: 78e4 8b3e 4cc0 eb3c 8f5c 20be 1558 71be
00000090: 7f35 333e 5737 f73c dfd6 b93e e551 0c3e
000000a0: 1b91 4ebd c3af 853e c4ba 083e e144 95be
000000b0: 51ea 23be 4858 8a3e dd3b a73d 6a60 4e3e
000000c0: d583 ce3d b7dd 823d e5b5 9fbe 6abf 833e
000000d0: 95c6 35be 8fe7 74be 262f 31bd 3665 bd3d
000000e0: 0a8a 96bc 60e2 a6be 3137 0cbe ed83 7cbe
000000f0: 8f63 d7bd a4cd 94be e455 993e bcb9 d2bc
00000100: cd0f b0bd 79f9 a83e 6b79 b9be fe62 2c3e
00000110: 0b6a bdbd b946 5bbe 536f 79be 583c 17be
00000120: e34a a1be c95f e3be 7935 f8bd ed46 ffbd
00000130: 7f2a 673e 5be2 46be 2b79 92be 786a 93bd
00000140: 5ddb 3a3d 74c2 3d3e b544 d23d 25ad 143e
00000150: 1a0b 6f3d ba3e 9cbe 17bc fb3d 7b0e 44be
00000160: 24fa 293b 3bc3 2c3e 33ee 383e dea3 d03d
00000170: cf3d c93d cfd4 1c3e b393 c2bd 914e a1be
00000180: a899 0e3e b941 04be e8b4 6a3e 02f9 9e3c
00000190: 8cfa 84be f2a8 463e d967 f03e 6e3d 95be
000001a0: fbc6 3bbe 1a37 923e f01c 263e 3103 90be
000001b0: 0e54 a3bd 9330 b13d a6f8 dbbc 1268 53be
000001c0: ea52 23be 90c9 593e 42a2 17bd 8118 163c
000001d0: 5455 b53d 38af 87be efa6 6e3e 7690 3c3e
000001e0: 3b43 9dbd b9ec 9dbe b0a4 253e 452c 1c3e
000001f0: 40ce 71bd f9f1 80be bf16 1abd 6060 383e
00000200: 2d25 10be 8eb0 eabd ce5e 7ebe 25bf debd
00000210: c7fc ae3c 199f 93be d4f0 8cbe 073a 7f3e
00000220: ae02 5e3e ae5d c9bd de25 483c 047a 943e
00000230: f2ce ed3d e410 44be 8f1c 78be 09bb 0f3e
00000240: f775 f63d b216 b23d 3c7d 26be bc10 2d3e
00000250: c756 203d 03b6 4c3e a62a 7abd f82f 2fbe
00000260: 7043 e33d 3973 ea3d c73a 86be e993 183e
00000270: f5c7 033e 575d d23c 95e3 303e 3113 b2be
-0.40940282 0.02205883 0.29434875 0.18955672 -0.22010866 0.34373066 -0.19972791 -0.0869778
0.08552045 0.057020403 -0.11529775 0.29988226 -0.15775603 -0.00569626 0.19945747 -0.07366349
-0.045847356 -0.44099542 0.07313325 -0.0031529688 -0.038396496 0.21515834 0.22971389 0.3068942
0.112827405 0.074875236 0.0070137 0.14714812 0.002827217 -0.16269147 0.034124568 0.29609853
0.27322745 0.028778218 -0.15660308 -0.23568757 0.17500876 0.030177755 0.36296746 0.13703115
-0.050431352 0.26110658 0.13352495 -0.29154113 -0.16007353 0.27020478 0.08165715 0.20153967
0.10083739 0.06389945 -0.31193462 0.25731975 -0.17751534 -0.23916458 -0.043257855 0.0924782
-0.018376369 -0.32594585 -0.13692929 -0.246597 -0.10517036 -0.2906314 0.29948342 -0.02572333
-0.08596764 0.33002833 -0.36225447 0.16834638 -0.09248742 -0.21413697 -0.24358873 -0.14769113
-0.31502447 -0.44409016 -0.12119574 -0.124647 0.22574805 -0.19422285 -0.2860807 -0.07198042
0.045619357 0.18531209 0.10267011 0.14519174 0.058360197 -0.30516607 0.12291735 -0.19146149
0.002593645 0.1687135 0.18059616 0.10187505 0.09826242 0.15315555 -0.09500828 -0.31505254
0.13925803 -0.12915696 0.22920573 0.019405846 -0.25972402 0.19400385 0.4695423 -0.2914843
-0.18337624 0.28557664 0.16221976 -0.28127435 -0.079750165 0.08651843 -0.026851963 -0.20645168
-0.15949598 0.21268296 -0.037019975 0.009161116 0.08854166 -0.2650087 0.23305868 0.18414482
-0.07678839 -0.30844668 0.16176105 0.15251262 -0.059034586 -0.2518461 -0.03761935 0.18005514
-0.14076681 -0.114594564 -0.24840853 -0.10876302 0.021360768 -0.2883232 -0.27527487 0.2492448
0.2168071 -0.09832321 0.0122160595 0.2899934 0.11611737 -0.19147068 -0.24229644 0.14036192
0.12034219 0.08695735 -0.1625871 0.16900915 0.039145257 0.19991307 -0.06107583 -0.17108142
0.11096847 0.11447758 -0.2621672 0.14900173 0.12869246 0.025679274 0.17274316 -0.34780267

dense.bias f4 [5]
00000000: 966b 033e a895 ccbd cb5b 823e 1217 e53d
00000010: 29e9 d83b
0.1283401 -0.09989482 0.25460657 0.11186041 0.0066195917
