nesy_verification/saved_models/cnn_no_softmax.pt (torch, 27412 bytes, 8 tensors)

conv1.weight f4 [8, 1, 3, 3]
0	0xbd227ecd	-0.039671708
1	0x3ed5bd30	0.417459
2	0x3ebc5992	0.36787087
3	0xbed52ed5	-0.41637293
4	0xbe4826eb	-0.19546096
5	0x3e85fd96	0.26170033
6	0x3d958a7f	0.07301807
7	0xbf21d5a4	-0.63216615
8	0xbe026276	-0.12732872
9	0xbce88e0f	-0.028388051
10	0x3cb4da67	0.022076799
11	0x3da4131a	0.08011456
12	0xbe4cfd25	-0.20018442
13	0x3d38959d	0.045064557
14	0x3ea3cfae	0.31994385
15	0x3caa8cf5	0.020819167
16	0xbdb7b70e	-0.08970462
17	0x3e78608e	0.24255583
18	0xbe1a05f4	-0.15041333
19	0x3e06024c	0.13086814
20	0xbbd33b1f	-0.006446257
21	0x3d04ed34	0.032452777
22	0x3eaa370b	0.3324512
23	0x3e355ccf	0.17711185
24	0x3b7884c7	0.0037920938
25	0xbe4d98bf	-0.200778
26	0x3deca488	0.11554819
27	0x3e20e184	0.15711027
28	0x3e935707	0.28777334
29	0x3ef8403f	0.48486516
30	0x3e9f5499	0.3111923
31	0x3c94b184	0.018151052
32	0xbe0fce7b	-0.1404361
33	0xbee18aeb	-0.44051298
34	0xbecaa51a	-0.39579087
35	0xbeef8dad	-0.46787778
36	0x3e3cda35	0.18442614
37	0x3e9aabb6	0.3020913
38	0x3e132774	0.14370519
39	0x3daaa2fd	0.08331869
40	0xbd93729b	-0.07199594
41	0xbdab6c4b	-0.083702646
42	0xbc11da67	-0.008902169
43	0xbe9513d3	-0.29116687
44	0x3df714a2	0.12064482
45	0xbe4f6237	-0.2025231
46	0xbedac46f	-0.42727992
47	0xbeb691e3	-0.35658178
48	0xbe0718de	-0.1319308
49	0x3c413206	0.011791712
50	0xbc020da4	-0.0079378225
51	0x3f356510	0.70857334
52	0x3ddb589e	0.10710262
53	0xbd868023	-0.06567409
54	0xbeaf0e5c	-0.34190643
55	0x3ebb6e08	0.36607385
56	0x3e234ea0	0.15947962
57	0xbdeba1d5	-0.115054764
58	0x3e7297bc	0.23690695
59	0xbea737f6	-0.32659882
60	0xbe9212a1	-0.28529838
61	0x3ea0b362	0.31386858
62	0xbe434a5f	-0.19071339
63	0x3e138088	0.144045
64	0xbe82f037	-0.25573894
65	0x3e295f7f	0.16540335
66	0x3ee391f3	0.44447288
67	0xbe61701f	-0.22015427
68	0xbe068a6f	-0.13138746
69	0x3e952efa	0.29137403
70	0xbb9c40c1	-0.0047684615
71	0xbee3b4e7	-0.44473955

conv1.bias f4 [8]
0	0x3e565265	0.20929869
1	0xbea68d05	-0.32529464
2	0xbe7d5da8	-0.24742758
3	0x3d9ac8c5	0.07557825
4	0xbe807e25	-0.2509624
5	0x3db476dc	0.08811733
6	0xbc246d1b	-0.010035778
7	0x3e6e589a	0.23275986

conv2.weight f4 [16, 8, 3, 3]
0	0xbee4cb33	-0.4468628
1	0xbdbe61ed	-0.092960216
2	0xbd289da4	-0.041165963
3	0xbe3f875e	-0.18703982
4	0xbdc6fbec	-0.09716019
5	0x3d0b0758	0.03394255
6	0x38cfe0ca	9.9123994e-05
7	0x3e5d6a2c	0.21622533
8	0x3e120730	0.14260554
9	0x3d81e199	0.063418575
10	0xbd610528	-0.054936558
11	0x3a67fb9a	0.0008849442
12	0xbdbc428e	-0.09192382
13	0x3ddb6f33	0.10714569
14	0xbd884069	-0.0665291
15	0xbc9b6901	-0.018970968
16	0x3df3d349	0.11905534
17	0xbe637e19	-0.22216071
18	0x3e08ec65	0.13371427
19	0xbd00e480	-0.031467915
20	0x3d042297	0.03225955
21	0x3d41c9ee	0.047311716
22	0x3d7c11f8	0.061540574
23	0xbe29e307	-0.1659051
24	0x3e432fd9	0.19061221
25	0x3e4cd832	0.20004347
26	0xbe4a10d7	-0.19732986
27	0x3d3cc452	0.046085663
28	0x3dd073af	0.10178315
29	0x3e334ea9	0.17510475
30	0xbe3fbb2a	-0.18723741
31	0xbdf0d756	-0.11759822
32	0x3e063007	0.13104258
33	0xbde30b4a	-0.110861376
34	0x3cf2e218	0.029648826
35	0x3e5c05bf	0.21486567
36	0xbc8403e7	-0.016115142
37	0xbdb1c278	-0.0867967
38	0xbd5e7312	-0.05430896
39	0x3e33bbf7	0.17552172
40	0x3d8ec4d1	0.069711335
41	0xbc37d6a9	-0.011220613
42	0x3e39f187	0.18158542
43	0x3dcb263b	0.09919401
44	0x3d82e2d4	0.0639092
45	0xbd77d109	-0.060502086
46	0x3c9e3378	0.019311652
47	0x3d02173e	0.031760447
48	0xbe05d669	-0.13070072
49	0xbde9f8e3	-0.114244245
50	0x3dbf595d	0.093432166
51	0xbf050fab	-0.5197703
52	0xbdf1f17c	-0.118136376
53	0x3e746686	0.23867235
54	0xbe999ae1	-0.30000976
55	0xbedcd4c1	-0.43131068
56	0x3ce2942e	0.027658548
57	0xbe54d12b	-0.20782916
58	0xbeabad76	-0.33530778
59	0xbe0af68b	-0.13570611
60	0xbd33c42d	-0.04388826
61	0xbdb0a290	-0.08624756
62	0xbe3aa80b	-0.18228166
63	0xbe500d41	-0.20317556
64	0xbd96a77e	-0.07356165
65	0xbe57ed24	-0.21086556
66	0xbd7c4759	-0.06159148
67	0x3d0b5a1f	0.034021493
68	0xbca21b27	-0.019788338
69	0x3dca85d1	0.09888805
70	0xbda5c727	-0.08094626
71	0x3ddaaa12	0.106769696
72	0x3dfe751c	0.124246806
73	0x3e0a7002	0.1351929
74	0x3de19716	0.110151455
75	0x3cc4efbe	0.0240401
76	0x3c9be43b	0.019029727
77	0x3bafe2be	0.005367606
78	0xbd9bf38d	-0.07614813
79	0xbc8a0bb3	-0.016851282
80	0x3d0811dd	0.03322016
81	0x3cc9dc65	0.024641225
82	0x3defe66e	0.11713873
83	0x3c263f08	0.010146864
84	0xbd90cf27	-0.07070761
85	0x3db55200	0.08853531
86	0x3ca4ee39	0.020133125
87	0xbdec861f	-0.11549019
88	0xbd982c92	-0.07430376
89	0xbe036f55	-0.12835439
90	0xbd4f12d5	-0.05055507
91	0x3ca74b3c	0.020421617
92	0x3e011d22	0.1260877
93	0x3cdbd6a6	0.02683575
94	0xbce0d4b9	-0.027445184
95	0xbbaf84b6	-0.0053563965
96	0xbe02f737	-0.12789617
97	0xbd4ad69f	-0.049521085
98	0xbc605e8f	-0.0136944195
99	0xbd169aff	-0.03676891
100	0xbd92f0c1	-0.071748264
101	0x3d0f8581	0.03503943
102	0x3e421e12	0.18956783
103	0x3d51db73	0.051234674
104	0xbbdd1dd1	-0.006747939
105	0x3de33aee	0.11095224
106	0xbdc0dd78	-0.09417242
107	0xbdf4c0ae	-0.11950813
108	0xbc1c835b	-0.009552802
109	0xbbae97cb	-0.0053281537
110	0x3d8b62e5	0.06805972
111	0xbcee522c	-0.029091917
112	0x3d92d91b	0.07170316
113	0x3cd9a281	0.026566746
114	0xbdbc3e8e	-0.09191619
115	0xbcf3c0c7	-0.02975501
116	0x3c59bec1	0.013290108
117	0x3d1e7ece	0.03869515
118	0x3d8e7c40	0.069572926
119	0xbd33e812	-0.04392249
120	0x3b1d5abf	0.0024010388
121	0x3e0c0adb	0.13676016
122	0x3dcc4fdb	0.09976169
123	0xbe923b19	-0.28560713
124	0xbe0fb770	-0.1403482
125	0xbb12da10	-0.0022407807
126	0x3d8275dd	0.06370137
127	0x3d2eb20e	0.042650275
128	0x3c68bedf	0.014205663
129	0x3e0254f6	0.12727723
130	0x3e21fe22	0.158196
131	0xbc42585a	-0.011861885
132	0x3e31cec1	0.17364027
133	0x3e8bfda4	0.2734195
134	0x3e75d761	0.24007942
135	0xbdf8117c	-0.1211271
136	0xbd8484ce	-0.06470643
137	0xbd433e9e	-0.04766714
138	0x3d31275d	0.04325043
139	0xbd8e5fb6	-0.06951849
140	0xbc9b0843	-0.018924838
141	0x3e9b6216	0.3034827
142	0x3e04d106	0.12970361
143	0xbb748c0a	-0.0037314915
144	0x3cb320d0	0.021866232
145	0x3e28fe9d	0.16503377
146	0xbe6337ec	-0.22189301
147	0xbc3bec68	-0.011469938
148	0x3b9c51dc	0.0047705006
149	0xbe0b07c2	-0.13577178
150	0x3c7f56fb	0.015584703
151	0xbd61cd3a	-0.05512736
152	0xbe0c76bb	-0.13717167
153	0x3dcf7518	0.10129756
154	0xbda6358b	-0.08115681
155	0xbe010130	-0.12598109
156	0xbe1280c1	-0.14306928
157	0x3e2c55e4	0.1682964
158	0x3d4c4275	0.049868066
159	0x3cfe23f3	0.031023001
160	0x3d735785	0.059409637
161	0x3df56707	0.119825415
162	0xbce3454b	-0.027743002
163	0x3d2f001a	0.042724706
164	0xbdd22f44	-0.102629215
165	0xbd26ecdc	-0.04075323
166	0xbcffe55f	-0.031237302
167	0x3e389908	0.18027127
168	0xbd1414be	-0.036152594
169	0x3df72058	0.12066716
170	0x3c6e224e	0.014534546
171	0x3e4026f4	0.1876486
172	0xbc0d5551	-0.008626298
173	0xbe202ec2	-0.15642837
174	0x3eb8204a	0.35962135
175	0xbe5cfe56	-0.21581396
176	0xbc1e5982	-0.009664895
177	0xbcfaffbc	-0.030639522
178	0xbeb42e5a	-0.35191613
179	0xbeb0910b	-0.3448566
180	0xbdadd1d9	-0.08487291
181	0x3da1ad77	0.07894414
182	0xbe39c479	-0.18141355
183	0xbd24c508	-0.040226966
184	0xbdaba510	-0.083810925
185	0x3dc67f8c	0.096922964
186	0x3d6cd155	0.057816822
187	0x3e1961ce	0.14978716
188	0x3dc442c8	0.0958305
189	0xbcf6b515	-0.030115644
190	0x3d52dde7	0.051481154
191	0x3e39f2da	0.18159047
192	0xbda1af5a	-0.07894774
193	0x3e0ae843	0.13565163
194	0x3e3f401a	0.18676797
195	0xbdb16cea	-0.08663352
196	0xbd88c2a5	-0.066777505
197	0xbd88abcf	-0.06673395
198	0x3d0c008d	0.034180213
199	0xbc68623b	-0.014183576
200	0xbe032c76	-0.12809929
201	0xbdf20f5f	-0.11819338
202	0x3e2bdb32	0.16782835
203	0x3dd8673b	0.10566565
204	0xbf0b8ca2	-0.54511464
205	0x3da712a9	0.08157856
206	0x3c660faf	0.014041825
207	0xbe296c13	-0.16545133
208	0xbc16263d	-0.00916439
209	0x3e835d8d	0.2565731
210	0xbdf8bacb	-0.12145003
211	0xbe896d33	-0.26841125
212	0x3e8d7ab1	0.2763267
213	0xbf179013	-0.59204215
214	0xbdd23220	-0.10263467
215	0x3e002b56	0.12516531
216	0xbe2c49c0	-0.16825008
217	0x3bb6f407	0.0055832895
218	0xbe0cce2e	-0.13750526
219	0xbca33e55	-0.019927183
220	0xbe0d9581	-0.13826562
221	0xbede7322	-0.43447214
222	0x3d1bd853	0.0380481
223	0x3dc5bcd8	0.0965516
224	0x3e4e8199	0.20166625
225	0xbcde7111	-0.027153524
226	0x3df652d7	0.12027519
227	0xbe538dc9	-0.20659555
228	0x3cb71d25	0.022352764
229	0xbd3cfe62	-0.046141036
230	0xbe8cc7ba	-0.2749613
231	0x3e10ca0d	0.14139576
232	0x3d9cb80b	0.07652291
233	0x3e37c943	0.17947869
234	0xbe29b062	-0.16571191
235	0x3d6bc06d	0.05755656
236	0xbe57940d	-0.2105257
237	0x3d2bf69a	0.041983224
238	0x3d1bccd5	0.03803714
239	0xbe3a719e	-0.18207404
240	0x3e440a21	0.19144489
241	0x3ac1c851	0.001478443
242	0x3dac8a53	0.08424821
243	0x3d078553	0.033086132
244	0x3e3c0509	0.18361296
245	0x3d9ff2f4	0.078100115
246	0xbd76ca80	-0.060251713
247	0x3c76b3ff	0.015057563
248	0x3c7eb115	0.015545149
249	0x3d7ea6a1	0.06217063
250	0xbcddd95a	-0.02708118
251	0x3e48c096	0.19604716
252	0xbd84f7b5	-0.06492559
253	0x3d847ced	0.0646914
254	0xbd07526a	-0.03303758
255	0xbd8257f0	-0.06364429

conv2.bias f4 [16]
0	0xbe8dfeb8	-0.27733397
1	0xbdc1570d	-0.09440432
2	0xbd7c419b	-0.061586004
3	0xbeadcb47	-0.3394415
4	0x3e5ac12b	0.2136275
5	0xbdeb29d0	-0.114825845
6	0xbe915d85	-0.28391662
7	0xbea4842c	-0.3213209
8	0xbd477e50	-0.048704445
9	0x3e186d5a	0.14885464
10	0xbe0cd7ac	-0.13754147
11	0x3d586d85	0.05283882
12	0xbdc09211	-0.0940286
13	0xbeb8e5f1	-0.3611293
14	0x3db6cd91	0.089259274
15	0xbd891022	-0.0669253

conv3.weight f4 [32, 16, 3, 3]
0	0xbcec641f	-0.028856335
1	0xbd37b2ff	-0.04484844
2	0x3ca999dd	0.02070325
3	0xbd5b48fb	-0.053536396
4	0x3ccda8a3	0.025104826
5	0xbd49fc37	-0.049312796
6	0xbc34fae0	-0.011046141
7	0x3d5c7f4f	0.05383235
8	0xbe1f47ff	-0.15554808
9	0xbd7ad275	-0.061235864
10	0x3d8fcf8b	0.070220076
11	0xbdf238f7	-0.118272714
12	0x3d3b180f	0.04567724
13	0x3c0b0aa7	0.008486426
14	0xbc3a2817	-0.011362097
15	0x3d484d09	0.04890159
16	0x3bcf5b6d	0.0063280375
17	0xbc8c8b7d	-0.017156357
18	0xbcbbd306	-0.022927772
19	0x3d89156c	0.06693539
20	0x3e138b46	0.14408597
21	0xbccf54b5	-0.025308946
22	0xbce8279e	-0.028339203
23	0x3d14ace8	0.03629771
24	0x3e508e60	0.20366812
25	0xbe835f8e	-0.2565884
26	0xbe2edc25	-0.17076166
27	0x3c507f20	0.012725621
28	0xb98a171d	-0.00026338632
29	0xbe4f538e	-0.20246717
30	0x3d77dc5d	0.06051289
31	0x3d5a2b86	0.053264163
32	0xbead7441	-0.33877757
33	0xbe6d5d5d	-0.23180147
34	0x3c64b2ee	0.013958676
35	0x3e37c409	0.17945875
36	0xbdb57a8b	-0.08861264
37	0xbda57b06	-0.080801055
38	0xbe427e08	-0.1899339
39	0x3d9f66e5	0.077832974
40	0xbd6cf83d	-0.057853926
41	0xbc895d0e	-0.016768005
42	0xbecc6212	-0.39918572
43	0x3d8d16a5	0.06889085
44	0x3e26f32e	0.16303703
45	0x3ce2c468	0.027681544
46	0x3df3ef95	0.11910931
47	0xbdce5d8e	-0.10076438
48	0x3e0d0d9f	0.13774727
49	0xbcacdd00	-0.021101475
50	0xbeb61791	-0.35564855
51	0xbdd88d4a	-0.10573824
52	0xbe3dcdd2	-0.18535545
53	0xbd061895	-0.032738287
54	0x3c49bb0a	0.01231266
55	0x3e1d22e4	0.15345341
56	0x3dce3e15	0.10070435
57	0xbd901c81	-0.07036687
58	0x3d315e39	0.04330275
59	0xbde376b3	-0.111066245
60	0xbd60aa69	-0.054850016
61	0xbc8361c5	-0.016037831
62	0xbeb13214	-0.3460852
63	0xbacf304a	-0.0015807238
64	0x3dfb4761	0.12269474
65	0x3ebb4fbd	0.36584273
66	0x3d9eed2e	0.07760082
67	0x3dcda658	0.10041493
68	0xbe264f9c	-0.16241306
69	0x3d2c5e07	0.04208186
70	0xbe326269	-0.17420353
71	0x3d5a2db7	0.053266253
72	0x3de9b587	0.11411577
73	0x3d64cc56	0.055858932
74	0xbc2a9120	-0.010410577
75	0x3d4c8785	0.04993393
76	0x3db010ed	0.08596978
77	0xbd465d82	-0.04842902
78	0x3d84a4c8	0.06476742
79	0x3ca065f9	0.019579874
80	0x3e8b6a39	0.2722948
81	0x3d9b1b53	0.07573571
82	0xbc2ac841	-0.010423721
83	0x3e16cec7	0.14727317
84	0x3c4f2d57	0.012645087
85	0x3e7af4d2	0.24507454
86	0x3afbb824	0.0019204658
87	0xbe08de27	-0.13365994
88	0xbe91238e	-0.2834744
89	0xbeee0031	-0.4648452
90	0x3d376c54	0.044781044
91	0x3e5874ea	0.21138349
92	0x3d970206	0.07373433
93	0xbdb519f1	-0.088428386
94	0xbdaf0735	-0.085462965
95	0xbd0b2f70	-0.033980787
96	0x3e074e7a	0.1321353
97	0x3e2bf9dd	0.16794534
98	0xbe65e2a1	-0.22449733
99	0xbe9c4590	-0.30521822
100	0xbd88ea08	-0.06685263
101	0xbf2cd07c	-0.6750562
102	0xbd22c589	-0.039739165
103	0xbd7e96cc	-0.06215553
104	0x3e268ea0	0.16265345
105	0xbe33e99f	-0.17569588
106	0xbc9474c9	-0.018122094
107	0x3d59d8c4	0.05318524
108	0x3e03173f	0.12801836
109	0x3e0535ec	0.13008851
110	0x3d3d0221	0.04614461
111	0x3db74a71	0.089497454
112	0x3da323c6	0.079658076
113	0xbe23d38b	-0.15998666
114	0xbdcd388a	-0.100205496
115	0xbd00c8c0	-0.03144145
116	0xbd8df0cb	-0.06930693
117	0xbe48873d	-0.1958284
118	0xbe040cc1	-0.1289549
119	0xbdbcfd28	-0.09227973
120	0xbca8bcec	-0.020597897
121	0x3dc3bd6b	0.09557613
122	0x3c7267c4	0.014795247
123	0xbdf52c5f	-0.11971354
124	0x3d9a6abd	0.0753989
125	0xbe14d5d4	-0.14534694
126	0x3d8f8dd8	0.070094764
127	0x3d33206c	0.04373209
128	0x3d6cff46	0.057860635
129	0x3d4a523b	0.049394827
130	0x3dd0fd1b	0.10204526
131	0x38ff618d	0.00012177518
132	0x3e821552	0.2540689
133	0x3d0b5c18	0.034023374
134	0xbd7af55f	-0.06126916
135	0xbe717f7d	-0.23583789
136	0xbed99646	-0.42497462
137	0x3c856bfe	0.016286846
138	0xbdf41e1d	-0.11919806
139	0x3e330222	0.17481282
140	0xbdb05a3a	-0.08610959
141	0xbe1f1ba1	-0.15537883
142	0x3d980441	0.07422686
143	0xbe6e7b7a	-0.2328929
144	0x3e41d7b3	0.18929939
145	0x3e2b2285	0.16712387
146	0x3d7907dc	0.06079851
147	0xbe00751b	-0.12544672
148	0x3df9075f	0.12159609
149	0xbd90aad0	-0.0706383
150	0xbd643b3b	-0.05572055
151	0xbd9d5b0d	-0.07683382
152	0x3ba1f28d	0.0049422444
153	0x3bbb22b9	0.0057109264
154	0xbd208206	-0.0391865
155	0x3d91440d	0.07093058
156	0xbda65429	-0.08121521
157	0xbdf49b60	-0.11943698
158	0x3c1cfbb4	0.009581495
159	0x3d339cd8	0.04385075
160	0xbbf2b893	-0.007407257
161	0x3d9d2d28	0.076746285
162	0x3ced7d2e	0.028990354
163	0x3d8fb23b	0.07016417
164	0xbe02bf1f	-0.1276822
165	0xbd9b0fe1	-0.07571388
166	0x3d069870	0.03286022
167	0x3cb83ef7	0.022490961
168	0x3e0a6a64	0.13517147
169	0x3e0cecb5	0.13762172
170	0xbd4f58bf	-0.050621744
171	0xbd32d7f8	-0.043662995
172	0xbe001122	-0.12506536
173	0x3dd1a34d	0.10236225
174	0xbbfb4821	-0.0076685105
175	0xbc1e08b0	-0.009645626
176	0x3e37edcf	0.1796181
177	0x3e43ff83	0.19140439
178	0x3d937412	0.07199873
179	0xbe19f8bc	-0.15036291
180	0x3c4b9388	0.012425311
181	0x3d0029b3	0.031289767
182	0x3dc93c44	0.09825948
183	0x3d733b68	0.059382826
184	0xbce69ff1	-0.028152438
185	0xbe08a734	-0.13345033
186	0x3c1e1757	0.009649119
187	0xbe019765	-0.12655409
188	0x3cc0eaf2	0.02354953
189	0x3d7c12b1	0.061541263
190	0x3e07f1c1	0.13275816
191	0x3dec07f9	0.11524958
192	0xbe67bc98	-0.22630537
193	0xbdce70bd	-0.10080097
194	0xbd9c061e	-0.07618354
195	0x3e1ec609	0.15505232
196	0xbedb0692	-0.4277845
197	0xbe20f90d	-0.15720005
198	0x3e83ca9d	0.2574052
199	0xbc371ea9	-0.011176744
200	0xbcb26977	-0.021778805
201	0x3e2c5c86	0.1683217
202	0x3e0c9feb	0.13732879
203	0x3dd1e205	0.10248188
204	0xbe2b5a27	-0.16733609
205	0xbdb40ee6	-0.08791904
206	0x3e90aa14	0.2825476
207	0x3cac35aa	0.021021683
208	0x3e347434	0.17622453
209	0x3db9da99	0.09074897
210	0xbea374d3	-0.31925067
211	0xbeb1ca4a	-0.34724647
212	0xbe2a15ea	-0.16609922
213	0x3e659d8a	0.22423378
214	0xbdafd717	-0.08585947
215	0xbe72d6d8	-0.23714769
216	0xbda07e87	-0.07836633
217	0x3dc40637	0.09571498
218	0xbe4f5859	-0.20248546
219	0x3ca3af28	0.019980982
220	0x3bb260e5	0.0054436796
221	0xbeb8de7f	-0.3610725
222	0xbde6f023	-0.11276271
223	0x3dc86d1a	0.097864345
224	0xbe51c43a	-0.2048501
225	0xbd786ced	-0.060650755
226	0xbe96a6a4	-0.29424012
227	0x3af42218	0.0018625883
228	0xbe4b4042	-0.19848731
229	0xbbaf49aa	-0.0053493576
230	0xbe6d8eb9	-0.23198976
231	0xbebcae71	-0.36851838
232	0xbe5fbed2	-0.21850136
233	0xbcf5d31f	-0.030007897
234	0x3e12da48	0.1434108
235	0x3e2dbaef	0.16965841
236	0x3d8b67e7	0.06806927
237	0x3e4951e5	0.19660147
238	0xbd130b6c	-0.035899565
239	0xbd1b9892	-0.0379873
240	0x3d4109cc	0.047128484
241	0x3e0879c1	0.13327695
242	0xbd363b19	-0.044489954
243	0xbeb8a8ec	-0.36066377
244	0xbedd7649	-0.43254307
245	0xbdc06e93	-0.0939609
246	0x3da245ff	0.07923507
247	0x3e4a1492	0.1973441
248	0xbe2c4935	-0.16824801
249	0x3e1dbcfb	0.15404122
250	0x3c9c96a2	0.019114796
251	0xbc063a12	-0.008192556
252	0x3cd83edd	0.026397163
253	0x3e600172	0.21875551
254	0x3daee26d	0.08539281
255	0xbe88341a	-0.2660225

conv3.bias f4 [32]
0	0xbdc8e1a3	-0.09808662
1	0x3db60255	0.088871635
2	0xbddf6503	-0.10907938
3	0xbd3765cb	-0.04477481
4	0xbdf74727	-0.12074118
5	0x3e32e8d5	0.17471631
6	0xbdd67d3e	-0.10473107
7	0xbb91224c	-0.0044291373
8	0x3dcfe833	0.1015171
9	0x3d8e6d0d	0.069543935
10	0xbc76dfcf	-0.015068009
11	0xbc9cf11e	-0.019157942
12	0xbe022e24	-0.12712914
13	0x3d00881d	0.031379808
14	0x3ce2a7ea	0.027667958
15	0xbd2cf7d0	-0.04222852
16	0xbe6e52a4	-0.23273712
17	0x3d3ad4aa	0.04561297
18	0xbe349072	-0.17633227
19	0xbd861820	-0.0654757
20	0xbdeb72c9	-0.11496503
21	0x3dcd392c	0.1002067
22	0xbdfedef2	-0.12444867
23	0xbd6a5de2	-0.05721844
24	0xbdd64f14	-0.10464302
25	0xbc99bd9b	-0.018767169
26	0xbdaa122c	-0.08304247
27	0xbe4343d5	-0.19068845
28	0x3d943fbf	0.07238721
29	0xbdb9681e	-0.09053062
30	0x3ded8ba4	0.115989
31	0xbae525e2	-0.0017482603

dense.weight f4 [5, 32]
0	0x3e59e743	0.21279626
1	0xbe96bdd8	-0.29441714
2	0xbea8a6c4	-0.32939732
3	0x3de6817d	0.11255167
4	0x3d1d01ef	0.038331922
5	0x3de59a26	0.11211042
6	0x3dffcc05	0.124900855
7	0xbe2fb99a	-0.17160645
8	0xbe4afddd	-0.19823404
9	0x3e56e555	0.2098592
10	0x3eb77a14	0.35835326
11	0xbabf2ccf	-0.0014585498
12	0x3dacfaf4	0.08446303
13	0x3e1b437f	0.15162466
14	0x3da82514	0.08210197
15	0xbe87e8c6	-0.2654478
16	0x3d7963a9	0.06088606
17	0x3ca626ad	0.020282114
18	0xbc36f49a	-0.011166716
19	0x3e4012db	0.18757193
20	0xbf111542	-0.5667306
21	0x3e925f0c	0.2858814
22	0x3ea8d327	0.32973596
23	0xbe97846a	-0.2959321
24	0x3ec4a3da	0.3840626
25	0xbea58fe1	-0.32336333
26	0x3e294fb4	0.1653431
27	0x3de3ac2f	0.11116826
28	0xbcf668ed	-0.03007933
29	0xbe39d6d8	-0.18148363
30	0xbe7790cb	-0.24176328
31	0x3d9a7d57	0.07543438
32	0xbea4f56d	-0.32218495
33	0xbd19845f	-0.037479755
34	0x3f0eba83	0.55753344
35	0xbe5fbf15	-0.21850236
36	0x3e97d2c2	0.29652983
37	0xbea8beb8	-0.32958007
38	0x3e49bac9	0.19700159
39	0x3e04b9f3	0.12961559
40	0x3ca1d2a9	0.01975377
41	0x3e2ded6a	0.16985098
42	0xbd21d5c1	-0.039510492
43	0x3ddb19ce	0.10698281
44	0x3da14632	0.07874717
45	0xbe67b09d	-0.22625966
46	0xbe8fc866	-0.2808258
47	0x3b5270a6	0.00321106
48	0x3e33f864	0.17575222
49	0xbb1dd419	-0.002408272
50	0x3e520c92	0.20512608
51	0xbe969a08	-0.29414392
52	0xbdf92098	-0.1216442
53	0x3dd246ad	0.102673866
54	0xbe49d3e6	-0.19709739
55	0x3eb1315c	0.3460797
56	0xbdb0012a	-0.08593972
57	0x3d7089c9	0.058725152
58	0xbe1872ae	-0.14887497
59	0x3d356af7	0.044291463
60	0xbe822343	-0.25417528
61	0x3df2c1c8	0.11853367
62	0xbe23e5ce	-0.16005632
63	0xbeaf2cdf	-0.3421392
64	0x3c84ce18	0.016211554
65	0x3e9829de	0.29719442
66	0xbe4a8d11	-0.19780375
67	0xbdd91e1e	-0.106014475
68	0xbcdcdc2b	-0.026960453
69	0x3dbce1f7	0.09222787
70	0xbd218a26	-0.03943839
71	0x3e213531	0.15742947
72	0xbccc162a	-0.024912912
73	0xbeabdbe3	-0.33566198
74	0xbe960958	-0.29304004
75	0x3df79160	0.12088275
76	0xbeba27a5	-0.3635837
77	0xbc9658aa	-0.018352825
78	0x3dff78b0	0.12474191
79	0x3ccbac8a	0.024862546
80	0xbdc647b8	-0.09681648
81	0x3e3f5b8c	0.18687266
82	0xbe5df002	-0.21673587
83	0x3e4c582d	0.19955511
84	0x3e23aac1	0.15983106
85	0xbea60443	-0.32425126
86	0xbe8ec39a	-0.27883607
87	0xbe22473d	-0.15847488
88	0xbebfe1c4	-0.37476933
89	0xbdabba99	-0.083852
90	0xbe8849c1	-0.2661877
91	0xbe933ad0	-0.28755808
92	0x3ddb38e4	0.107042104
93	0xbe1e269a	-0.15444413
94	0x3eb4fe2b	0.35350165
95	0x3eab46d9	0.3345249
96	0x3e508bd3	0.20365839
97	0x3ddfc908	0.109270155
98	0x3eb82953	0.35969028
99	0xbeb8ced4	-0.36095297
100	0x3de911ff	0.113803856
101	0x3e48e2f9	0.19617833
102	0x3e00e742	0.12588218
103	0xbccb3797	-0.02480678
104	0x3e0cd6fb	0.13753884
105	0x3eb2063d	0.34770384
106	0x3d8e5328	0.069494545
107	0x3d7ba74d	0.061438847
108	0x3df794e8	0.120889485
109	0xbcc88d73	-0.02448151
110	0x3e624dc9	0.22099985
111	0xbe99ee26	-0.30064505
112	0xbe1e5e02	-0.15465549
113	0xbe702e99	-0.23455276
114	0xbea08e3b	-0.31358513
115	0xbd19d35b	-0.03755508
116	0xbec34038	-0.38134933
117	0x3e857360	0.26064587
118	0xbe785d3b	-0.24254315
119	0x3d6fb32b	0.058520477
120	0x3e5bfa64	0.21482235
121	0xbdaec625	-0.08533887
122	0x3e4c6eeb	0.19964187
123	0x3e2a66a1	0.16640712
124	0x3d0f7055	0.035019238
125	0xbe907b10	-0.2821889
126	0xbd8fb79c	-0.070174426
127	0xbe2afc2a	-0.16697755
128	0xbda4f0ee	-0.08053766
129	0xbe405960	-0.18784094
130	0xbec6eb55	-0.3885142
131	0x3e953735	0.29143682
132	0xbe09064d	-0.1338131
133	0x3d9f3799	0.07774276
134	0x3e3c57c0	0.18392849
135	0xbde90026	-0.113769814
136	0xbe0da8c2	-0.13833907
137	0xbe846ac1	-0.25862697
138	0xbe7ee6b4	-0.24892694
139	0xbd250bcb	-0.04029445
140	0xbe3c04ec	-0.18361253
141	0xbe325e95	-0.17418893
142	0xbe569339	-0.20954598
143	0x3e678a08	0.22611248
144	0x3e811863	0.25213918
145	0x3d2c73d0	0.042102635
146	0x3e49f274	0.19721395
147	0x3e1147c0	0.14187527
148	0x3e9aaaf0	0.3020854
149	0xbde4ebf2	-0.111778155
150	0x3d9d8fbc	0.07693431
151	0x3da24092	0.07922472
152	0xbec170cd	-0.37781373
153	0x3e59f459	0.21284617
154	0xbe86f323	-0.26357374
155	0xbdcc281e	-0.09968589
156	0xbd92c2cf	-0.07166063
157	0x3d044b42	0.032298334
158	0x3e8a82bc	0.27052867
159	0x3e2d909b	0.16949694

dense.bias f4 [5]
0	0xbc8f6b32	-0.01750717
1	0xbc641b53	-0.01392253
2	0xbcba17c0	-0.022716403
3	0x3e4a4279	0.1975192
4	0x3d29254a	0.041295327
