nesy_verification/saved_models/icl/cnn_with_softmax.pt (torch, 26575 bytes, 8 tensors)

conv1.weight f4 [8, 1, 3, 3]
00000000: 9b0b f33c c04b 85be b78c afbe bd84 d13d
00000010: 847b 3dbe 999b 66be 9b48 e63e 65f4 9c3d
00000020: e811 bd3e 5211 6c3b eba0 bc3e 3319 d73e
00000030: 7463 8dbc 0b73 f8bd 70ba bd3c 1cf7 fbbe
00000040: 436b d5be 4029 05bf f728 afbd 9305 bebe
00000050: b7b4 0b3e 19ae 2fbe 1543 9fbe 6813 0d3f
00000060: d4e0 43be 7227 b8be 0d97 c53c 414d 71be
00000070: 7e30 f0bd 5ac7 7cbe b24f febd 261e afbe
00000080: 4788 a7be 77b9 eb3d 3760 a73e ff73 aa3e
00000090: c0bd 36be 19fc 113e 610f 98be 3e33 a9bd
000000a0: 65e3 673e 08b9 873e a7f1 16be bd85 553d
000000b0: d083 903e c3a5 903c 80d7 2dbe cdd6 883e
000000c0: 4b8c 373e 2b82 d93d dfe6 b3bd 2a72 e2bd
000000d0: 4e10 5fbe 996a 4c3e 643c 463e 4576 4d3e
000000e0: c4cf 0bbe ed00 763e 22f8 0bbe 233e 0dbf
000000f0: b094 db3e 60d3 fdbb 1ae1 bcbe 0e8b c7be
00000100: 883e 1d3e c2d1 9c3e 771a 2fbe 9bcf 25bf
00000110: d599 25be ae08 af3e 4c77 c23d f1ac 38bd
0.02966862 -0.26034355 -0.34287044 0.10230396 -0.18504149 -0.22520293 0.4497727 0.07663802
0.36927724 0.0036021066 0.3684152 0.42011413 -0.017259337 -0.12131318 0.02316019 -0.49211967
-0.41683397 -0.5201607 -0.08552735 -0.37113628 0.13643156 -0.17156257 -0.31105867 0.55107737
-0.19128734 -0.35967594 0.024119878 -0.23564626 -0.11727999 -0.24685422 -0.124175444 -0.3420269
-0.3272116 0.11509984 0.32690594 0.33291623 -0.17845821 0.14256324 -0.29699233 -0.08261727
0.22645338 0.26508355 -0.1474062 0.052129496 0.28225565 0.017657166 -0.16976738 0.2672638
0.17924611 0.10620531 -0.087842695 -0.11056931 -0.21783563 0.19962539 0.19358975 0.20064647
-0.13653475 0.2402379 -0.13668874 -0.5517294 0.42886877 -0.007746145 -0.3689049 -0.38973278
0.15355885 0.30628783 -0.1709994 -0.64769906 -0.16171964 0.3418631 0.0949541 -0.045086805

conv1.bias f4 [8]
00000000: 26fd 64be ee86 70be 6b32 4dbe b3e2 613e
00000010: 5adb 5dbe 6ae7 f8bd 44e4 933d 733e e03b
-0.22362193 -0.23488972 -0.20038764 0.22059135 -0.21665707 -0.12153514 0.072212726 0.006843382

conv2.weight f4 [16, 8, 3, 3]
00000000: 91ba acbe 66f9 2abe 7592 883c 5a14 47bb
00000010: 7f50 50be 7502 b2be e67f b83d c3f0 b83d
00000020: 8b17 81bd 7569 483d 938d a13d 545c ae3d
00000030: 4fbb 993d 6372 ad3d 9716 523e a328 abbc
00000040: 4c6c 0dbe 557d 5abd 3565 753e 5eff 263e
00000050: 4f49 bebc c57c c43d 3b92 a1bd 22b1 e43d
00000060: 04cc 08bd d7f9 9bbe e038 86be 432d efbc
00000070: da10 8bbe 5ee4 a1bd 4fe7 d03d c972 38bc
00000080: 1182 8dbe d84f 0b3d 0f84 013e 3e04 c23c
00000090: fde5 01bd 2e0d 6d3d 6cd0 013e 1a4d 71bd
000000a0: 3e43 52be ed64 ec3c 8244 0b3d 0860 ef3c
000000b0: b8dc 81bd c092 d23a f673 183e 46df b33d
000000c0: 4fea 77bd 417e 1dbe 3deb b43c b615 91bd
000000d0: a9a5 7bbd f465 a5bd f8bc 6abe 614c 823c
000000e0: f709 90bd a847 27be d5bc c7bd 5452 8bbe
000000f0: 32ee 0a3d b0db 18bd 45aa 89bc 9aa9 1c3e
00000100: fcc6 493e cac1 ecbd bc31 1f3e 2c36 6a3e
00000110: afb0 ad3e 3837 063e 5b9f c6bd ed43 743d
00000120: 909a a93d 1865 9f3d d3d2 823d 866f 4f3e
00000130: fb6f 8c3d 3569 0e3e 9323 313d 27d8 abbd
00000140: 32c4 39bd c1ab f53c b7b9 543e db04 72be
00000150: dc06 563d cc9c 03bf e930 13bf d8eb 2fbc
00000160: 8bba e6be 01f6 e8be 6f93 babd a71f 25bf
00000170: 8747 2a3e a099 2c3d 79c2 143e d611 013f
00000180: 1168 483d 7a53 f63d e446 ad3e a139 c63d
00000190: 1ccd 483e c903 fdbd 5d56 0b3e 3d42 d3bc
000001a0: 1196 d4be ab89 9d3d d39f e6bd 8b61 c5bd
000001b0: 5dcb bf3c 75f8 14be b911 59bf 2af9 f53d
000001c0: bcc6 fb3d 42d9 cabe a9be f43d da3d 793d
000001d0: 1b95 76be 8a80 00be fc0f 9fbe dd37 19bf
000001e0: d7ef 0d3e b429 3ebc 2188 aabe 09a0 b83d
000001f0: f1fd 76bd 57c1 aabd b612 c8bd 67f2 87bc
00000200: e305 3dbe 7a5d 95bc 019f fb3d 5a04 a13c
00000210: 34db ab3d bd84 523e 0017 5b3e 8ff8 c4bd
00000220: 66cc 9b3e ffd5 523e e767 36be 28eb 7a3d
00000230: 2c7d a8bd d949 80bc 0556 85be dfa7 55be
00000240: bdb9 dcbd 7ff7 45bd c78e 20bd 44d7 043d
00000250: 9c8f 16bd ad52 903a 3dc6 68be 2e0f adbc
00000260: 2441 3bbd 538f 553e 5d46 ce3c 8884 68be
00000270: b541 83bd d68e 00be 77a1 84bd 0f4f 91bd
00000280: 225f 53be 3a69 4cbe f21c 87be 06aa 8ebb
00000290: 0b84 4ebe 8105 6fbd 8633 1dbd ed42 7bbd
000002a0: 1d2e 283e be74 563e 7693 a1be 491d b53d
000002b0: a1a8 a83d d0b2 0d3e bfee fb3d 5647 543d
000002c0: a0be 8f3d 2bba 4ebe defd 36be 92c6 4cbc
000002d0: f739 253d c81d 39bd a8c0 f93d 99b6 203e
000002e0: deb8 503d 9232 4a3c 9ae1 603e 8a92 5bbc
000002f0: 66fa b0bc 71bc 3abd cc89 aabc 0b26 223d
00000300: 1d3e e239 4ec2 b73b d64e fe3d 6090 6b3d
00000310: 498a 1d3e ccaa b33d d2fe c0bd a1ba 0dbe
00000320: dadf a0bd 4aba 67be debf 01be 530b 943c
00000330: 0118 133e d0cc 583d a14c b4bc 85a9 3c3e
00000340: 79cd 6a3e 043b 083e d84a 7fbd d568 adbe
00000350: b1a0 a2be 12f1 3dbe 67af 9ebe 4b1d 373c
00000360: 2545 30bd 39f6 a1bc b3e3 b3bd bedb 5ebe
00000370: b0ad 09be f5ba 3b3d a42b af3d b50b e1bd
00000380: 4cd2 003d ebb6 93bd 3e66 34be 1b2b bf3d
00000390: a68c 143e d172 9a3d ea07 793e 2508 0e3e
000003a0: ba82 673e bb8a 883e fc64 96bd a3ff 093c
000003b0: 4398 ed3d 8b59 5c3e eb07 b93d 67c7 48bc
000003c0: bc92 40be 788b b5bd 45df 42be 8058 61bd
000003d0: 9053 a13d e0de 543d b345 703b c7e7 563d
000003e0: ad14 813d 791e 0ebd 6ab9 403d 7c78 133e
000003f0: 0c13 173d e69e 14bc 154b d53d af3c f7bd
-0.3373609 -0.166967 0.016671399 -0.003037712 -0.20343207 -0.347675 0.0900877 0.09030297
-0.063033186 0.048928697 0.07888331 0.08513704 0.075064294 0.08469083 0.2051643 -0.0208934
-0.13810843 -0.053342182 0.23964389 0.16308352 -0.023228316 0.095941104 -0.078892194 0.11166598
-0.03339769 -0.3046405 -0.26215267 -0.029196387 -0.27161294 -0.07904886 0.102003686 -0.011257836
-0.27638295 0.03401169 0.12648033 0.023683663 -0.031713475 0.057873897 0.12677163 -0.05891142
-0.20533463 0.028856719 0.03400088 0.029220596 -0.06340927 0.0016065463 0.14887986 0.087828204
-0.06052619 -0.15380193 0.022084827 -0.07084219 -0.061437283 -0.08076087 -0.22923648 0.01590556
-0.07033151 -0.16335928 -0.09752814 -0.2721125 0.033918567 -0.037318885 -0.016804824 0.15299073
0.19704813 -0.115604 0.15546316 0.22872227 0.3392386 0.13107002 -0.096983634 0.05963509
0.082814336 0.07782954 0.06387868 0.20257387 0.06857296 0.13907321 0.043246817 -0.08390837
-0.045353122 0.029989125 0.2077397 -0.23634665 0.052252635 -0.5141113 -0.57496506 -0.010737382
-0.45064196 -0.45500186 -0.09110152 -0.6450142 0.16628848 0.042138696 0.1452731 0.5041784
0.04892737 0.12027641 0.33843148 0.096789606 0.19609493 -0.123542376 0.13607164 -0.02578842
-0.41520742 0.07692274 -0.11260953 -0.096377455 0.0234124 -0.14547904 -0.8479267 0.12010415
0.12293765 -0.3961888 0.11950428 0.060850002 -0.24080317 -0.12549034 -0.31066883 -0.59850866
0.13861023 -0.0116066225 -0.33306983 0.09014899 -0.06030077 -0.08337658 -0.09769194 -0.016595079
-0.18459277 -0.01823305 0.12286187 0.019655395 0.08391419 0.20558448 0.21395493 -0.09617721
0.3042938 0.20589446 -0.17813073 0.06125942 -0.08227 -0.015660213 -0.2604219 -0.20864819
-0.10777614 -0.048331734 -0.039198663 0.032431856 -0.03675805 0.0011010967 -0.22731872 -0.021125402
-0.04571642 0.20855455 0.025180036 -0.22706807 -0.06409017 -0.12554488 -0.064761095 -0.07095157
-0.20641759 -0.19962016 -0.2638927 -0.0043537645 -0.20167558 -0.05835486 -0.038379215 -0.061343122
0.16423841 0.20942971 -0.31557816 0.08843476 0.082352884 0.13837743 0.123013966 0.051825844
0.07018781 -0.20188205 -0.1787028 -0.012498515 0.040338483 -0.045194417 0.121949494 0.15694655
0.050957553 0.012341158 0.2196106 -0.013401637 -0.021603774 -0.045589868 -0.02081766 0.03958706
0.00043152357 0.0056078797 0.124173805 0.057510734 0.15384783 0.08772811 -0.09423603 -0.13840725
-0.07855196 -0.22629657 -0.12670848 0.018071806 0.14364626 0.0529297 -0.022009196 0.18424042
0.22929944 0.13303763 -0.062327236 -0.33869043 -0.31763223 -0.18548992 -0.30993196 0.011176418
-0.04303469 -0.019770728 -0.087836646 -0.21763512 -0.13445163 0.045832593 0.08553246 -0.10988561
0.031450555 -0.07212623 -0.17617127 0.093343936 0.14506778 0.07541431 0.24319425 0.13870294
0.22608462 0.26668343 -0.0734348 0.008422765 0.11601307 0.21518533 0.09034713 -0.0122545725
-0.18805975 -0.08864492 -0.19030483 -0.05501604 0.078772664 0.051970363 0.0036662638 0.052467134
0.06302772 -0.03469703 0.047051825 0.1440143 0.0368834 -0.009071087 0.104147114 -0.12072121

conv2.bias f4 [16]
00000000: 8ec2 27be 0619 353d bb63 00be eaa9 71be
00000010: b168 30be 28ab 39be c73c bbbd 504b 0dbe
00000020: dac0 8ebd 35d2 cfbd 2032 203d 49d5 e3bc
00000030: 7117 e4bd d2b0 ae3c 3c48 fbbd 5c53 70be
-0.1638281 0.044213317 -0.12538044 -0.23599973 -0.17227437 -0.18131697 -0.09142452 -0.1379826
-0.06970377 -0.10147516 0.039110303 -0.027811663 -0.111372836 0.021324549 -0.12269637 -0.23469299

conv3.weight f4 [32, 16, 3, 3]
00000000: 8069 69bd 5e11 223e abd1 08be ebdf 88bc
00000010: 0c3c 30be cd23 c8bd a660 e0bc ac71 ab3d
00000020: ca69 a7bd 7ce7 73bd dcff dabd 4554 0c3c
00000030: bdbf 4c3e 8702 13bd 3f35 c73d b8ba 993e
00000040: d9a0 63bd 2e85 d63c 7929 973d a190 fe3b
00000050: fb2f 68bd aae9 923d 90c8 2a3e 2124 233d
00000060: 1a44 5b3d ed1d 29be 91eb 78bc 6f49 c93d
00000070: 5f2f aebd d037 57be a80f a3bd c13b aa3d
00000080: 6104 62be ef69 22bd a305 66bd d8a3 b23d
00000090: 89da c5bd 0a27 b3be 1fa9 2fbe ca75 97be
000000a0: 869c 0ebe 59a6 973d 1cd5 9c3e 5121 fdbd
000000b0: e612 65bb 753e 90bd ded6 0a3e 1ec4 c2bd
000000c0: 7c7f f43c 49c1 a43d 45a3 43bd 2024 0fbe
000000d0: 7741 7fbe 9d78 8e3c f689 043e 848e ed3c
000000e0: 0228 ebbd e2ee d33c d92c 093e 86eb 24be
000000f0: b24c bcbd 44a8 aabd 8806 7bbd 9cf8 4c3e
00000100: 0add 173c 2f67 88bc aa44 183d de2c ccbe
00000110: 3b26 1dbe 0954 4f3c 2dd2 783e 711c c3bc
00000120: 35cd e63d 88bb 7e3c bcb3 5c3e 72c4 cc3d
00000130: 8c16 60be 30ff c4bd 229a ad3d 71ee 50bd
00000140: 5e4a 8bbd f0cc b7bd 0a09 cbbd 5088 883c
00000150: 204f cd3d 27ea d23d 324f 16bd c8ff 213d
00000160: a605 31be dee6 adbc 8537 8abd c81a 94be
00000170: b9d7 4cbe 4d11 e6bd cd52 353d 5cca 403e
00000180: 2d8c 2fbe 95a0 d4bd ec84 4bbe e688 eabc
00000190: f575 60bd 372a f7bd 7aa0 f13d 90a4 45bd
000001a0: ee34 733c da2e 2ebe 634d e0bd 1e3d 033d
000001b0: d524 193e 2f04 2abe c385 033c 7a95 d13d
000001c0: f97a d7bd 6fa6 74bd c75a 71be f57e 38be
000001d0: 8dcc 41be 54ea 883e 5c04 c53d b133 c53d
000001e0: 85ae fa3d b7bb 1b3e 7b64 3cbd c5db d4bd
000001f0: 726c 58be 9fc2 0d3e 3efe 7fbe 2de8 2d3d
00000200: ec9c 90bb cab9 a3bd c8e6 943d 0261 44be
00000210: bb59 3cbe 14e6 dc3d 325b 81bd d85d 3ebb
00000220: 220c 5c3e de03 6cbd 2e90 8e3d 1545 fdbb
00000230: 8076 58be 0d3b ce3c 3228 80bd f53a dc3d
00000240: ad10 323d 61d2 eb3d 5285 0a3e aea2 79bc
00000250: 970e b4bc 7290 f1bc 909d d43c a802 a93d
00000260: b35a 1c3e a55f 9c3c a813 11be 38be 17be
00000270: 847c a83c 87f2 33bd 8040 883d 04dc 9e3e
00000280: fc6d 873e e380 c33e 1249 dfbd 05d8 b03d
00000290: 5f48 923d a449 e4be a8ce c03d 9eea dc3d
000002a0: 7e0f 4ebe a9e0 afbd d313 81be 9132 353e
000002b0: fde1 be3d d19a f63d 7fd1 133e 4324 e63d
000002c0: 4276 513e ea28 4b3d 4717 353e 3e81 613d
000002d0: f0b1 07be 4d01 85be 9972 bcbd 3e8b 373c
000002e0: d06b 65be a3f7 a1bd c3fc 633e df21 4ebd
000002f0: 00b9 27bd 0a9d 00bd 3f0f 013e 6738 733d
00000300: 3a77 a3bd 40f3 983d 4830 5cbd a0cd 03be
00000310: 8e8d eebd e8f6 e73d ccee 103e 70bd e83d
00000320: d4ba 02be da30 9d3d 3456 c83d de6f 70bd
00000330: d837 483d ee54 2b3d 474f c0bd 01a8 803d
00000340: 7c57 293e bac8 0abd b3a9 ab3d 75dd 89bd
00000350: 582a 28be 1662 a23d 7fe1 2a3e bb8c 053d
00000360: eece d63d cdbe aebe fac1 dcbd 5d79 8cbe
00000370: e5d6 cfbe 6cff e4bd cfd9 bcbe c87f fd3c
00000380: f141 523e d7bf 76bd 73c1 c2bd 3362 e0be
00000390: 5994 213d 8f63 abbd f8f5 08be 5aa6 a33e
000003a0: acb8 f7bc 5940 debd 808f 57bd 6597 ebbd
000003b0: 1f25 29be 611f 97bd 2009 323e 6bc7 c9bc
000003c0: 4ec2 f03c 4002 99be 66a9 d4bd 6ed1 323d
000003d0: 4898 3ebe a925 fabd 0ae0 10be a833 6ebd
000003e0: de12 00bd 588b b8be ae4d 42bd 585e adbd
000003f0: 005d aa3d a897 72bc e62f c6bd 3dd2 d2bc
-0.05698538 0.15826938 -0.13361232 -0.016708335 -0.17210406 -0.097724535 -0.027389836 0.083712906
-0.081744745 -0.059546933 -0.106933326 0.008565013 0.19995017 -0.035891082 0.09726953 0.30025268
-0.05557332 0.026186552 0.07380957 0.007768706 -0.056686383 0.07173474 0.16678071 0.039829377
0.053531744 -0.16515322 -0.015192882 0.098284595 -0.08505129 -0.21017385 -0.079619706 0.083121784
-0.22071983 -0.039651807 -0.05615772 0.08722657 -0.09660823 -0.34990722 -0.17154358 -0.29582053
-0.13926896 0.07404775 0.3063134 -0.1235987 -0.0034953891 -0.07043163 0.13558528 -0.09510063
0.029845946 0.08044679 -0.047763128 -0.13978624 -0.24927317 0.017391497 0.12943253 0.02899862
-0.1148224 0.025870744 0.13396014 -0.1610547 -0.09194316 -0.08332875 -0.061285526 0.20016712
0.009269008 -0.016650764 0.03717486 -0.3987798 -0.15346615 0.012654313 0.24298926 -0.023817273
0.11269609 0.015547641 0.21552938 0.099984065 -0.21883601 -0.09618986 0.08476664 -0.051008645
-0.06801294 -0.089746356 -0.099138334 0.016666561 0.100248575 0.10298567 -0.03669662 0.039550573
-0.17287311 -0.02122825 -0.06748871 -0.28926682 -0.20004167 -0.112337686 0.044268418 0.18827194
-0.17143317 -0.10382191 -0.19874924 -0.028629731 -0.054799993 -0.12068599 0.117981866 -0.048252642
0.014844162 -0.1701006 -0.1095226 0.032040708 0.14955457 -0.16603158 0.008027497 0.102335885
-0.10521502 -0.059729036 -0.23569785 -0.1801718 -0.18925686 0.26741278 0.09619972 0.09629
0.12240318 0.15208326 -0.045994263 -0.1039348 -0.21135119 0.13843773 -0.2499933 0.04245775
-0.004413238 -0.07994421 0.072705805 -0.1917763 -0.18393604 0.107860714 -0.06316222 -0.0029047634
0.21489003 -0.057620876 0.06961094 -0.0077291825 -0.21138954 0.025174642 -0.06257667 0.10753433
0.043472935 0.11514736 0.1352742 -0.01523654 -0.021979613 -0.029487822 0.025954038 0.0825246
0.15268974 0.019088576 -0.14167655 -0.14818656 0.020567186 -0.043932464 0.066529274 0.31027234
0.264511 0.3818427 -0.10902609 0.086349525 0.0714271 -0.44587433 0.094144166 0.10786937
-0.20123097 -0.085877724 -0.25210437 0.17695071 0.093204476 0.12041248 0.14435385 0.11237385
0.20455268 0.049599566 0.17684661 0.055054896 -0.13251472 -0.25977555 -0.09201545 0.0112026315
-0.22404408 -0.07908561 0.2226439 -0.05032527 -0.040947914 -0.031399764 0.12603472 0.05937996
-0.07981725 0.07468271 -0.053756982 -0.12871408 -0.11648093 0.113263905 0.14153594 0.11364257
-0.12766582 0.07675333 0.09782067 -0.058700435 0.04888138 0.041829042 -0.09390121 0.06282044
0.16537279 -0.033882834 0.08381977 -0.06731693 -0.16422403 0.07928865 0.16687582 0.032604914
0.104886875 -0.34129944 -0.107791856 -0.27436343 -0.4059364 -0.1118153 -0.36884925 0.03094472
0.20532967 -0.060241546 -0.09509554 -0.4382492 0.039448116 -0.08368599 -0.1337508 0.31962854
-0.030239426 -0.10852117 -0.052627087 -0.115034856 -0.16518067 -0.07379032 0.17386293 -0.024631223
0.029389527 -0.2988453 -0.10383873 0.04365676 -0.18612778 -0.12214214 -0.14147964 -0.058154732
-0.031267993 -0.3604381 -0.047437362 -0.0846526 0.083185196 -0.0148066655 -0.09677105 -0.025735015

conv3.bias f4 [32]
00000000: 052d e8bd 1858 92bd 62fc 233e 417a e13b
00000010: c005 a43c 124e e9bd a864 25bd 806f aebd
00000020: e384 6fbd 247d 99bd 8ce1 c7bd 8a03 093e
00000030: d626 02be 19e6 89bb 93cb 13be 07eb 66bd
00000040: 77c9 093d ebd9 043c 6740 b5bd e8df b7bd
00000050: 2502 00be f50c a2bd eefd 22be 0b8f 603c
00000060: 61c5 913c c2ff f03d eff1 f7bc b4ca 203d
00000070: 3cd1 d13c 2be0 6bbc 1682 8fbd 150b 6dbd
-0.11336712 -0.07145709 0.16014245 0.006881029 0.020022273 -0.11391844 -0.040379196 -0.08517361
-0.05847634 -0.07494572 -0.097598165 0.13380256 -0.12710127 -0.004208338 -0.14433126 -0.056376483
0.033639397 0.008108596 -0.088501744 -0.089782536 -0.12500818 -0.079126276 -0.15917179 0.013705979
0.017794313 0.11767532 -0.03026673 0.039255813 0.025612466 -0.0143967075 -0.07007234 -0.057871897

dense.weight f4 [5, 32]
00000000: 8472 26b8 5a63 0bbd d2f2 f43d 3727 4e3e
00000010: 9209 0d3e cd74 80be fd91 a8be 941f 813e
00000020: 3873 3e3e 658e 883e da11 babc ae9e 4bbe
00000030: bc56 9a3d 8983 aa3e 023d 8abd 52bf db3e
00000040: 9330 27be b1ab 38be 498c 833e e597 f8bb
00000050: d3a8 c43c 29f5 d3bd 5466 3f3e 84d0 a53d
00000060: 12c3 4b3e ca35 2abd 0d4b 62be 2c29 9f3e
00000070: 964a f2be 6944 05be 2bd0 523e 1b1c 0cbe
00000080: 8bf1 8c3e 5d6b ba3e 1a0f 8ebe e48f 08be
00000090: 2072 db3d e481 543e b816 113e 5dda 593d
000000a0: 69dc 18be c8b3 6d3d 3203 6bbe 7687 95bd
000000b0: 8743 8cbd 9bd3 07bf 224b 77be 5cf2 25be
000000c0: 9bb5 42bd 5c6f b8bd 2d33 813e 14df 8ebd
000000d0: 1a9d 96bd 2234 2d3d 177d 1c3e 49fe 9f3d
000000e0: 86ec 48be 9cdd 4cbe 2664 6f3e 66cb a63c
000000f0: e5ec 553e bc2b 513e b12b b1be 08ff 9ebe
00000100: db1a 92be 1bfd 3fbe 0807 363e 56e1 433e
00000110: f8d6 8dbd 65f3 94be 9832 023e 8d44 d3bd
00000120: eacc 8b3d cd3a 40be 10fe 5d3e ea78 e63e
00000130: 5270 65be 0c30 2ebc 0f22 093e 1448 75be
00000140: 58ab 3c3c beaf 893d 131d 96be caf6 903e
00000150: d2b2 45bd 8fc1 c83d 44a9 90be c324 17be
00000160: 5fc6 853e e0fe c03e 9eb6 d1bd e645 88be
00000170: 3ba5 7b3d 1c76 143e 1788 54bb 355a 8c3e
00000180: 3fe8 6abd 94c9 8e3c cc8b 563e 5675 463e
00000190: b980 1c3d 2e03 7dbe 09e4 51be 314a 91be
000001a0: 013e 8fbd d780 583e 0a71 d0bd e1be 223e
000001b0: 8f92 79bd 4bb8 9abe 00d4 5abb 768a 1abd
000001c0: 1504 b53e 5380 6bbd ecf1 ed3e ca83 2abe
000001d0: fb6a f1bd 2873 67bc a573 bdbe deee af3d
000001e0: b9cb 073e 83ac dd3e 00ba 593d 25b0 2c3e
000001f0: 9c66 b63d 4317 6cbe 7e62 223e ef95 cdbe
00000200: 621b 133e 3b4f 813e 2850 42be 512a 31bd
00000210: 0d55 fb3c 564f 5b3d 949d 953e 9b71 953e
00000220: f1bf a6bd 0af4 3dbe b9ee 453e 855b 34be
00000230: b1f9 2f3e 89b6 0e3e ce09 2c3e 76c2 63be
00000240: 0e68 aebe 72ac 163e 3bf1 d4be b1ce 0c3e
00000250: bc1c a6bd 7c7f 253e 3904 063e e406 09be
00000260: b08b 20bd 135a e7be e386 193e 6018 82be
00000270: e6b5 cebd 30a1 3e3e f411 dbbc 5933 713e
-3.9684135e-05 -0.034030296 0.11960377 0.20132147 0.13773182 -0.25089112 -0.3292388 0.25219405
0.1859864 0.26671138 -0.02271359 -0.1988475 0.075360745 0.33303478 -0.067499176 0.42919403
-0.16327123 -0.18034245 0.25692967 -0.0075864666 0.024006283 -0.10349495 0.18691379 0.08096412
0.19898632 -0.041555203 -0.22098942 0.310861 -0.4732253 -0.13014378 0.20587222 -0.13682596
0.27528033 0.36410037 -0.27745897 -0.1333614 0.10715127 0.20752674 0.14168823 0.053186763
-0.1492783 0.05803278 -0.22950438 -0.07301228 -0.06848817 -0.5305726 -0.24149755 -0.16205734
-0.047536474 -0.09005615 0.25234357 -0.069761425 -0.073541835 0.042286046 0.15282093 0.07812173
-0.19621477 -0.20006412 0.23378047 0.02036066 0.2089115 0.2042684 -0.34603646 -0.31053948
-0.28536114 -0.18748896 0.1777612 0.19128928 -0.06925768 -0.29091945 0.12714612 -0.103158094
0.06826194 -0.1877243 0.21678948 0.45014125 -0.22406128 -0.010631572 0.13391899 -0.23953277
0.011515461 0.06722973 -0.29319057 0.28313285 -0.04826624 0.09802543 -0.2825414 -0.14760117
0.26127908 0.37694454 -0.102399096 -0.26615828 0.061436873 0.1449818 -0.0032429749 0.27412573
-0.057350393 0.017430104 0.20951766 0.19380698 0.038208697 -0.24708244 -0.20497145 -0.28376916
-0.06994248 0.21142898 -0.101778105 0.15893127 -0.060930785 -0.3021873 -0.0033390522 -0.037729703
0.35354677 -0.057495426 0.46473634 -0.16651836 -0.11787983 -0.0141265765 -0.37002292 0.08590482
0.13261308 0.43295678 0.0531559 0.16864069 0.0890629 -0.23055749 0.15857884 -0.40153453
0.14365914 0.2525576 -0.1897589 -0.043253247 0.030680204 0.053542458 0.29221785 0.29188237
-0.08142079 -0.18550125 0.19329347 -0.17613037 0.17185093 0.13936819 0.16800615 -0.2224215
-0.34063762 0.1471422 -0.41590294 0.13750722 -0.081109494 0.16161913 0.13087548 -0.13381535
-0.039195716 -0.4518591 0.14992861 -0.25409222 -0.10093288 0.18616176 -0.02674196 0.23554744

dense.bias f4 [5]
00000000: 2ef3 69be 3eff 62bd 2629 513e 1f95 813d
00000010: 112f 4abe
-0.22846672 -0.0554192 0.20425853 0.06327271 -0.19744517
