nesy_verification/saved_models/icl/cnn_with_no_softmax.pt (torch, 26575 bytes, 8 tensors)

conv1.weight f4 [8, 1, 3, 3]
0.06805651 0.051472306 -0.06586506 0.16732374 0.3176137 -0.058652643 0.0027884985 -0.23952593
0.2706664 0.09766692 0.1981303 0.38289467 -0.12477852 -0.061432697 -0.1141586 -0.3515539
-0.2677971 -0.34719634 0.33994314 -0.42016578 -0.1993284 -0.38004503 -0.4516645 0.23128437
-0.2441624 0.28455588 0.3389991 0.041890565 0.022799391 0.10026438 -0.039762564 0.18166082
-0.1849881 -0.4324833 0.1969259 0.081827395 -0.048884317 0.029864928 0.0967113 0.28519723
0.2855758 -0.1644447 -0.039966658 0.022371233 -0.5773045 0.22266097 -0.40934646 -0.29649252
0.3112744 0.17689449 0.17359507 -0.33292067 0.25989708 -0.13116334 0.0033427305 -0.20070812
-0.14556442 -0.12924813 0.36954266 0.34248915 0.119090326 -0.20057572 -0.21168746 -0.2603695
-0.35659537 0.18887551 -0.26595068 0.0042261244 0.41703686 -0.56538725 -0.35374075 0.28032187
00000000: 3661 8b3d a0d4 523d 43e4 86bd ea56 2b3e
00000010: 439e a23e c13d 70bd 3ebf 363b 4946 75be
00000020: c994 8a3e 9805 c83d abe2 4a3e c50a c43e
00000030: e18b ffbd daa0 7bbd fccb e9bd dffe b3be
00000040: b41c 89be b8c3 b1be 070d ae3e f81f d7be
00000050: be1c 4cbe 4395 c2be 9240 e7be cfd5 6c3e
00000060: b505 7abe 4fb1 913e 4a91 ad3e 7195 2b3d
00000070: cac5 ba3c 6957 cd3d 12de 22bd 4b05 3a3e
00000080: 856d 3dbe 736e ddbe f1a6 493e 1f95 a73d
00000090: ec3a 48bd 4ba7 f43c 9310 c63d 5f05 923e
000000a0: fe36 923e 3164 28be 14b4 23bd e043 b73c
000000b0: 3aca 13bf 3d01 643e dc95 d1be decd 97be
000000c0: 5c5f 9f3e d423 353e e8c2 313e 9474 aabe
000000d0: 3b11 853e af4f 06be b611 5b3b 6e86 4dbe
000000e0: d70e 15be 9f59 04be b234 bd3e bd5a af3e
000000f0: a1e5 f33d b963 4dbe 99c4 58be 274f 85be
00000100: ab93 b6be 9568 413e b02a 88be 4d7b 8a3b
00000110: db85 d53e 38bd 10bf 821d b5be 5986 8f3e

conv1.bias f4 [8]
-0.26848274 0.29806045 -0.24052861 -0.32882875 0.039525423 0.11358835 -0.00056128553 -0.085195534
00000000: 9276 89be 619b 983e 224d 76be 3e5c a8be
00000010: 69e5 213d 02a1 e83d 3c23 13ba ff7a aebd

conv2.weight f4 [16, 8, 3, 3]
0.09016021 -0.09493988 -0.049618077 0.20163406 -0.057128236 -0.07414817 0.11431896 -0.1885205
-0.032699805 -0.2237195 -0.2937858 -0.21732153 0.012531937 -0.42389658 -0.40475702 -0.09259144
-0.11373549 -0.26856267 -0.16132373 -0.28698272 0.14477375 0.026788965 0.04202734 0.25642174
-0.017248014 0.14810115 0.09321452 0.13701326 -0.32501483 -0.16050248 0.056113113 -0.3331161
-0.04459704 -0.042806096 -0.30895597 -0.02692115 -0.07753799 -0.017324159 -0.031488147 0.09094159
0.19791535 -0.10893189 0.414565 0.03837909 -0.04722451 -0.041138932 0.0038358723 -0.1373597
0.084191605 0.03959741 0.12398923 -0.15607291 -0.042246133 -0.07726788 0.16385366 -0.383141
-0.30972433 -0.09298432 -0.060622014 -0.028960537 -0.053564135 -0.24979347 -0.19469012 0.023779815
-0.16211024 0.08503989 -0.030341847 0.16273025 0.08480187 -0.02787411 0.14543433 0.0930579
-0.17690893 0.062767155 -0.050339125 0.06756256 0.09220621 -0.07889425 0.11311123 0.071309246
-0.19887331 -0.04396036 -0.036895465 -0.073321894 -0.049757242 -0.14447564 0.021497838 -0.4042932
-0.46181503 -0.33231065 0.120184734 0.15127303 0.065202266 0.24545878 0.17416306 0.052013434
0.119489126 0.003376547 -0.0055190423 -0.09011851 -0.10078052 -0.027916834 -0.103829436 -0.008937411
-0.09149485 0.08144724 -0.0028895864 0.11083951 -0.23714752 -0.0053951656 0.07197628 0.044904165
0.12111265 0.18863907 -0.08754438 -0.09045693 -0.06967708 0.014266524 0.007444921 -0.065453306
-0.17039342 0.012862932 0.09499977 -0.14629531 -0.15571009 -0.024898224 0.18683478 0.11473924
0.07074494 0.07900091 0.11175386 -0.04622239 -0.045929372 -0.07693185 -0.024857644 -0.029618157
-0.0814623 -0.22888969 -0.061451357 -0.0044823475 0.053695176 0.07902198 -0.019460043 0.08296925
-0.027696641 -0.05120432 0.17486192 0.11448124 -0.047829762 0.011986902 0.07562431 0.05413199
-0.14604178 -0.0074783005 0.14262442 -0.0030895001 0.0044085393 -0.098807 0.13383457 0.013753499
0.16011295 0.09462567 0.1303658 0.13127026 -0.23351483 0.096367426 -0.2579474 -0.458271
-0.22674417 -0.34650663 -0.39746392 0.030016877 -0.04158344 0.07906344 0.07459368 0.044233736
-0.10502994 0.13879569 0.0499371 -0.106148735 0.12653105 -0.007911358 0.11462759 -0.23455587
-0.16993175 0.035801835 0.089998275 0.030361883 -0.22352223 -0.028115798 -0.019865593 -0.32342783
-0.012091184 -0.04475029 -0.047632754 0.0039783176 0.036554735 0.107835844 0.09882872 0.08159979
0.034858197 -0.23691937 0.03286327 0.04675695 0.037681792 -0.021490525 -0.1062133 0.13734739
-0.035044946 -0.27024534 -0.032221664 -0.15830931 -0.4427406 0.06158234 -0.016836703 -0.49309868
0.016408129 -0.008298695 0.07535875 -0.069660604 0.035861034 0.16203475 -0.019045953 0.019594941
0.12919037 0.09481237 0.1783235 0.035392396 0.015293808 -0.027024576 -0.11160857 0.14406545
0.05592139 -0.29333547 0.23102105 -0.013849462 -0.22469653 0.0101297125 0.029737368 0.054639094
0.084588155 0.12717149 -0.17326567 -0.12086869 0.11408112 0.013879052 -0.03272433 0.051327605
0.032487106 -0.052408244 -0.05186662 0.019759523 0.05595175 -0.08084033 -0.11637741 -0.33960733
00000000: eba5 b83d d76f c2bd 533c 4bbd 2979 4e3e
00000010: 4cff 69bd ffda 97bd 0f20 ea3d 850b 41be
00000020: 3bf0 05bd b916 65be 186b 96be 8989 5ebe
00000030: c152 4d3c f908 d9be 503c cfbe 95a0 bdbd
00000040: 27ee e8bd 0c81 89be 0c32 25be 66ef 92be
00000050: 923f 143e 8874 db3c dc24 2c3d b649 833e
00000060: b54b 8dbc d4a7 173e 41e7 be3d 344d 0c3e
00000070: 5868 a6be c35a 24be ddd6 653d 328e aabe
00000080: 63ab 36bd 7255 2fbd 7a2f 9ebe be89 dcbc
00000090: 3dcc 9ebd 65eb 8dbc b7f9 00bd 963f ba3d
000000a0: 52aa 4a3e af17 dfbd dd41 d43e 6533 1d3d
000000b0: 7d6e 41bd 4c81 28bd 4263 7b3b 05a8 0cbe
000000c0: a66c ac3d e530 223d 11ee fd3d 94d1 1fbe
000000d0: 480a 2dbd 9f3e 9ebd 41c9 273e 0f2b c4be
000000e0: 3094 9ebe 906e bebd ca4e 78bd a63e edbc
000000f0: 1166 5bbd dcc9 7fbe d95c 47be e3cd c23c
00000100: 3a00 26be 6529 ae3d 778f f8bc c2a2 263e
00000110: 9aac ad3d 3f58 e4bc bdec 143e 2495 be3d
00000120: 9d27 35be 118c 803d 6630 4ebd 3d5e 8a3d
00000130: 9cd6 bc3d 4f93 a1bd dca6 e73d 950a 923d
00000140: 72a5 4bbe c70f 34bd b31f 17bd ca29 96bd
00000150: 40ce 4bbd 6cf1 13be 3c1c b03c 85ff cebe
00000160: 0573 ecbe 9f24 aabe 6a23 f63d 51e7 1a3e
00000170: c488 853d 8c59 7b3e cd57 323e 0a0c 553d
00000180: b7b6 f43d 0f49 5d3b 15d9 b4bb 0e90 b8bd
00000190: 0466 cebd d8b1 e4bc 87a4 d4bd 386e 12bc
000001a0: a761 bbbd d0cd a63d 375f 3dbb d3ff e23d
000001b0: cdd6 72be eec9 b0bb 4d68 933d 6eed 373d
000001c0: e909 f83d 9a2a 413e 784a b3bd 7c41 b9bd
000001d0: dbb2 8ebd 24be 693c 86f4 f33b 620c 86bd
000001e0: 9d7b 2ebe 0cbf 523c 3d8f c23d 70ce 15be
000001f0: 7772 1fbe 5cf7 cbbc 9e51 3f3e 68fc ea3d
00000200: b9e2 903d 3bcb a13d 35df e43d b053 3dbd
00000210: 7020 3cbd 728e 9dbd 42a2 cbbc c7a1 f2bc
00000220: b5d5 a6bd 0f62 6abe 6bb4 7bbd a8e0 92bb
00000230: 79ef 5b3d 47d6 a13d ab6a 9fbc c8eb a93d
00000240: 11e4 e2bc 9fbb 51bd 010f 333e 2475 ea3d
00000250: 24e9 43bd b664 443c ebe0 9a3d 81b9 5d3d
00000260: fa8b 15be 880c f5bb 230c 123e 3679 4abb
00000270: 8275 903b 535b cabd ee0b 093e 5b56 613c
00000280: a6f4 233e 1acb c13d 9d7e 053e b66b 063e
00000290: 831e 6fbe 495c c53d ae11 84be 7fa2 eabe
000002a0: a02f 68be 5169 b1be 6480 cbbe f4e5 f53c
000002b0: 6653 2abd 03ec a13d 92c4 983d 6f2e 353d
000002c0: f019 d7bd 7520 0e3e d88a 4c3d 8264 d9bd
000002d0: 5b91 013e a49e 01bc dfc1 ea3d 6a2f 70be
000002e0: 9702 2ebe f2a4 123d 0451 b83d 7cb9 f83c
000002f0: 03e3 64be 1a53 e6bc 2bbd a2bc 5598 a5be
00000300: 1a1a 46bc 154c 37bd 901a 43bd 8c5c 823b
00000310: 6bba 153d 0ad9 dc3d b666 ca3d ca1d a73d
00000320: 78c7 0e3d fe9a 72be a39b 063d 3784 3f3d
00000330: 3958 1a3d e60c b0bc 5c86 d9bd cba4 0c3e
00000340: 4a8b 0fbd 995d 8abe ddfa 03bd d61b 22be
00000350: e5ae e2be c43d 7c3d 20ed 89bc 6e77 fcbe
00000360: 576a 863c 40f7 07bc b055 9a3d 38aa 8ebd
00000370: 05e3 123d 70ec 253e 4206 9cbc 9285 a03c
00000380: 7b4a 043e fd2c c23d 709a 363e 9ef7 103d
00000390: e192 7a3c a562 ddbc 0993 e4bd e585 133e
000003a0: d40d 653d 1130 96be c890 6c3e dbe8 62bc
000003b0: d916 66be 18f7 253c c89b f33c 3ecd 5f3d
000003c0: 8e3c ad3d 3e39 023e 8e6c 31be 018a f7bd
000003d0: 5da3 e93d f764 633c f209 06bd e53c 523d
000003e0: 3311 053d 07aa 56bd 1872 54bd b9de a13c
000003f0: aa2d 653d 9d8f a5bd 4857 eebd 03e1 adbe

conv2.bias f4 [16]
0.01022871 -0.21403757 -0.010404826 -0.14308675 -0.1217452 -0.15839507 -0.029938601 -0.36087802
0.057598058 -0.14625646 -0.11631128 0.15505615 -0.13063739 0.31356138 0.15926658 -0.1776667
00000000: 5296 273c aa2c 5bbe 0179 2abc 5585 12be
00000010: 8c55 f9bd 5132 22be cc41 f5bc 01c5 b8be
00000020: f1eb 6b3d 41c4 15be 9c34 eebd 0ac7 1e3e
00000030: cfc5 05be 1e8b a03e c716 233e 42ee 35be

conv3.weight f4 [32, 16, 3, 3]
-0.1793862 0.037331954 -0.1136138 -0.08276589 0.046431746 -0.03360265 -0.26447117 -0.4649257
-0.13380155 -0.20081589 -0.14638652 0.04214249 -0.2615059 0.04138644 -0.06272721 -0.18220977
-0.23330693 -0.096669555 -0.17738977 -0.018042302 0.037004318 -0.071042426 -0.020286744 0.17135243
-0.18983792 -0.02875667 -0.097398825 -0.09570732 -0.047093954 -0.069183655 -0.08117372 -0.034152485
0.15012735 -0.17706162 -0.13604188 -0.059732217 -0.099845186 0.05501543 -0.23720753 -0.14105219
-0.110301815 -0.017876279 0.06820228 0.048657414 -0.08588552 0.10149589 0.044304717 -0.011414628
-0.28254747 0.008993693 0.106688 -0.26951814 0.013192838 -0.12438539 -0.037745792 0.049325127
-0.12898144 -0.08621929 -0.29681346 0.01527309 -0.06841621 0.00053427904 -0.105829865 0.016521506
0.052323513 0.0991283 0.13459861 -0.12916937 0.07281976 -0.09453336 -0.0824249 0.020202348
0.18113385 0.14074853 -0.017012091 -0.09029016 0.0010249143 0.08955536 0.023630613 0.25601068
0.26018706 0.13865708 -0.063939326 -0.021909628 -0.18453124 0.036994573 0.045301393 -0.0149963
-0.057551447 -0.08887274 -0.21865723 -0.007993135 0.06666828 -0.047099423 0.05298435 0.04447316
-0.3600295 -0.106445715 -0.030240437 0.06719656 -0.04012229 0.12641422 -0.17050534 -0.14999256
-0.11085753 -0.16393197 -0.098592386 0.020877646 -0.06034241 0.07602297 0.102696694 0.026488554
-0.019515408 -0.0844464 -0.23619464 0.16825937 0.035476338 0.04031992 -0.10358804 0.044551343
-0.0032314393 0.1233022 -0.026636241 -0.34286624 0.12412416 0.26357868 0.23499264 0.08625359
-0.0018619754 0.039411765 -0.20000748 0.02053004 0.27680102 -0.0777089 0.42638418 0.07996239
-0.15872471 0.033407815 0.040500127 0.056211267 0.08384006 -0.1443534 0.00458373 0.0035529213
-0.01563456 -0.039758276 -0.24361145 -0.14675121 -0.024995623 0.105971776 -0.28208712 -0.030585088
0.00901619 0.10026679 0.04966851 -0.03526061 0.0067681917 -0.117299035 -0.0018746045 -0.21844278
-0.23471592 0.18262583 0.122446574 -0.004322344 0.102034286 0.136494 -0.14764078 -0.10775541
0.016681176 -0.11323975 0.029521491 0.06870089 0.0053414414 -0.086167306 -0.12685238 -0.035444837
0.08565281 0.053449664 -0.044188205 -0.0045031607 0.1555013 -0.023163391 -0.14511395 0.14871176
-0.11327918 -0.19541252 0.09361636 0.12263019 -0.35220718 0.18534526 0.042458422 0.030885054
-0.14622453 -0.04250704 -0.09878439 0.07040423 0.0071497974 -0.05308836 0.05226001 -0.03997801
0.09428216 0.08008719 -0.054566715 -0.10855805 -0.114228874 -0.03832501 0.1174726 0.08364873
-0.021764955 0.13453084 -0.016664442 0.14409456 -0.1981903 -0.005758283 0.035302598 -0.107962385
-0.029657707 0.08379461 0.090650395 -0.35692814 -0.34447592 0.29325485 0.19640183 0.095535085
-0.2853494 0.032877993 -0.107901946 0.060749464 0.07725678 -0.1792417 -0.014170388 0.14216664
-0.08270463 -0.063916795 0.040457837 -0.14720216 0.06672973 0.019055437 0.079917684 -0.12026757
-0.003186666 0.084527865 0.20933689 -0.14747255 -0.08910682 0.11029738 -0.018782137 -0.12536877
0.16005665 -0.25064468 -0.0005847068 0.15381412 0.028586498 0.04990324 -0.0738832 0.14306748
00000000: 04b1 37be 64e9 183d 5aae e8bd 2a81 a9bd
00000010: 372f 3e3d efa2 09bd c468 87be be0a eebe
00000020: 4603 09be aea2 4dbe 59e6 15be 9b9d 2c3d
00000030: 1ae4 85be d484 293d 2077 80bd 3395 3abe
00000040: 03e8 6ebe b0fa c5bd aaa5 35be 73cd 93bc
00000050: d791 173d b17e 91bd 6330 a6bc 0377 2f3e
00000060: df64 42be 1c93 ebbc 0979 c7bd 3302 c4bd
00000070: 97e5 40bd 29b0 8dbd 683e a6bd 7ae3 0bbd
00000080: fcba 193e a44f 35be 904e 0bbe c5a9 74bd
00000090: a27b ccbd dc57 613d 88e6 72be fc6f 10be
000000a0: ebe5 e1bd 4671 92bc a3ad 8b3d ff4c 473d
000000b0: bfe4 afbd 14dd cf3d dd78 353d 6b04 3bbc
000000c0: 10aa 90be 485a 133c 3d7f da3d 48fe 89be
000000d0: c626 583c c4bd febd 559b 1abd 2509 4a3d
000000e0: b613 04be bd93 b0bd eff7 97be fc3b 7a3c
000000f0: cc1d 8cbd dc0e 0c3a 54bd d8bd 1c58 873c
00000100: 2e51 563d c703 cb3d 38d4 093e fa44 04be
00000110: 8722 953d b59a c1bd 63ce a8bd 657f a53c
00000120: 277b 393e 6220 103e f15c 8bbc 0cea b8bd
00000130: 6b56 863a cd68 b73d fd94 c13c d513 833e
00000140: 3d37 853e 1ffc 0d3e 9ff2 82bd d27b b3bc
00000150: c2f5 3cbe 9f87 173d f48d 393d 0bb3 75bc
00000160: 11bb 6bbd e902 b6bd aee7 5fbe a3f5 02bc
00000170: 6189 883d 53eb 40bd 1e06 593d 7d29 363d
00000180: c955 b8be 3600 dabd cbba f7bc 5a9e 893d
00000190: 4557 24bd bb72 013e f498 2ebe a697 19be
000001a0: 4609 e3bd c8dd 27be ceea c9bd 9907 ab3c
000001b0: 9a29 77bd eeb1 9b3d a552 d23d 86fe d83c
000001c0: c7de 9fbc 3cf2 acbd 02dd 71be 2f4c 2c3e
000001d0: a34f 113d 8026 253d f725 d4bd 787b 363d
000001e0: 8ec6 53bb dd85 fc3d 3f34 dabc 2a8c afbe
000001f0: cf34 fe3d c9f3 863e e9a1 703e b9a5 b03d
00000200: 870d f4ba 3b6e 213d c3ce 4cbe 9d2e a83c
00000210: ddb8 8d3e d825 9fbd 074f da3e 52c3 a33d
00000220: bb88 22be a2d6 083d 76e3 253d c93d 663d
00000230: 56b4 ab3d 61d1 13be 1d33 963b 21d8 683b
00000240: 0c14 80bc 93d9 22bd 4875 79be f345 16be
00000250: 9fc3 ccbc bb07 d93d b96d 90be 948d fabc
00000260: a4b8 133c ad58 cd3d 3571 4b3d 6e6d 10bd
00000270: b5c7 dd3b 7a3a f0bd 4ab5 f5ba 77af 5fbe
00000280: 5f59 70be 4402 3b3e 45c5 fa3d 73a2 8dbb
00000290: 5af7 d03d 15c5 0b3e 252f 17be deae dcbd
000002a0: f6a6 883c 3eea e7bd 0ed7 f13c 0db3 8c3d
000002b0: 4207 af3b 7c78 b0bd 97e5 01be 9b2e 11bd
000002c0: be6a af3d 09ee 5a3d b1fe 34bd 408f 93bb
000002d0: bc3b 1f3e 27c1 bdbc c098 14be e547 183e
000002e0: eafe e7bd 381a 48be efb9 bf3d 8925 fb3d
000002f0: 8054 b4be 26cb 3d3e e2e8 2d3d a702 fd3c
00000300: e2bb 15be dd1b 2ebd 784f cabd 1830 903d
00000310: d948 ea3b 2e73 59bd 980e 563d fbbf 23bd
00000320: 0117 c13d c104 a43d 5981 5fbd af53 debd
00000330: d4f0 e9bd b0fa 1cbd 7995 f03d 0650 ab3d
00000340: 6b4c b2bc 74c2 093e de83 88bc 868d 133e
00000350: 66f2 4abe fbaf bcbb 7599 103d 621b ddbd
00000360: b8f4 f2bc 829c ab3d eaa6 b93d 49bf b6be
00000370: 265f b0be 8025 963e 901d 493e e6a7 c33d
00000380: 5119 92be 13ab 063d b2fb dcbd 6ed4 783d
00000390: cd38 9e3d 238b 37be ea2a 68bc 2294 113e
000003a0: 0c61 a9bd cfe6 82bd 1eb7 253d 2abc 16be
000003b0: 99a9 883d 261a 9c3c e2ab a33d d84e f6bd
000003c0: 62d7 50bb f21c ad3d 695c 563e 0b03 17be
000003d0: a37d b6bd 98e3 e13d ffdc 99bc ac60 00be
000003e0: e4e5 233e 8054 80be 0247 19ba 7381 1d3e
000003f0: 3b2e ea3c 5767 4c3d 1350 97bd 4880 123e

conv3.bias f4 [32]
-0.005043068 -0.10705409 -0.063767195 -0.05320996 0.013943438 -0.035068758 -0.07614978 0.067061126
0.010540831 0.03241267 -0.02551474 -0.12135011 -0.074238606 -0.09521215 0.05846499 -0.026011337
-0.020636676 -0.0607018 0.016181694 -0.079178505 -0.026211714 -0.16352163 0.198899 0.029638387
0.014712575 -0.02583906 0.18232095 -0.052615892 0.022731967 -0.12391747 0.005474973 -0.07048236
00000000: 5240 a5bb 2d3f dbbd 6098 82bd b0f2 59bd
00000010: 0573 643c 42a4 0fbd 6af4 9bbd 5857 893d
00000020: 73b3 2c3c 26c3 043d 4a04 d1bc 6886 f8bd
00000030: 690a 98bd 96fe c2bd fc78 6f3d ba15 d5bc
00000040: 3f0e a9bc 73a2 78bd 798f 843c 5728 a2bd
00000050: f3b9 d6bc 3772 27be 2eac 4b3e 34cc f23c
00000060: 030d 713c 70ac d3bc 58b2 3a3e c383 57bd
00000070: 6438 ba3c 71c8 fdbd 6767 b33b 0e59 90bd

dense.weight f4 [5, 32]
-0.24753562 -0.120920345 0.013959486 -0.0557347 0.14406706 -0.037466753 -0.12676725 0.2663292
0.16963816 0.041026782 -0.21234217 0.21292607 0.10782474 0.08082467 0.19901139 0.2549071
0.24411732 -0.32688585 0.08215053 0.3510271 0.038738344 -0.054222926 0.31554663 -0.1722129
-0.17160961 0.29675677 0.17026147 0.06478058 -0.050482158 -0.1865456 -0.10265806 0.16976641
0.036335506 -0.121689215 -0.20112629 0.29004535 -0.113322176 -0.022743898 0.05111764 -0.31522378
-0.08896403 -0.16252792 0.3582512 0.18686786 0.37742764 0.24026677 0.24075025 -0.32622153
-0.1604455 0.10993033 -0.25959888 -0.24785787 -0.050348226 0.1359959 0.022949504 -0.08712048
-0.34583044 -0.20092241 -0.31544423 -0.06869444 -0.06328902 -0.020259952 0.09860513 0.23254423
0.06182298 0.2858496 0.17156783 0.1347231 -0.1183458 0.17114313 -0.13862619 0.0020211774
-0.27406892 0.24327098 -0.25231773 -0.014519783 -0.2760307 -0.14624947 -0.09449259 -0.008580228
-0.27895474 -0.15026881 0.034454267 -0.42436892 0.07213552 -0.30249795 -0.1506054 0.03234961
0.3770334 0.052117158 0.39058027 0.17328364 0.11635696 0.32801503 0.0036186904 -0.43203774
-0.118774965 -0.24867705 -0.2452667 0.08508939 -0.03598112 0.09335091 0.14096211 0.19813642
-0.24527036 -0.21229544 -0.2382588 0.17584468 0.20236555 -0.17688796 -0.20475565 0.11945711
0.15694892 0.023522655 0.17747508 0.30624184 0.053603135 0.1008153 -0.24990202 0.07572685
0.27995732 0.040107857 -0.32526046 -0.1272215 -0.25628912 -0.32306007 -0.05032388 0.3073899
0.23541436 0.1963813 0.028649138 -0.037212122 0.09292756 0.122416824 -0.030765219 -0.21575439
0.034120817 0.10726752 0.106558785 0.031547986 -0.3084455 0.053522546 -0.034446653 -0.07937016
0.032315873 -0.20452626 -0.14376943 -0.3828805 -0.1017936 -0.019431699 0.26107603 0.02639114
-0.39501968 -0.046672113 0.18008691 0.2746082 0.20714067 0.13604206 0.14912327 -0.27459332
00000000: fa79 7dbe 16a5 f7bd 54b6 643c 124a 64bd
00000010: 5186 133e bd76 19bd 46cf 01be 4d5c 883e
00000020: a0b5 2d3e b30b 283d 3a70 59be 4b09 5a3e
00000030: 38d3 dc3d 6887 a53d a4c9 4b3e 2f83 823e
00000040: e4f9 793e 955d a7be 893e a83d d3b9 b33e
00000050: 19ac 1e3d dc18 5ebd 548f a13e 9458 30be
00000060: 6eba 2fbe 81f0 973e 0659 2e3e aeab 843d
00000070: 61c6 4ebd cf05 3fbe 643e d2bd 3fd7 2d3e
00000080: 8ad4 143d 3238 f9bd 0df4 4dbe d380 943e
00000090: 7515 e8bd 6951 babc bb60 513d 0365 a1be
000000a0: c632 b6bd b86d 26be b46c b73e 4a5a 3f3e
000000b0: 323e c13e 7e08 763e 3c87 763e 8206 a7be
000000c0: d34b 24be 2723 e13d 25ea 84be 74ce 7dbe
000000d0: f139 4ebd 8242 0b3e 9900 bc3c 396c b2bd
000000e0: b010 b1be 9bbe 4dbe e881 a1be acaf 8cbd
000000f0: ac9d 81bd 33f8 a5bc 7df1 c93d 1320 6e3e
00000100: 183a 7d3d e15a 923e 7aaf 2f3e daf4 093e
00000110: 485f f2bd 2540 2f3e 06f4 0dbe bb75 043b
00000120: c352 8cbe 071c 793e ca2f 81be 62e4 6dbc
00000130: e553 8dbe 6cc2 15be 5585 c1bd 1694 0cbc
00000140: 28d3 8ebe 11e0 19be eb1f 0d3d e246 d9be
00000150: cabb 933d 03e1 9abe 4d38 1abe 0681 043d
00000160: 860a c13e cd78 553d 23fa c73e 4471 313e
00000170: 8f4c ee3d 96f1 a73e 8d27 6d3b 0d34 ddbe
00000180: 4a40 f3bd 32a5 7ebe 3227 7bbe 5943 ae3d
00000190: f060 13bd c32e bf3d 5f58 103e 46e4 4a3e
000001a0: 2728 7bbe fa63 59be 1dfa 73be a110 343e
000001b0: ea38 4f3e 1e22 35be 77ab 51be eea5 f43d
000001c0: 38b7 203e 95b2 c03c 07bc 353e bbcb 9c3e
000001d0: f68e 5b3d 4178 ce3d 51e6 7fbe ae16 9b3d
000001e0: 9156 8f3e 2348 243d 8a88 a6be 5a46 02be
000001f0: 5438 83be 2168 a5be 6a20 4ebd 3562 9d3e
00000200: 7610 713e 2e18 493e 99b1 ea3c bd6b 18bd
00000210: ce50 be3d acb5 fa3d 5707 fcbc b8ee 5cbe
00000220: 45c2 0b3d 13af db3d 7e3b da3d 7638 013d
00000230: 92ec 9dbe 753a 5b3d ef17 0dbd d38c a2bd
00000240: a65d 043d 556f 51be 4b38 13be ea08 c4be
00000250: 2a79 d0bd 3a2f 9fbc c2ab 853e 3b32 d83c
00000260: 0540 cabe 422b 3fbd b468 383e 7299 8c3e
00000270: af1c 543e 9c4e 0b3e c5b3 183e 7f97 8cbe

dense.bias f4 [5]
-0.0051081087 -0.07472685 -0.10266014 0.037556272 -0.22090018
00000000: ec61 a7bb 640a 99bd 7b3f d2bd 9bd4 193d
00000010: a833 62be
