nesy_verification/saved_models/icl/cnn_no_softmax.pt (torch, 26575 bytes, 8 tensors)

conv1.weight f4 [8, 1, 3, 3]
000000 c4 9a a7 be 88 c5 9c be a6 f0 a2 be 5a 83 89 bf
       -0.32735264 -0.30619454 -0.31824225 -1.074321
000010 5d 86 e2 3d 4b 0b de be 27 71 70 be 43 c8 f8 3e
       0.11060784 -0.4336799 -0.23480664 0.48590288
000020 16 7e b8 3d 85 2d 83 3d 4c d9 37 3d ab 75 eb 3d
       0.09008424 0.064051665 0.044884965 0.11497053
000030 5e 85 3d bd b5 0b 57 3d c9 61 41 3d 28 23 17 3e
       -0.046269767 0.0525014 0.047212396 0.14759505
000040 67 e1 c4 3d 64 34 3b bd bb 39 5b be 6c ce a9 3e
       0.096133046 -0.04570426 -0.21408741 0.331653
000050 ef 97 72 3d fc 13 6c 3e 08 6e 4c 3c 5f 09 82 3e
       0.059226926 0.23054498 0.012477405 0.25397775
000060 92 f1 81 be b8 43 32 be ab 84 13 bf cb 39 f8 bd
       -0.25379616 -0.17408645 -0.5762431 -0.12120398
000070 8e 60 57 3e c5 7f ab bd 22 99 dd bd 5e 2d 16 bf
       0.21032926 -0.083739795 -0.108202234 -0.58662975
000080 a4 7c bf be 3f f0 ed bd 85 86 99 3e 47 3a a1 3e
       -0.3739978 -0.11618089 0.29985443 0.31489775
000090 82 4f 6d be 2c ed 6f be e1 c9 9c 3e c7 d8 dc be
       -0.23174861 -0.23430318 0.3062277 -0.43134138
0000a0 90 c6 7f 3e 02 17 8b 3e a1 f9 9a be 24 5c fd be
       0.2497809 0.2716599 -0.30268577 -0.4948436
0000b0 8e 55 2b bd 80 eb bf 3e 0f 55 df be 42 e4 3e be
       -0.04182964 0.3748436 -0.43619582 -0.18641761
0000c0 e9 df 0a be 28 67 c5 be 34 75 bf 3e d1 e3 df be
       -0.13561977 -0.38555264 0.37394106 -0.43728498
0000d0 90 60 fc 3d e6 d4 ef 3d 9d 3e 74 bd c1 4b 76 bd
       0.12323105 0.11710529 -0.059630025 -0.06013084
0000e0 90 94 44 3d 99 36 69 3e aa 74 32 3e aa 4a 90 be
       0.047993243 0.22774734 0.17427316 -0.28181964
0000f0 fe 61 af bd 00 ff 8f 3e f9 bd a5 be f8 ce fe be
       -0.085636124 0.28124237 -0.323715 -0.4976728
000100 ea 07 c1 be 44 6a 4f bd f0 bc 90 3e da 9f 86 bd
       -0.3770135 -0.050638452 0.28269148 -0.06573458
000110 ea 9d 09 bf 4b 56 c9 3e 09 bc 4f 3d d9 5f f5 bc
       -0.5375658 0.3932365 0.050716434 -0.02995293

conv1.bias f4 [8]
000000 f8 26 36 be d4 28 e0 be 3e e0 27 3e 57 1d e0 bd
       -0.17788303 -0.4378115 0.16394135 -0.10943096
000010 cb 60 06 be c0 a2 26 bd ce c4 67 3d e3 af f6 ba
       -0.13122861 -0.040682554 0.056584172 -0.0018820729

conv2.weight f4 [16, 8, 3, 3]
000000 dd df d3 3b cb 1d 4e be 49 6c 82 3e f3 5c f6 3e
       0.0064658956 -0.20128553 0.2547324 0.4811779
000010 6f c0 fa bd 4d ac 0d 3e 45 d5 c3 3e 2c 7c e2 be
       -0.12243735 0.13835259 0.3824865 -0.4423536
000020 40 23 dc 3d 3f a9 d3 3d c3 88 02 3c cb 45 44 be
       0.10748911 0.103350155 0.007967177 -0.19167249
000030 b6 c0 58 3e 3d df 68 3b 1e 91 1c be 81 10 32 3e
       0.21167263 0.003553345 -0.15289733 0.17389108
000040 0c f4 3c be a7 4f 47 bd 1c ea f2 be 3f e7 79 be
       -0.18452471 -0.048659947 -0.47444236 -0.2440462
000050 c3 a6 35 be 1f 4e f5 bd 5a 04 66 bc ef 5a 4c be
       -0.17739396 -0.11977791 -0.014039123 -0.19956563
000060 d5 6b e1 bb a1 d0 8a bd e2 26 89 bd ca e7 3e be
       -0.0068793097 -0.06778074 -0.066968694 -0.18643108
000070 26 f2 fc be 21 13 cd bd 5c bd 14 be 39 f9 15 be
       -0.49403495 -0.10013414 -0.1452536 -0.14645852
000080 24 8a 02 3e 1a a1 3d be ff 85 59 be d1 1a 8c be
       0.12748009 -0.18518487 -0.21242522 -0.2736421
000090 47 a2 e2 3d 95 89 07 3e 8b 7f 04 3e 6d 7e 62 3e
       0.11066108 0.13236077 0.12939279 0.2211854
0000a0 3f d3 42 3e ac 03 d5 bc 78 bc 54 be bf 5b 49 3e
       0.19025896 -0.026002727 -0.2077502 0.19663905
0000b0 bf 78 b8 3d b7 2d 90 bb f6 2d 11 bf 75 da cf 3d
       0.090074055 -0.004399981 -0.56710756 0.10149089
0000c0 9f 42 b8 bd 6d e3 18 3e b8 5b fa 3d 9e e3 16 3e
       -0.08997082 0.14930506 0.12224525 0.14735267
0000d0 58 06 34 3e 2c 35 bd bd 7c 43 0f bd 39 ae 05 3e
       0.17580545 -0.09238657 -0.034976467 0.13054742
0000e0 24 95 97 bd e4 d4 26 3e 67 ce 40 3e 54 1d af bd
       -0.07401493 0.16292149 0.18828736 -0.08550516
0000f0 2d b0 1c 3e 0c cd 82 bd 84 30 4d be e1 bd 58 3d
       0.1530158 -0.06386766 -0.20038038 0.052915458
000100 f1 e1 e1 bb fd bf ff bc 57 66 98 3e 82 9c 9f be
       -0.0068933894 -0.031219477 0.2976558 -0.31174093
000110 7a b4 9e be 08 44 26 3e b8 b7 da be a2 56 72 be
       -0.30997068 0.1623689 -0.4271829 -0.2366586
000120 02 e4 78 be 0a ee c4 bc d7 6a d4 3d f8 5c 82 be
       -0.24305728 -0.024039287 0.103719406 -0.25461555
000130 86 b0 b6 bc 01 0e 81 3d 25 c3 83 3e 9e 16 8c bc
       -0.02230097 0.06301499 0.2573482 -0.017100628
000140 02 a8 16 3e 7b 5a 00 bc 6a 6f 8d bd d2 86 b9 bc
       0.14712527 -0.007834072 -0.06906016 -0.022647295
000150 7f 3b 02 be e6 7b 05 3d 54 a4 33 3e 5c c8 26 be
       -0.12718008 0.032588862 0.17543155 -0.16287369
000160 7d 08 64 be 8f 07 2d be 08 03 85 be aa 3a 84 bd
       -0.22268863 -0.16897415 -0.25978875 -0.06456502
000170 23 58 0b 39 fe 8f 1c 3d 6c 01 8b 3e f4 ba 63 3e
       0.00013288906 0.03822326 0.27149522 0.22239286
000180 73 4a b9 bd 1c 5d fe 3d 22 29 9f 3e 17 65 71 bd
       -0.09047403 0.12420103 0.3108607 -0.058934297
000190 b1 c3 36 3e 68 66 64 3e 9a 43 83 be 0c 60 0f 3d
       0.17848088 0.2230469 -0.25637513 0.035003707
0001a0 d9 af bc 3c 71 f7 d4 bd e4 de 24 3d b7 c4 10 3e
       0.02303307 -0.10398758 0.040251628 0.14137541
0001b0 87 e5 18 be aa 30 2e 3e 0c 31 00 be ed 49 43 3e
       -0.14931308 0.17010751 -0.1251871 0.19071169
0001c0 e3 a7 5f 3e 8b 7d 07 bd 6a c2 2f bd 94 27 4f 3d
       0.21841387 -0.03307871 -0.042910017 0.050574854
0001d0 4d d5 24 bd b4 40 25 bd ff 3a 3e 3e 13 63 41 3e
       -0.040242482 -0.04034491 0.18577193 0.1888545
0001e0 34 69 09 be f6 db 57 bc 18 a5 55 3d dc e1 09 be
       -0.13419038 -0.013175001 0.0521594 -0.13465065
0001f0 2a 39 f7 be b8 ae d8 bd 3d bd 57 bd 9e 12 da bb
       -0.482858 -0.105802 -0.052670706 -0.0066550514
000200 36 0b 4c be e8 56 2a be 05 da 58 bc a2 d7 68 3a
       -0.19926152 -0.16634715 -0.013235574 0.00088822294
000210 ba 7f 7c be b8 7a 88 be 19 54 e8 be 51 63 66 3d
       -0.24658099 -0.26656127 -0.4537666 0.05624706
000220 e3 65 6a 3d ff 46 03 bd f8 92 28 3e 03 73 52 be
       0.057226073 -0.03205013 0.16462314 -0.20551686
000230 fe b2 0e bd f5 8e a8 3d fa 4f 69 3e db f8 46 3d
       -0.03483867 0.08230392 0.22784415 0.04857717
000240 66 f7 24 3c 91 8d b5 bd c6 b5 b8 bd d7 15 58 be
       0.01006875 -0.08864892 -0.090190455 -0.21102081
000250 07 e9 2a be 8f 3e 2f be ba 8f 50 be 48 93 d0 bd
       -0.16690455 -0.17113708 -0.20367327 -0.10184342
000260 9b d2 de b9 ac 70 e3 bd 6e 54 02 3d b5 98 d4 3d
       -0.00042500053 -0.11105475 0.0318188 0.10380689
000270 fa 54 b6 3d 00 ce d7 3d 79 a6 a7 3d 4a 98 37 3d
       0.08902927 0.10537338 0.08186049 0.04482297
000280 a1 c1 05 be b3 41 3c bd 9f 97 aa 3d fc 0e 0d be
       -0.13062145 -0.045961093 0.08329701 -0.13775247
000290 32 f1 24 3e ed 08 ca bc bb dd 94 bd 69 f0 03 3e
       0.16107634 -0.02466246 -0.07268854 0.12884678
0002a0 de aa 57 3d a5 e8 92 bc 76 a0 e8 3d ab 95 18 bd
       0.052653186 -0.0179332 0.113587305 -0.03725211
0002b0 28 80 1c 3e 6d 84 36 3d 96 31 5b be dc 33 bd bd
       0.15283263 0.044559885 -0.21405634 -0.09238407
0002c0 3c 9c 35 bd b3 96 7e be 9d cd 83 be 69 fa d8 3d
       -0.04433845 -0.24862175 -0.25742808 0.10594637
0002d0 1d 54 5b bd c1 8f a6 be bd 73 ae be bf c7 66 bd
       -0.053547014 -0.3253155 -0.34072676 -0.056342836
0002e0 51 6a 9d be d5 2c 0b be 20 60 a2 3c 40 3f 7c bd
       -0.30745175 -0.13591321 0.019821227 -0.061583757
0002f0 a1 ff 82 3d f2 da 8a 3d 75 c5 78 3d b0 39 df bd
       0.063964136 0.06780042 0.060735185 -0.10899675
000300 51 2b 8e 3b a3 ac 77 bd c8 e5 dc bd fe 46 22 be
       0.00433866 -0.060467374 -0.10786015 -0.15847394
000310 62 50 2e be c4 1f 47 be 44 86 f0 3c 59 2d 04 3d
       -0.17022851 -0.19445711 0.029360898 0.03226981
000320 c4 c4 ba bd 9b e4 d4 bd 4e f1 18 3c c4 44 27 3c
       -0.09119561 -0.103951655 0.009334875 0.010209266
000330 f8 aa 35 3e 47 55 ba 3d f7 0d 92 bd 5a be 1c 3c
       0.17741 0.090982966 -0.0713157 0.009566868
000340 c3 a1 ea 3c 24 f9 02 bc 94 c3 6e bd 1e 3b c6 be
       0.028641587 -0.00799397 -0.058291987 -0.38716978
000350 72 c5 3e be 53 03 dd bd 08 82 8c 3d cd 41 80 3e
       -0.18630007 -0.1079165 0.06860739 0.25050202
000360 ac 77 04 be 92 3a 76 bf 64 21 48 bf 38 58 a6 be
       -0.12936276 -0.9618312 -0.7817595 -0.3248918
000370 b2 ba dc be d5 be 55 bf 47 12 a6 be 0f e5 da bd
       -0.43111187 -0.8349431 -0.3243582 -0.10688221
000380 16 8d 2e bf e2 24 07 3e 18 01 f4 3c 19 7b a3 bd
       -0.6818403 0.13197663 0.029785678 -0.079824634
000390 bf 74 cd 3d e6 78 fb 3d d9 fd 97 bd 2d ac 87 3d
       0.10032033 0.12278919 -0.074214645 0.06624637
0003a0 05 ee 1d bd d3 d1 5c 3c 82 df 43 bc 09 11 30 3d
       -0.03855707 0.01347776 -0.011955144 0.042984996
0003b0 a1 83 3f be a1 fd 27 bd 5c 6a bf be ae c5 90 be
       -0.18702556 -0.041013364 -0.37385833 -0.28275818
0003c0 97 65 79 be 8b e7 c2 be e9 41 25 bf e1 23 90 bd
       -0.2435516 -0.38067278 -0.64553696 -0.07038093
0003d0 fa 93 a4 be d7 83 d7 be 34 95 2c 3e 69 17 49 bd
       -0.32144147 -0.42092773 0.16853791 -0.04909459
0003e0 95 b9 e1 be 77 2f da 3d 63 b7 42 bd a3 68 0a bf
       -0.440869 0.106535845 -0.047538172 -0.5406591
0003f0 92 66 9b 3d fe ee db be e4 8b 4e 3d 07 e9 a8 bd
       0.07587923 -0.42955774 0.05042638 -0.082475714

conv2.bias f4 [16]
000000 bd d5 2a 3e 12 87 d6 ba 00 66 a8 be 57 9f 87 3d
       0.16683097 -0.0016367158 -0.3289032 0.066221885
000010 c6 dc 00 3d d2 c2 24 3e 39 e0 03 bd 85 72 91 be
       0.031460546 0.16089943 -0.032196257 -0.28407684
000020 da be 10 bd 4c a5 b8 bb f4 5d 1c be c3 b1 34 be
       -0.03533826 -0.0056349393 -0.15270215 -0.17645936
000030 9e 62 8c 3d a1 e2 03 bd fd 3e 79 bd 8f 94 1c be
       0.06854747 -0.032198552 -0.060851086 -0.15291046

conv3.weight f4 [32, 16, 3, 3]
000000 b6 47 08 be 51 68 a2 bd f7 21 29 bf 93 cf 0e bc
       -0.13308606 -0.07930053 -0.6606745 -0.008716482
000010 56 60 bf bd a5 f3 f0 be 79 fb 0c be e8 06 02 bf
       -0.093445465 -0.47060886 -0.13767804 -0.5079179
000020 76 e2 aa be 91 23 e5 bd a8 e6 ef bd a2 36 ca 3d
       -0.333759 -0.111884244 -0.11713916 0.09873702
000030 e6 24 14 3e 6c dc 88 3c ad df 25 3d 61 2f e1 bc
       0.144672 0.016706668 0.040496517 -0.027488412
000040 8b 06 c9 3d c6 ee 2a 3e 65 f0 5d 3d 8a 97 c1 bd
       0.09815701 0.16692647 0.054184336 -0.09452732
000050 d6 65 a5 3c 8e b3 8f 3d d7 2a 98 bd 6e 90 bb ba
       0.02019016 0.07016669 -0.07430046 -0.0014310011
000060 f5 eb df bd cc cb 1b 3d 40 10 b2 3c e3 74 be bd
       -0.10933677 0.038036153 0.021736264 -0.09299638
000070 99 a2 85 bd 0d 16 db bd 6d 4b 1b be 49 5d 02 be
       -0.06525154 -0.10697565 -0.15165491 -0.12730898
000080 e7 5e 9d be a3 7e 98 bd 3c 1a 3e bd 29 33 83 be
       -0.30736467 -0.07446029 -0.046411738 -0.2562497
000090 a9 48 2c be b9 ee 38 be ad 14 28 3c 3a cd d1 3d
       -0.16824593 -0.18059815 0.010258836 0.10244222
0000a0 5a 59 9b bd 66 de 34 3c d1 d5 9d bd 25 98 97 3c
       -0.07585402 0.011039352 -0.07706798 0.018505165
0000b0 ba 07 10 3b 23 c6 15 be 0d c5 de bd 1d b2 0a 3b
       0.0021977262 -0.14626364 -0.10877428 0.0021163293
0000c0 94 77 35 3e 0d 66 0e 3e e7 ce 3b be 1f 7d c0 3c
       0.17721397 0.13906117 -0.18340646 0.023497162
0000d0 d2 ce 1b 3e 27 0e 82 3d 86 71 66 3d fe b8 3f be
       0.15215614 0.063503556 0.056260608 -0.18722913
0000e0 17 0c 2c 3e 62 f9 21 3d 16 6c 96 bc 21 f1 22 3c
       0.16801487 0.03954447 -0.018362086 0.009945185
0000f0 5c ac e8 bd 37 9a b7 bd 4a a0 04 3c e0 28 ae 3d
       -0.11361 -0.08964961 0.0080948565 0.0850389
000100 43 3f 52 bd 62 9a 8d bc 97 b4 8b 3c 10 8b df bd
       -0.051329862 -0.01728553 0.017053885 -0.10915196
000110 5a 0f 78 3d 7e 03 77 bd 95 27 2e bd 08 e2 b4 bc
       0.060561515 -0.060306065 -0.042518217 -0.022080436
000120 8d 9b 7e be 06 19 1a 3d bc 38 ef 3d 24 97 1f bd
       -0.24864025 0.03762152 0.11680743 -0.0389625
000130 18 03 57 3d 37 24 02 be 7c 49 33 bd 2e 5e fc bc
       0.052493185 -0.12709127 -0.043771252 -0.030806627
000140 e2 74 62 bd 96 40 43 3d 39 be 9d be b7 db 8c bd
       -0.05528725 0.047669016 -0.3080919 -0.06877845
000150 d9 9c 16 be d0 68 96 be c0 2b b7 bd 64 a8 49 bc
       -0.1470827 -0.2937684 -0.089438915 -0.012308214
000160 b7 06 56 be f8 9d 95 ba ee 66 1a 3e 17 7e 2d bd
       -0.20900999 -0.0011414876 0.15078327 -0.042356577
000170 20 30 d1 3d 4e 2d 50 be 5c 85 e2 bd bb 94 3a be
       0.10214257 -0.20329782 -0.110605925 -0.18220799
000180 c8 5c 7f be 85 ec 57 3c 6d 7d eb 3b 4e bb c4 3a
       -0.24937737 0.013178949 0.007186583 0.0015009434
000190 6d ba 1f be a2 fb dc bd f2 38 c4 3d 3c 0d 9f bd
       -0.1559846 -0.10790183 0.09581174 -0.07766196
0001a0 e1 02 25 be 62 2a 35 be 6d 12 3c bd 8e 82 a3 3d
       -0.1611438 -0.17691949 -0.04591601 0.07983886
0001b0 a6 ac 9e 3e 45 27 10 3e 81 25 dc 3c 9c 68 c6 3d
       0.30991095 0.1407748 0.026873352 0.096879214
0001c0 56 2d 41 be f7 51 9d be 90 85 61 3e e0 be ed bd
       -0.1886495 -0.30726597 0.22023606 -0.11608672
0001d0 b2 0e c1 bd f7 8e db 3c 96 ab 4f 3e 65 cb 8c 3d
       -0.09426631 0.02680157 0.20280299 0.06874732
0001e0 dc 20 02 3d 7f 93 af 3d 97 a8 ba ba ab 59 89 bd
       0.03176962 0.085730545 -0.0014240918 -0.06706556
0001f0 41 50 9c bd dc be a8 3d e2 17 5b be 06 d0 dd 3d
       -0.07632495 0.082395285 -0.2139583 0.10830693
000200 5e cc 4c 3c 6b 1e f3 bd d7 3b 28 3c 6e a7 29 3e
       0.012499897 -0.11871036 0.010268173 0.16567776
000210 d4 28 11 3e 93 d1 41 3c 48 4c a5 3d d1 92 5b be
       0.14175731 0.011829752 0.0807119 -0.21442725
000220 28 dd 23 bd f1 57 2d be 84 e9 02 bd 8e 48 aa 39
       -0.040005833 -0.16928078 -0.03196098 0.00032478984
000230 a5 34 39 bd 82 08 4f bc 9b 6b d9 bd 34 b8 32 3c
       -0.04521622 -0.012636306 -0.10616227 0.010908175
000240 0b a9 e6 bd 70 a3 1f be 99 3c 45 3d bc 35 24 be
       -0.11262711 -0.1558969 0.048153494 -0.16036123
000250 79 67 5f 3e ed ed 12 be bc f4 be bd 30 84 9c be
       0.21816815 -0.14348574 -0.09324023 -0.305696
000260 a5 04 53 ba 91 05 31 3e 14 be 4f 3d 29 38 c9 3d
       -0.00080497033 0.1728728 0.050718382 0.09825165
000270 c6 24 b1 bd 37 05 75 bb 7a 26 c8 3d 19 0e c1 bc
       -0.08649592 -0.0037387141 0.09772964 -0.023566293
000280 ab 83 8a 3d a2 72 9c bd f4 d5 84 3d a9 45 59 3d
       0.06763395 -0.07639052 0.06486121 0.05304495
000290 57 51 b8 3d 55 a7 d2 3d 31 0f ec bc 29 cb 97 3a
       0.08999889 0.10285822 -0.028815838 0.0011580932
0002a0 8d c6 a9 3d 7d 5d 83 3d 9d d6 a1 bd ed 97 0b bd
       0.08289824 0.06414316 -0.07902262 -0.034080435
0002b0 07 0f 6c bd 8d f7 aa bd be d8 bb bd e5 eb e8 bd
       -0.05763152 -0.08347998 -0.091722 -0.11373118
0002c0 75 39 2d 3d d3 f9 94 be e1 6c 5e be bb 67 85 3d
       0.042291123 -0.2909685 -0.21721222 0.06513926
0002d0 fb a8 f1 3d 64 42 b0 3d 58 b7 4d 3d df ea 4f bd
       0.117998086 0.08606413 0.05022368 -0.0507611
0002e0 56 fa 83 be 97 df bb bc 25 58 ea bd 42 ec ca bd
       -0.2577693 -0.022933764 -0.114425935 -0.09908344
0002f0 a1 ec 3e bd de 1d 47 bd a1 45 06 3e 69 0e fb bd
       -0.046612386 -0.048612468 0.13112499 -0.12258608
000300 75 b1 14 be c4 6b 54 be 64 71 ee 3d 5f e6 4f be
       -0.1452082 -0.20744234 0.11642721 -0.20302723
000310 53 c3 29 3c ea d4 8f 3e ef c5 7c 3d 54 4b b9 3d
       0.01036151 0.28092128 0.0617122 0.09047571
000320 3b 16 32 be aa 77 90 3d 0d ce 8a bc 34 0d 00 3d
       -0.17391293 0.07054074 -0.016943956 0.03126259
000330 b1 ce 35 3c 89 cd e5 bc 82 c3 9e be 63 e7 15 3e
       0.011096642 -0.028052108 -0.31008536 0.14639048
000340 fa b5 d3 3c 6d 60 58 3b 16 56 b7 3d 9e 36 47 3d
       0.02584361 0.0033016459 0.089519665 0.04863607
000350 63 3b 09 be f1 35 be 3c 7e 15 80 3d 04 95 1c be
       -0.1340156 0.02321908 0.06254099 -0.1529122
000360 e5 78 5f 3d ba 07 aa 3d 70 31 15 3e f1 9a 93 bd
       0.054558653 0.08302255 0.1456964 -0.07207287
000370 a9 92 d0 3d d7 6d ba be 10 3e 71 be eb bd c3 be
       0.10184223 -0.36411926 -0.23558831 -0.38230833
000380 2e 01 ba bc d2 4f e9 3e 84 12 83 3e d6 de 01 3e
       -0.02270564 0.4556871 0.25600064 0.12682661
000390 ea 55 32 3c 85 69 2a 3e 75 ad 00 be ce 51 d8 3d
       0.010884741 0.16641815 -0.12566169 0.10562478
0003a0 9f 36 69 3d be bd aa 3d c8 59 8c 3d c0 3d 11 be
       0.056936856 0.08336972 0.06853062 -0.14183712
0003b0 05 38 31 3e f9 b0 89 bc 8e ac 46 3c cc 96 d1 bd
       0.17306526 -0.01680802 0.012126101 -0.1023384
0003c0 13 60 2e be 21 39 4f be 37 53 60 be e8 f5 a0 3b
       -0.17028837 -0.20236637 -0.21906744 0.004912127
0003d0 b5 0a 2d 3d ae a5 1a be b7 2c d2 bd 66 c2 24 be
       0.04224654 -0.15102264 -0.10262435 -0.16089782
0003e0 91 40 06 3e f5 95 8d 3d f4 b7 4a 3c 1a d0 ec 3d
       0.13110568 0.06913368 0.012372959 0.1156313
0003f0 96 3c 2d 3d 70 ff b6 3d fa 0b 00 bd d4 ba a7 3d
       0.042294107 0.089354396 -0.03126142 0.081899315

conv3.bias f4 [32]
000000 b0 e0 4f 3d 72 df 58 bd 93 6b 30 3c 18 92 73 bd
       0.050751388 -0.05294747 0.010767835 -0.059465498
000010 e0 11 82 3d 7b f8 35 bd 21 ed 24 3d 6b 91 0d 3e
       0.06351066 -0.044426423 0.040265206 0.13825004
000020 0d b1 0b be 6f 15 89 bd a0 e3 98 bc e2 0d 03 be
       -0.13641758 -0.06693541 -0.018663228 -0.12798265
000030 37 fc ab 3c 01 18 45 bd 07 4b 21 3e 7e 6a 8b 3c
       0.020994289 -0.048118595 0.15751277 0.017018553
000040 1b 9c 3b bd a0 91 59 bd 16 a7 28 3d 3f f4 fd bb
       -0.04580317 -0.053117394 0.04117497 -0.0077500637
000050 3a c9 39 3d 83 2a 2b 3d ff 9f 0e 3e 90 9a 3b bc
       0.04535792 0.04178859 0.13928221 -0.011450425
000060 1b 2d 59 3d 40 7e dc bd 02 11 84 3c 33 8a c0 3d
       0.05302153 -0.10766268 0.016121391 0.094013594
000070 61 83 2b bd 71 63 f6 3d 9b 4b d7 bd ba 0f e3 39
       -0.04187334 0.12030686 -0.105124675 0.0004330853

dense.weight f4 [5, 32]
000000 50 d5 18 bc be 78 80 bd 5e ed 5e 3e ca ee 21 3e
       -0.009328201 -0.0627303 0.21770236 0.15813747
000010 c3 7c e5 3d f1 62 f7 3d 54 5a 17 be 46 dd b6 3e
       0.11205437 0.120794185 -0.14780551 0.35715693
000020 e5 d2 b8 3c 97 6c 91 bd 28 cf e6 be 70 36 0a be
       0.0225615 -0.0710079 -0.45079923 -0.13497329
000030 00 13 be bd 3b af 80 be ac ad 66 be 09 07 79 be
       -0.09280968 -0.2513369 -0.22527188 -0.2431909
000040 7c f9 86 3c 8c d0 e5 bd 81 f4 68 be 72 fe 93 3d
       0.016476385 -0.11221418 -0.22749521 0.07226266
000050 52 d0 90 3d 82 06 5d 3e 71 2b 59 be b6 c4 42 be
       0.07070984 0.21584514 -0.21207978 -0.19020352
000060 91 b3 0a 3e 06 f4 23 bd 0c ed 8e 3d 7e c4 46 bd
       0.13545062 -0.04002764 0.06978807 -0.048527233
000070 02 df 8d 3e c8 83 80 3e 34 55 ff 3c 82 5c 2a 3d
       0.27709204 0.2510054 0.031168558 0.04159213
000080 dd ae 7b be 81 70 21 3e 78 93 bb 38 f2 f5 bb 3d
       -0.24578424 0.15765573 8.944323e-05 0.0917777
000090 f5 c8 62 be 57 f3 a4 be a8 e5 c7 3d 41 01 0a be
       -0.22146972 -0.32216904 0.097606 -0.13477041
0000a0 66 63 8f 3e f0 cc e2 3e 54 27 34 3e c7 b3 99 be
       0.28005522 0.4429698 0.17593127 -0.30019972
0000b0 2d 14 ed 3c 76 c8 b3 3e bf 26 6e be a6 c7 01 3e
       0.028940285 0.35113877 -0.23256968 0.12673816
0000c0 6f 1a 01 3d e1 23 5c 3d 1b 24 29 3e 84 b8 01 be
       0.03151935 0.053745154 0.1651768 -0.12668043
0000d0 d4 e7 42 bd ea b4 bd 3d 0f e6 72 bc 41 8e 06 3d
       -0.04758437 0.09263022 -0.014825358 0.032850508
0000e0 ae 2d 2a bc 2d 49 79 be fb b7 70 be c3 fa 7a be
       -0.010386867 -0.2434432 -0.23507683 -0.2450972
0000f0 f1 c0 e6 bd 0f 36 b0 be 20 e4 a8 3d bb 86 20 be
       -0.112672694 -0.34416243 0.082466364 -0.15676396
000100 4d 69 2d 3e 92 77 9a bd 9a 34 a5 bd f1 be 03 be
       0.169347 -0.075423375 -0.080666736 -0.12865807
000110 8a 07 99 3d d1 7e 2b be ef 2d 20 3e c5 79 31 be
       0.07472141 -0.16747595 0.15642522 -0.17331608
000120 de 53 fb be 3d 66 a7 be f9 98 84 bd 35 77 aa 3e
       -0.49087423 -0.3269519 -0.0647449 0.33294073
000130 23 ae 67 3e 44 e0 a0 3c af 3b cd 3e b3 64 5f 3b
       0.22625022 0.019638188 0.40084597 0.003408712
000140 91 b2 0f be 0a 13 e9 bd 5d 0d 8f 3d df eb 2e be
       -0.14032961 -0.113805845 0.06984971 -0.17082165
000150 39 48 90 be e1 b0 2d bd d7 65 c6 3d 40 3f f2 bc
       -0.28180102 -0.042405013 0.09687393 -0.029571176
000160 31 75 4e 3e 68 54 95 3e 40 69 4b 3e 33 bc 0c bb
       0.20161892 0.2916596 0.19864368 -0.002147448
000170 0a 76 8f 3c fe 1b 38 3d f1 83 62 be a8 6f 8b bd
       0.01751234 0.04494857 -0.22120644 -0.06808406
000180 20 f4 9d bd fc 20 60 be 8a 2e 81 3e 7e 42 81 3d
       -0.07712579 -0.21887583 0.2523082 0.063115105
000190 81 cf 08 3e 24 e1 04 bd ab da a8 bd f2 3f ae be
       0.13360406 -0.032441273 -0.082448326 -0.3403316
0001a0 0d 68 13 3e 3e 83 e5 3e b5 d7 4e 3e 3b 1b 32 be
       0.14395161 0.44826692 0.20199473 -0.173932
0001b0 c8 e5 7d be 1d 03 53 be 29 48 5a 3e cf 3f b7 3d
       -0.24794686 -0.20606656 0.2131659 0.089477174
0001c0 1c 8f a1 bd 78 1f 01 3c 14 c5 cb 3d e4 30 f2 3d
       -0.07888624 0.007881038 0.09949699 0.118257314
0001d0 70 79 a3 3e 59 2a 4d 3e 75 83 da 3d 5c ed 2c be
       0.31928587 0.20035686 0.10669605 -0.1688742
0001e0 cc 63 58 3d 64 59 9f bc 2e 5d 67 be c6 1e 57 be
       0.05282955 -0.019451804 -0.22594139 -0.21007833
0001f0 0e 34 91 3c 6c ca 06 3e 62 41 11 be 65 f7 50 be
       0.017725017 0.13163155 -0.14185098 -0.20406874
000200 85 10 2e be a6 3e af bd cd 88 16 be 7b 2b c4 3d
       -0.16998489 -0.08556871 -0.14700623 0.09578606
000210 8c 4a 63 3d b0 0a 9c bd da 8e 56 3d 6c 01 d5 3e
       0.055491015 -0.07619226 0.052382328 0.41602647
000220 4b ca 91 bd 19 65 a0 be 22 a5 7e 3c 2f 17 88 3e
       -0.071186624 -0.3132713 0.0155423 0.26580188
000230 4e ab 1e 3e d1 ac f1 3d 87 32 73 be d8 d5 46 be
       0.15495035 0.1180054 -0.23749743 -0.19417512
000240 6f e0 fe bd 3f 6a c0 3d 10 33 2e 3e d7 9e 47 bc
       -0.12445151 0.09395265 0.17011666 -0.012183866
000250 49 72 84 be f1 11 8b be c2 17 ce 3c c3 f1 44 3e
       -0.25868443 -0.27162126 0.025157813 0.1923285
000260 17 f0 5c 3e 09 2a 4a 3e 72 ae f5 bc 42 10 43 3e
       0.21575962 0.19742598 -0.029990409 0.1904917
000270 f7 80 30 be 5f 27 83 be 3f 44 1e 3e fd 1d 45 3e
       -0.17236696 -0.25615975 0.15455721 0.19249721

dense.bias f4 [5]
000000 38 10 82 3d 4d d3 31 be 25 c4 a5 3d e7 3e 1c 3e
       0.0635075 -0.17365761 0.08094052 0.1525837
000010 3e a0 0a be
       -0.1353769
