nesy_verification/saved_models/icl/cnn_with_log_softmax.pt (torch, 26575 bytes, 8 tensors)

conv1.weight f4 [8, 1, 3, 3]
0	0xbe40d2e1	-0.18830444
1	0xbda41755	-0.08012263
2	0x3dc82d7c	0.097743005
3	0xbe26d677	-0.1629275
4	0x3e0cd9f9	0.13755025
5	0x3ed27d74	0.41111338
6	0xbefbd9cc	-0.49189603
7	0xbd7fb51d	-0.062428582
8	0x3d67ff93	0.05664022
9	0x3dac7a20	0.08421731
10	0x3e12fe97	0.14354931
11	0x3eb51b18	0.35372233
12	0xbea754ce	-0.32681888
13	0xbec293c0	-0.3800335
14	0xbee966c1	-0.45586208
15	0x3e6ee5ca	0.23329845
16	0x3d9f6894	0.077836186
17	0x3dce3992	0.100695744
18	0x3d71f433	0.059070777
19	0x3d8165ee	0.0631827
20	0x3ca0ee72	0.01964495
21	0x3cad5892	0.021160398
22	0x3e06aa34	0.13150865
23	0xbec8a8e0	-0.3919134
24	0x3ec40577	0.3828542
25	0x3e9c22c4	0.30495274
26	0xbee79c38	-0.45236373
27	0x3eca097b	0.39460358
28	0x3e8d7115	0.27625337
29	0xbe5ec369	-0.2175423
30	0xbe2c6780	-0.16836357
31	0xbeabbf65	-0.3354446
32	0xbdf96539	-0.1217751
33	0xbeb2b658	-0.34904742
34	0x3eac0dba	0.33604223
35	0x3de3f2fc	0.1113033
36	0x3d188b1f	0.03724205
37	0xbe4c886c	-0.19973916
38	0x3e0d7b1e	0.13816497
39	0xbeddb2ff	-0.43300626
40	0x3e72986e	0.2369096
41	0xbe176da8	-0.14787924
42	0xbdebdd83	-0.115168594
43	0x3e79400a	0.24340835
44	0x3e24ef51	0.16106917
45	0xbdee2bb8	-0.116294324
46	0x3ed932bf	0.4242153
47	0x3e055efb	0.13024513
48	0xbf075a48	-0.52872133
49	0xbd5f3fa4	-0.05450405
50	0x3d641c1a	0.055690862
51	0x3e48d501	0.19612505
52	0xbea0d6ec	-0.31413972
53	0xbe96ab8e	-0.2942776
54	0xbd10bd73	-0.035336923
55	0xbeb1acd4	-0.3470217
56	0xbeab4670	-0.33452177
57	0x3e1e0d7f	0.15434836
58	0x3e812daa	0.2523015
59	0xbeaa5338	-0.33266616
60	0xbdb51b11	-0.08843053
61	0x3e8fdec7	0.28099653
62	0x3eaa7138	0.33289504
63	0xbe059a78	-0.13047206
64	0xbe857c5d	-0.26071444
65	0xbe4facdc	-0.20280784
66	0x3e6e01dc	0.23242897
67	0x3e93e258	0.28883624
68	0x3e60e5fd	0.21962734
69	0x3e28f606	0.165001
70	0x3de37286	0.11105828
71	0x3d907004	0.07052615

conv1.bias f4 [8]
0	0x3e0b30a3	0.13592772
1	0xbe538760	-0.2065711
2	0x3dd4f1dd	0.10397694
3	0xbda1bae3	-0.07896974
4	0xbdd3a88e	-0.10334884
5	0x3e91fe2b	0.28514227
6	0xbe8b6a3a	-0.27229482
7	0xbe943f72	-0.28954655

conv2.weight f4 [16, 8, 3, 3]
0	0xbcaac521	-0.020845952
1	0x3e03e681	0.12880899
2	0x3d082bfc	0.03324507
3	0x3e7c974b	0.24667089
4	0x3e128c18	0.14311254
5	0xbd5f1501	-0.05446339
6	0x3d950c4b	0.07277735
7	0xbd8b63c2	-0.06806137
8	0xbe7d3e1c	-0.24730724
9	0xbdcf40e6	-0.101198
10	0xbcc01edc	-0.023452215
11	0xbd465c2a	-0.04842774
12	0x3c19a8e4	0.009378646
13	0x3cd77804	0.026302345
14	0x3da76061	0.0817268
15	0x3da9430e	0.08264743
16	0x3e5c5cf2	0.21519831
17	0x3e822d84	0.2542535
18	0x3df18be4	0.1179426
19	0xbda0cbb4	-0.07851353
20	0xbe767720	-0.2406888
21	0x3e32e6d6	0.1747087
22	0xbd9977ff	-0.074935906
23	0xbdc4bdb2	-0.09606494
24	0x3e0d3e68	0.13793337
25	0x3ceb8c6f	0.028753487
26	0x3d046a99	0.032328222
27	0x3d1c3d1e	0.038144223
28	0xbe6e54e3	-0.23274569
29	0xbe66263e	-0.22475526
30	0xbe77914e	-0.24176523
31	0xbece01e1	-0.40235808
32	0xbe47ee3b	-0.19524471
33	0xbda68180	-0.08130169
34	0xbde83fda	-0.11340304
35	0x3e37d26c	0.17951363
36	0xbe69d12b	-0.22833697
37	0x3d2616c7	0.040549066
38	0x3e70465d	0.23464341
39	0xbd6ccb58	-0.05781111
40	0xbe228444	-0.15870768
41	0xbe039574	-0.1284998
42	0x3d52f6be	0.051504843
43	0x3e66b93d	0.225316
44	0x3dbc6325	0.09198598
45	0xbe58c9db	-0.21170752
46	0xbd783cb5	-0.06060477
47	0xbe607e6d	-0.21923228
48	0xbd01db08	-0.031703025
49	0x3e43b165	0.1911064
50	0x3dbce3a0	0.092231035
51	0x3d8a348b	0.06748303
52	0x3dc05e7d	0.09393022
53	0xbdd46cdf	-0.10372328
54	0xbe12f334	-0.14350587
55	0xbde5aef5	-0.11215011
56	0xbd795322	-0.060870297
57	0xbe291bdc	-0.16514534
58	0xbe8e42eb	-0.2778543
59	0xbf28e2fc	-0.6597135
60	0xbdd68317	-0.10474222
61	0x3de9a6d7	0.11408775
62	0x3df9918b	0.12185963
63	0xbba6524f	-0.00507573
64	0xbe014484	-0.12623793
65	0x3dc3d78a	0.09562595
66	0x3e019139	0.12653054
67	0xbdb97099	-0.090546794
68	0xbd093374	-0.033496335
69	0x3dfa32c7	0.12216716
70	0xbde473b1	-0.11154879
71	0xbdd79377	-0.105261736
72	0x3d87cffb	0.06631466
73	0x3dd69797	0.10478132
74	0x3cb00c44	0.021490224
75	0xbce82062	-0.028335754
76	0x3d43641b	0.04770289
77	0x3e2f9a57	0.1714872
78	0xbe599e22	-0.21251729
79	0xbedf2b23	-0.43587598
80	0xbe278169	-0.1635796
81	0x3c1fabbd	0.009745535
82	0x3e245c2d	0.16050787
83	0x3de18be1	0.11013008
84	0x3cd1410b	0.02554371
85	0x3d55e374	0.05221887
86	0x3e4a3be5	0.1974941
87	0x3dbcfb8d	0.09227667
88	0x3e4c2c10	0.19938684
89	0x3d5991cd	0.053117562
90	0xbd6ffa88	-0.058588535
91	0x3d7aa171	0.06118912
92	0x3e3e372b	0.18575732
93	0xbec7ab3e	-0.38997835
94	0xbc1e2665	-0.009652709
95	0x3db72878	0.08943266
96	0xbe0e8f62	-0.13921884
97	0xbc0e9065	-0.0087014185
98	0x3c9ef3fd	0.019403452
99	0xbca0c861	-0.019626798
100	0x3c055a3f	0.008139192
101	0x3e89e5f3	0.2693325
102	0xbe5a4c38	-0.21318138
103	0xbe561e29	-0.20909943
104	0x3bf378b9	0.0074301627
105	0xbd19684d	-0.037452985
106	0xbc872d85	-0.016501198
107	0xbe19da70	-0.15024734
108	0xbdf98c13	-0.1218492
109	0x3d2fc57c	0.042912945
110	0x3d3aeafc	0.045634255
111	0xbdc73a27	-0.097278886
112	0xbe46974a	-0.1939365
113	0xbd214b2d	-0.039378334
114	0x3e07be1c	0.13256115
115	0x3dc85026	0.09780912
116	0xbd1fcc99	-0.03901348
117	0x3d6b06e7	0.05737963
118	0xbc16258d	-0.009164226
119	0x3de4834b	0.11157855
120	0x3e339630	0.1753776
121	0x3b566f40	0.0032720119
122	0x3dd173cf	0.10227167
123	0xbc95eda8	-0.0183018
124	0x3da70336	0.08154909
125	0x3df67a0a	0.12034996
126	0xbde1fc89	-0.110344954
127	0xbd79b250	-0.060961068
128	0xbc9d3531	-0.019190403
129	0x3d883c4d	0.066521265
130	0xbe8261be	-0.25465196
131	0xbdfef1b7	-0.12448447
132	0x3e67182a	0.22567812
133	0x3b41a291	0.002954636
134	0xbd58114d	-0.052750874
135	0xbd13f314	-0.03612049
136	0x3bcd3151	0.0062619825
137	0x3e5ae232	0.21375349
138	0xbe9e733a	-0.30947286
139	0xbe3df7ba	-0.18551531
140	0xbd436320	-0.047701955
141	0x3dbb9014	0.0915834
142	0x3b0f2bb4	0.0021846117
143	0xbcda56c5	-0.026652703
144	0xbc6219d5	-0.013800104
145	0x3e2ed85e	0.17074725
146	0x3d2f7758	0.042838424
147	0x3cac3894	0.021023072
148	0x3db1cbab	0.08681425
149	0xbdb93c50	-0.09044707
150	0xbdc7ce35	-0.09756128
151	0xbdcf4a09	-0.10121543
152	0xbd6269f4	-0.055276826
153	0x3c3c5e78	0.0114971325
154	0x3d1de27d	0.038546074
155	0xbdc4d72e	-0.09611355
156	0xbd07f6fa	-0.03319452
157	0x3c061985	0.008184795
158	0xbd5886f4	-0.052863076
159	0x3d06a6da	0.032873966
160	0x3e02d8d9	0.12778033
161	0xbdc9b771	-0.09849442
162	0xbc825d17	-0.01591353
163	0x3bfe7195	0.007765005
164	0xbd289ca8	-0.041165024
165	0xbca21486	-0.019785177
166	0x3ca27356	0.019830387
167	0xbdd82dbe	-0.105556
168	0xbc10195e	-0.0087951105
169	0xbdd4a48c	-0.10382947
170	0xbe0ff8d2	-0.14059761
171	0x3e82cd8f	0.25547454
172	0x3d297a5f	0.041376468
173	0x3d7955c4	0.060872808
174	0xbcb6631f	-0.022264061
175	0x3cbda4d7	0.02314989
176	0xbe190a0c	-0.14945239
177	0x3cfe62a5	0.031052897
178	0xbd8c75c2	-0.06858398
179	0xbdf400e3	-0.11914232
180	0x3ba9df4e	0.0051840907
181	0x3de1572d	0.110029556
182	0x3e4d37ef	0.20040868
183	0xbe1f5a17	-0.1556171
184	0x3dddee33	0.108364485
185	0xbe821922	-0.254098
186	0xbcdb9760	-0.02680558
187	0x3b0dd54f	0.0021642034
188	0x3e0b9750	0.1363194
189	0xbec676dd	-0.3876256
190	0xbe5e48f4	-0.21707517
191	0x3beb6aaa	0.007184346
192	0xbdaf9ca4	-0.08574799
193	0xbdb920a7	-0.09039431
194	0x3caf5df0	0.021407098
195	0xbc6054b8	-0.0136920735
196	0x3d9a8e6f	0.07546698
197	0xbbbdd46e	-0.005793146
198	0x3d70271b	0.058631044
199	0x3e0f63c2	0.14002898
200	0x3e3c644b	0.18397634
201	0x3de02090	0.10943711
202	0xbe359897	-0.1773399
203	0x3d77d3be	0.060504667
204	0xbe86de51	-0.2634149
205	0xbdcabcb3	-0.09899273
206	0xbd456527	-0.04819217
207	0xbd9f7d24	-0.077875406
208	0x3d406685	0.04697277
209	0x3dcd5d54	0.100275666
210	0xbd3348dd	-0.04377066
211	0x3c8dc023	0.017303532
212	0x3deb6fdc	0.11495945
213	0xbe384c92	-0.1799796
214	0xbd1bdf1b	-0.038054567
215	0x3ce5a2c7	0.02803172
216	0x3dd1b06a	0.102387264
217	0x3b9427a2	0.004521326
218	0x3e414800	0.18875122
219	0x3d850410	0.064949155
220	0x3d90ef97	0.07076948
221	0xbd16b78a	-0.03679613
222	0xbca53c93	-0.020170486
223	0xbd531c3c	-0.0515406
224	0x3d86daa9	0.06584675
225	0x3d9932fd	0.07480428
226	0xbca377a5	-0.019954512
227	0x3c2f919c	0.010715868
228	0xbd3f2411	-0.046665255
229	0xbd537f2e	-0.05163496
230	0xbe8251e2	-0.25453097
231	0xbdb3839b	-0.08765336
232	0xbe8c5f5b	-0.274165
233	0xbe59a3f0	-0.21253943
234	0x3e540caa	0.20707956
235	0x3e6d0502	0.23146442
236	0xbd7e5aaf	-0.0620982
237	0x3dfac6d5	0.122449555
238	0xbb4097ae	-0.0029387283
239	0xbe8c172c	-0.2736143
240	0xbd906501	-0.07050515
241	0xbe6b7f11	-0.2299769
242	0xbea070c0	-0.3133602
243	0xbe6381b0	-0.2221744
244	0xbca4d858	-0.020122692
245	0xbdab99a0	-0.08378911
246	0xbd2751d2	-0.040849514
247	0x3d0d7951	0.034539524
248	0x3dc023d0	0.09381831
249	0x3e39b023	0.18133597
250	0x3e8ad47e	0.27115244
251	0xbe0c5e71	-0.13707902
252	0xbd84fd4b	-0.06493624
253	0xbe547281	-0.20746805
254	0x3d899af7	0.0671901
255	0xbc7e33fe	-0.015515326

conv2.bias f4 [16]
0	0x3db90592	0.090342656
1	0xbe0f8d24	-0.14018685
2	0xbd705cd4	-0.058682278
3	0xbe2d7b87	-0.16941653
4	0xbdc5e2f5	-0.09662429
5	0xbbcd283e	-0.0062609008
6	0xbe27004a	-0.16308704
7	0xbdf93820	-0.12168908
8	0xbe394ec0	-0.18096447
9	0xbe9ab996	-0.30219716
10	0xbd0de1a1	-0.034639005
11	0x3db548e8	0.088517964
12	0x3be9ebaa	0.007138689
13	0x3db83663	0.089947484
14	0xbe826048	-0.25464082
15	0xbdf90c6a	-0.12160571

conv3.weight f4 [32, 16, 3, 3]
0	0x3afb6cb6	0.0019182179
1	0xbdc83996	-0.09776609
2	0xbd162163	-0.036652934
3	0xbcd85e88	-0.026412264
4	0xbc28ed95	-0.01031055
5	0x3d8bc162	0.06823994
6	0xbd67aa53	-0.05655892
7	0xbbb782df	-0.005600318
8	0x3cd0d83e	0.025493737
9	0x3c991c87	0.01869036
10	0x3d185a02	0.037195213
11	0xbbe706c7	-0.0070503685
12	0xbd8609e9	-0.06544859
13	0xbde06a94	-0.10957828
14	0xbd9b43f1	-0.07581318
15	0xbc6086cd	-0.013704014
16	0xbda722d0	-0.08160937
17	0xbd8a6dd2	-0.06759228
18	0xbc031a0a	-0.008001814
19	0xbd019a61	-0.031641368
20	0xbd29f141	-0.041489843
21	0xbdae09bc	-0.084979504
22	0xbd95f381	-0.07321835
23	0xbc8dda75	-0.017316082
24	0x3ceb1e49	0.028700965
25	0xbdad92e0	-0.0847528
26	0xbd77e106	-0.060517333
27	0x3d063733	0.032767486
28	0x3d3f8fec	0.046768114
29	0xbc34cb06	-0.011034733
30	0xbc52280a	-0.012826929
31	0x3d1cd5a4	0.03828968
32	0xbda05de0	-0.07830405
33	0xbce284d7	-0.027651234
34	0x3d87149f	0.0659573
35	0x3dbc4f3e	0.09194802
36	0xbd7639ac	-0.060113594
37	0xbda9b430	-0.08286321
38	0xbdecde3e	-0.11565827
39	0x3ca3c304	0.019990452
40	0xbd85eac9	-0.06538922
41	0xbe2fc397	-0.17164455
42	0xbd2433a8	-0.040088326
43	0xbd4f4c66	-0.05060997
44	0xbd0bbad0	-0.034113705
45	0xbd199f97	-0.037505712
46	0xbc1f8f8e	-0.009738816
47	0x3d260a71	0.0405373
48	0xbdad36e1	-0.08457733
49	0xbd9e0185	-0.077151336
50	0xbdfe8811	-0.12428296
51	0x3d21873a	0.039435603
52	0xbdbf34c6	-0.093362376
53	0xbd5edbb6	-0.05440875
54	0x3cba0172	0.022705767
55	0xbd66c6f8	-0.056342095
56	0xbdf50a13	-0.11964812
57	0x3c21d308	0.009876974
58	0xbdc3f02a	-0.09567292
59	0xbd5eb394	-0.054370478
60	0x3cb7d2bc	0.022439353
61	0xbd692214	-0.056917265
62	0xbd13eb7a	-0.03611324
63	0xbd57a8bc	-0.052651152
64	0xbdf95030	-0.12173498
65	0x3c6ffac4	0.0146471895
66	0xbcab880b	-0.020938894
67	0xbd31583f	-0.04329705
68	0xbb57eba1	-0.0032946842
69	0x3d894adc	0.067037314
70	0xbe1287f4	-0.14309675
71	0xbd5b6daa	-0.05357138
72	0xbd7c3b22	-0.06157983
73	0x3cd034af	0.025415746
74	0xbc66ffb4	-0.01409905
75	0xbd2dda59	-0.04244456
76	0xbdb05d67	-0.08611565
77	0xbd16eed0	-0.036848843
78	0xbdf6de5d	-0.12054131
79	0xbd5dd78f	-0.05416065
80	0xbd646570	-0.0557608
81	0xbd6f1aef	-0.058375295
82	0x3d3c4523	0.04596437
83	0x3c9beba9	0.01903327
84	0xbd949235	-0.07254449
85	0x3cb4cbb5	0.022069791
86	0xbcd97953	-0.02654711
87	0xbdcfbc53	-0.10143342
88	0xbdca1aa5	-0.09868363
89	0xbd53b07d	-0.051681984
90	0xbd65e6dd	-0.05612837
91	0xbc7fa205	-0.015602593
92	0x3d9e2348	0.07721573
93	0xbccd4ae0	-0.025060117
94	0x3ca832aa	0.020531971
95	0xbd0f67d7	-0.03501114
96	0x3ca9c416	0.020723384
97	0xbd5ba3b4	-0.053622916
98	0xbdccf3c1	-0.1000743
99	0x3d4688db	0.04847036
100	0xbd82fb1b	-0.06395551
101	0xbdb74262	-0.089482084
102	0xbd2f6924	-0.04282488
103	0xbd4e1214	-0.05031021
104	0xbd990715	-0.07472054
105	0xbd61efd3	-0.055160355
106	0xbdcbb329	-0.099462815
107	0x3d0c0072	0.034180112
108	0xbd24dba5	-0.04024853
109	0xbd1d938a	-0.038470782
110	0xbda6f82f	-0.08152806
111	0xbd9c99ed	-0.076465465
112	0xbdbed810	-0.093185544
113	0xbdb41adb	-0.08794185
114	0xbd85d166	-0.0653408
115	0xbc9a7d56	-0.018858593
116	0x3d1c55c9	0.03816775
117	0xbd7d5e95	-0.06185778
118	0x3d27da6f	0.0409798
119	0xbce52f23	-0.027976578
120	0xbda0b590	-0.0784713
121	0x3dca323f	0.09872865
122	0xbd87d4fe	-0.06632422
123	0xbd58436a	-0.052798666
124	0x3b5076bd	0.0031809055
125	0x3db9cc06	0.090721175
126	0x3c7b725c	0.01534709
127	0xbe0143d2	-0.12623528
128	0xbe1da34d	-0.15394326
129	0xbdbda98a	-0.09260853
130	0x3d150d5e	0.0363897
131	0xbd5df47f	-0.054188248
132	0xbd74d0c6	-0.059769414
133	0x3d1b218c	0.03787379
134	0xbd123dd0	-0.03570348
135	0x3d06091d	0.032723535
136	0x3c35397b	0.011061068
137	0xbcd25d78	-0.025679335
138	0xbae314a9	-0.0017324883
139	0x3d76be84	0.060240284
140	0x3c6d9a33	0.014502096
141	0xbdb690ac	-0.08914313
142	0xbdac7038	-0.084198415
143	0x3c8bacd4	0.017050184
144	0xbd5ce9e3	-0.05393399
145	0xbd9d2aca	-0.07674177
146	0x3e533a7b	0.20627777
147	0x3e30e772	0.1727579
148	0xbd2ae909	-0.041726146
149	0xbe11828b	-0.14209954
150	0x3c99c537	0.018770797
151	0xbe2c7bfb	-0.1684417
152	0xbe8866a4	-0.2664081
153	0xbdaf4ef2	-0.085599795
154	0x3e156986	0.14591035
155	0x3e9e74af	0.30948398
156	0xbe9f4229	-0.31105164
157	0x3c183988	0.00929106
158	0x3e1eb2af	0.1549785
159	0xbcba00af	-0.022705404
160	0xbe50005d	-0.20312639
161	0xbdd8b961	-0.10582233
162	0xbdec5b47	-0.11540847
163	0xb8e575a7	-0.000109414854
164	0x3dcc991f	0.09990143
165	0xbe89a7ef	-0.26885936
166	0x3b8aa89e	0.0042315265
167	0xbe2a9149	-0.16656984
168	0x3dbd454b	0.09241732
169	0x3c54b0ad	0.012981576
170	0x3dfe7922	0.12425448
171	0x3d95663f	0.072948925
172	0xbd5c0336	-0.053714
173	0x3dc03ed0	0.093869805
174	0x3d64bbc4	0.05584313
175	0x3d945232	0.0724224
176	0xbdf499db	-0.11943408
177	0xbcd485b0	-0.025942653
178	0xbc02ba65	-0.00797901
179	0xbd16b276	-0.036791287
180	0xbdd6a8e5	-0.10481433
181	0xbe1bbe6e	-0.15209362
182	0x3c8be653	0.0170776
183	0xbd1cbb62	-0.03826464
184	0x3bb726dd	0.0055893497
185	0x3d2a8f11	0.041640345
186	0xbd15898f	-0.03650814
187	0xbd338583	-0.0438285
188	0x3cd0dd6f	0.025496213
189	0xbdf8f26e	-0.12155615
190	0x3d5fee37	0.05467054
191	0x3e0acd7a	0.13554946
192	0x3ba0094b	0.0048839203
193	0xbdf07cf6	-0.117425844
194	0xbd912f03	-0.07089045
195	0x3e305ac3	0.17222123
196	0xbba32a4f	-0.004979409
197	0xbe595ff1	-0.21228005
198	0xbe24ece6	-0.16105995
199	0xbe29679f	-0.16543435
200	0x3cd28a9d	0.025700862
201	0xbd0e85b1	-0.034795467
202	0xbd6e3643	-0.058157217
203	0x3da9c3ac	0.082892746
204	0x3d51bd46	0.051205896
205	0xbce1b321	-0.027551236
206	0xbcac17a4	-0.021007366
207	0xbdf8fe9b	-0.12157937
208	0x3d513730	0.05107802
209	0x3e5ac57f	0.21364401
210	0x3e315f1c	0.17321438
211	0xbcbdbfb0	-0.023162693
212	0xbdc2e844	-0.095169574
213	0xbd333281	-0.043749336
214	0xbeac1772	-0.33611637
215	0xbe56a9c3	-0.20963196
216	0xbd7a5e43	-0.06112505
217	0x3d7d3977	0.06182238
218	0xbe0043ad	-0.12525816
219	0x3d7f5a58	0.062342018
220	0xbd38f15c	-0.045152053
221	0xbe141d53	-0.14464311
222	0xbd05608d	-0.03256278
223	0x3e26a8d9	0.16275348
224	0xbd5637ff	-0.052299496
225	0xbe5ce338	-0.21571052
226	0x3d412233	0.047151756
227	0xbd12400b	-0.035705607
228	0xbe1c53be	-0.1526632
229	0xbda25559	-0.07926435
230	0x3dccc46d	0.09998403
231	0x3c8c119e	0.017098244
232	0xbe44cdb4	-0.19219095
233	0xbd435c87	-0.047695663
234	0xbdf2dcb6	-0.118585035
235	0xbcfa4fac	-0.030555569
236	0xbd151dbc	-0.03640531
237	0x3c7423b5	0.014901091
238	0xbd154d5f	-0.03645074
239	0xbdcc5c80	-0.099785805
240	0x3da1d108	0.07901198
241	0xbdca079b	-0.09864732
242	0xbe0d4490	-0.13795686
243	0xbe6bd70c	-0.23031253
244	0xbdd5a157	-0.10431164
245	0xbe0ced84	-0.1376248
246	0x3c193d35	0.009352972
247	0x3c910c60	0.017706096
248	0xbd4e0246	-0.050295137
249	0x3cf206e8	0.029544309
250	0xbd9aebef	-0.07564532
251	0xbe480bc6	-0.19535741
252	0xbdbc174a	-0.091841295
253	0xbd66f682	-0.056387432
254	0xbda91c61	-0.08257366
255	0xbd80155f	-0.06254076

conv3.bias f4 [32]
0	0xbca3cba9	-0.019994574
1	0xbc550783	-0.013002279
2	0xbd0957c5	-0.03353097
3	0xbd77f0a9	-0.060532246
4	0x3c9fec3b	0.019521823
5	0xbd5ae633	-0.05344219
6	0xbda05eaa	-0.07830556
7	0x3be74ad4	0.0070584808
8	0x3b6279a9	0.0034557378
9	0xbdbdcb58	-0.092673
10	0x3d9e01e0	0.077152014
11	0x3d9661cc	0.07342872
12	0xbd5fb6ce	-0.054617696
13	0x3b5ac32c	0.0033380492
14	0xbd4bcd40	-0.04975629
15	0xbb920855	-0.0044565597
16	0x3d108ad6	0.035288654
17	0x3cf86b40	0.030324578
18	0xbd06542f	-0.032795127
19	0xbd8883bb	-0.066657506
20	0xbddd0055	-0.10791079
21	0xbd46f258	-0.04857096
22	0xbca018fc	-0.019543163
23	0x3cc84ae7	0.024449779
24	0x3e074350	0.13209271
25	0x3d5321de	0.05154597
26	0xbe179ebe	-0.14806649
27	0x3b757600	0.0037454367
28	0x3d3c898a	0.046029605
29	0xbda33009	-0.07968146
30	0xbdd54a03	-0.10414507
31	0xbdc8efc6	-0.09811358

dense.weight f4 [5, 32]
0	0xbd96a631	-0.07355917
1	0x3eeac391	0.4585233
2	0xbe68f80c	-0.22750872
3	0x3d89cfe2	0.067291036
4	0x3ea6dca5	0.32590213
5	0xbc1dda8c	-0.009634625
6	0x3e52cce3	0.2058597
7	0xbe66da77	-0.22544275
8	0xbd6015d9	-0.054708336
9	0xbe95173d	-0.29119292
10	0x3d0a9c46	0.03384044
11	0x3e7e52c8	0.24836266
12	0xbe27b368	-0.16377032
13	0x3e09e33c	0.1346559
14	0xbdf80a2b	-0.121113144
15	0x3d9ee5d1	0.07758678
16	0xbd1d4a26	-0.03840079
17	0x3e1a01cc	0.15039748
18	0xbe447449	-0.19184984
19	0xbdf46547	-0.119333796
20	0xbdf81e52	-0.12115158
21	0xbd3d4537	-0.046208587
22	0x3e1fa74c	0.15591162
23	0x3d56b94e	0.052422814
24	0xbeb3b5fa	-0.35099775
25	0xbe1b10cd	-0.15143128
26	0xbd829649	-0.06376321
27	0xbe7a0865	-0.24417265
28	0x3e94e218	0.29078746
29	0xbd0dd889	-0.034630332
30	0xbeeb199d	-0.4591798
31	0x3c823ade	0.01589721
32	0xbe643ef1	-0.22289635
33	0xbea1cb7e	-0.31600565
34	0x3dbd54b8	0.092446744
35	0x3db0d64d	0.08634625
36	0xbe84b15a	-0.25916559
37	0x3d27b066	0.04093971
38	0x3c07fb6c	0.00829969
39	0x3e620694	0.22072822
40	0xbdd9786e	-0.10618673
41	0x3dc86ed1	0.097867616
42	0xbd5e092a	-0.05420796
43	0xbcff4ac9	-0.03116359
44	0x3d14363b	0.03618453
45	0xbe74ae02	-0.23894504
46	0x3e32d894	0.1746543
47	0x3c31a15c	0.010841694
48	0xbc49891e	-0.012300758
49	0xbe5bf542	-0.21480277
50	0x3d22a0d4	0.03970416
51	0xbe8144ce	-0.25247806
52	0x3e26ead1	0.16300513
53	0xbea4d848	-0.3219626
54	0xbe747047	-0.23870955
55	0x3e77703c	0.24163908
56	0xbe671c19	-0.22569312
57	0xbd7a325b	-0.06108318
58	0x3e0a906b	0.13531654
59	0x3e0e48e0	0.13894987
60	0xbebc9438	-0.36831832
61	0xbe90cbc3	-0.28280458
62	0x3ec918b2	0.39276654
63	0x3e7bce02	0.24590304
64	0x3d876c5f	0.06612467
65	0xbe7bd087	-0.24591266
66	0x3e09f014	0.13470489
67	0x3e8674a4	0.26260865
68	0xbe482117	-0.19543873
69	0xbeafb926	-0.34320945
70	0xbe6f9047	-0.23394881
71	0x3da9ea56	0.08296649
72	0xbce5f426	-0.02807052
73	0xbd50811f	-0.05090439
74	0x3d882715	0.06648079
75	0xbd30661b	-0.043066125
76	0x3ddd215c	0.107973784
77	0x3d98864a	0.074474886
78	0xbe63c41f	-0.22242783
79	0xbdc7e39d	-0.09760211
80	0xbe31e435	-0.1737221
81	0x3d387740	0.0450356
82	0xbe38944d	-0.18025322
83	0x3ec1d004	0.37854016
84	0x3e4c5182	0.19952968
85	0x3e7ae4df	0.2450137
86	0xbd5b86be	-0.053595297
87	0xbe966051	-0.2937036
88	0x3eef4c44	0.46737874
89	0x3dce053f	0.10059594
90	0x3c58deeb	0.013236742
91	0x3cd622d4	0.026139654
92	0x3e20ab70	0.15690398
93	0x3e0c3d62	0.1369529
94	0xbe75b90f	-0.23996376
95	0xbdfbc912	-0.122942105
96	0xbbbbec93	-0.005734989
97	0x3eab869d	0.3350114
98	0xbc85b2d1	-0.016320618
99	0xbe151adc	-0.14561027
100	0xbd0c8fe6	-0.03431692
101	0x3e6aef30	0.22942805
102	0x3e508d2f	0.20366357
103	0xbe71b779	-0.23605146
104	0xbe37f997	-0.17966305
105	0xbe94a7fb	-0.2903441
106	0x3c1e6469	0.009667494
107	0xbe0699af	-0.13144563
108	0x3db09b2d	0.086233474
109	0x3d3fdc48	0.046840936
110	0xbcf493d9	-0.029855656
111	0x3c06ec38	0.00823503
112	0xbd996cbb	-0.07491442
113	0x3e4597fe	0.19296262
114	0x3dd98103	0.1062031
115	0xbe92fc64	-0.28708184
116	0xbde3ced1	-0.111234315
117	0xbe60847f	-0.21925543
118	0x3e009c76	0.12559685
119	0x3d4e56b4	0.050375655
120	0x3ea22756	0.31670636
121	0x3d2e3d41	0.042538885
122	0xbdd03dc3	-0.1016803
123	0x3d9313ce	0.07181512
124	0x3e1f133d	0.15534683
125	0x3da56fbc	0.08077952
126	0xbe8e3fe4	-0.2778312
127	0xbdbeac4f	-0.09310209
128	0x3d3d534a	0.04622201
129	0xbe6c4865	-0.23074491
130	0xbd393143	-0.045212995
131	0x3d3407b1	0.043952648
132	0x3dfa2edb	0.12215968
133	0xbdb6e090	-0.08929551
134	0xbc611ea8	-0.013740219
135	0x3e1607dd	0.14651437
136	0x3ea1bec6	0.3159086
137	0x3e783d60	0.24242163
138	0xbe1d8889	-0.15384115
139	0x3e3ae65d	0.18251939
140	0xbe70f9b6	-0.23532757
141	0x3df1a468	0.11798936
142	0x3e1cfb17	0.15330158
143	0xbdf0e31d	-0.117620684
144	0xbe19a230	-0.15003276
145	0xbe6e29ad	-0.23258086
146	0x3d77532e	0.06038206
147	0x3e1023f1	0.1407621
148	0x3d5d5c5c	0.05404316
149	0x3e36664c	0.1781246
150	0xbabd9e54	-0.0014466741
151	0xbd38b17f	-0.04509115
152	0xbecad339	-0.39614275
153	0x3e142340	0.14466572
154	0x3dff6201	0.12469865
155	0xbe53b1de	-0.2067332
156	0xbe3be1c4	-0.18347842
157	0x3e176a61	0.14786674
158	0x3ead6330	0.33864737
159	0x3e8800ce	0.26563114

dense.bias f4 [5]
0	0x3d77ac22	0.060466893
1	0xbc8874fa	-0.016657341
2	0x3d556587	0.052098777
3	0x3d7d668c	0.061865374
4	0xbe691ff2	-0.22766092
